jam/wall-threat.model (npz, 24511 bytes, 6 tensors)

l1/b f4 [50]
000000 26 87 e0 be da 9b 18 bf d1 8b 75 bf e6 33 16 bf
       -0.4385311 -0.5961281 -0.9591647 -0.5867294
000010 e8 af 7c bd 2a f9 aa bd 61 da eb be ee d3 31 bf
       -0.061691195 -0.083483055 -0.46065047 -0.69464004
000020 c1 a5 42 bf 4d 0a 23 40 bd 4b 93 bd 38 5f 85 bd
       -0.7603417 2.5475037 -0.0719218 -0.06512302
000030 96 74 bc bd a5 df 92 bd e0 c4 31 bf fd 92 05 bf
       -0.092019245 -0.07171563 -0.6944103 -0.5217741
000040 66 00 a7 bd 57 0b a5 bd c4 d8 e1 be 04 3c ad bd
       -0.08154373 -0.080588035 -0.44110692 -0.08458713
000050 0b 92 d4 bd 2a 0c 07 bf 44 93 b6 be 77 e2 3a bf
       -0.10379418 -0.52752936 -0.3565923 -0.7300181
000060 c4 f9 15 bf f4 ad 5f bf 01 50 b3 bd 8f 88 ef be
       -0.5858424 -0.87374806 -0.08755494 -0.46783873
000070 39 86 94 be 04 a8 94 be 43 23 a9 bd 1a fb d4 bd
       -0.29008654 -0.29034436 -0.08258679 -0.10399456
000080 07 33 d8 be f2 fd 91 bd 71 99 93 be 35 71 a5 bd
       -0.4222643 -0.07128514 -0.28828004 -0.08078233
000090 c0 c2 ea be cb 0d b7 be 99 b1 6e bf e3 54 6f 3d
       -0.45851707 -0.3575271 -0.9323974 0.058430564
0000a0 2e 9a 74 bd 3e 5a 82 bd 8e 3b 3a bf b8 9f 5a bf
       -0.05971735 -0.063648686 -0.72747123 -0.8539996
0000b0 c7 43 74 bd a9 34 1c bc e0 08 32 3e d2 8a b8 bd
       -0.05963495 -0.00953404 0.17386198 -0.09010853
0000c0 b7 3b 81 bd 1e e5 f0 be
       -0.06310218 -0.47049803

l1/W f4 [50, 100]
000000 85 31 cb bd 5a 09 a1 3e 89 a5 bc 3e 0f d6 4b bf
       -0.099215545 0.31452447 0.36845043 -0.796235
000010 ef c1 32 3d 6f ea a7 bf fe 34 e2 3c 09 93 ce 3e
       0.04364198 -1.3118418 0.02761316 0.40346554
000020 a9 15 4b 3d a9 d8 b9 be 67 0b f7 3e b5 28 76 3e
       0.049581204 -0.3629811 0.48250887 0.24038966
000030 0f de 55 be 59 ce d8 3e 87 0d 0d bf 1b 71 d5 3e
       -0.2088549 0.4234493 -0.55098766 0.41687855
000040 a1 4d b4 3d 7f 42 d9 3d fa 81 0a 3e 15 7d 93 3c
       0.08803869 0.10608386 0.13526145 0.01800398
000050 88 14 5c be 7b a7 d0 3e 09 63 e0 be 40 ca 21 3f
       -0.21492207 0.40752777 -0.43825558 0.63199234
000060 db 85 54 be 02 46 5d 3f 4e 8f e7 bd 66 97 93 3f
       -0.20754187 0.8643495 -0.1130663 1.1530578
000070 53 63 a2 3e 1e 6b 59 3d cd ec 3e 3e 44 a3 63 be
       0.31716403 0.05308067 0.1864502 -0.2223025
000080 ae 18 e7 3e 35 d4 47 3f a8 d4 e9 be 4c 69 f4 3e
       0.45136017 0.7805818 -0.45670056 0.47736585
000090 50 06 7d bd 16 e1 01 bf fe 51 12 3f 7d f3 8c bc
       -0.0617736 -0.5073408 0.5715636 -0.017205948
0000a0 bf 32 36 bf bd 92 5d 3e 50 4b 31 bf 86 8e 19 3f
       -0.7117118 0.21638007 -0.6925554 0.599831
0000b0 77 de a1 3e 5f 7e de be b5 1f 0e be d6 d3 fa 3e
       0.3161504 -0.43455788 -0.13879283 0.48989743
0000c0 af c0 47 3e 88 c8 fc bd a8 00 2e 3f 2d 56 8c 3b
       0.19507097 -0.12342936 0.6796975 0.004282734
0000d0 a2 7b 5f bf b8 b8 80 be 12 f7 ba 3e 4c d8 9f bf
       -0.87298024 -0.2514093 0.36516625 -1.2487884
0000e0 b0 95 3d 3e 57 37 4f 3d 98 bc be 3c 3e 88 58 bf
       0.18514132 0.050589886 0.023283288 -0.8458289
0000f0 39 f2 4a be fa e4 9c bf 41 5c 11 c0 2b eb 8f 3e
       -0.19818963 -1.2257378 -2.2712557 0.28109106
000100 f0 d8 04 3e 40 33 ec 3c 3f b2 a3 3b 6e 1b 4f bf
       0.1297338 0.028833032 0.004995614 -0.8090123
000110 cf f0 2c 3f 5d dc 73 3f 16 b7 c5 3e 8b 30 ad 3e
       0.67554945 0.9525812 0.38616246 0.33826098
000120 bd 21 33 be 81 ed a6 3d 7a f9 3f 3e 86 93 6b 3d
       -0.17493339 0.08150769 0.18747512 0.057513736
000130 d3 b0 9e 3e 91 2a 9d 3e 4f b2 95 3f 73 e2 6f 3e
       0.3099428 0.30696538 1.169504 0.23426227
000140 30 d7 f6 bd 51 e9 63 3c da 64 98 3e 7d db df 3e
       -0.120527625 0.013910607 0.29764444 0.43722144
000150 80 d9 e2 3e 3a c2 45 3e 7e fc 78 3d 08 3d af 3e
       0.44306564 0.19312373 0.06078767 0.3422625
000160 87 0b 2a bf ee 67 03 3f b4 cd 65 be c2 8e db be
       -0.6642384 0.5133046 -0.22441751 -0.42882353
000170 26 e9 44 be 43 1c 76 3e 68 92 d6 3d 38 2f 06 3f
       -0.19229564 0.24034218 0.104771435 0.524158
000180 88 34 88 be 7d a5 4b bc f6 dd 04 3e 73 33 fb 3d
       -0.26602578 -0.012429592 0.12975296 0.122656725
000190 d6 84 6e 3f eb 74 1a 40 9c e1 40 3f cf c3 50 bf
       0.9317144 2.413386 0.7534425 -0.8154878
0001a0 dd e2 82 3f 36 0a 7d bf 7d e0 92 bf 1e a0 a4 3f
       1.0225483 -0.98843706 -1.1474758 1.2861364
0001b0 09 1f 2d 40 ff 69 e2 bf b5 bb 67 40 84 41 c4 3f
       2.7050192 -1.7688597 3.6208317 1.5332494
0001c0 c4 d3 77 bf aa 85 8b 3f 9f b2 a8 3f 84 4d 2b 3f
       -0.96807504 1.0900166 1.3179511 0.66915154
0001d0 3d ef 8d be d6 d2 e2 3e dd c0 f1 3d 33 d0 d5 be
       -0.27721587 0.4430148 0.11804364 -0.41760406
0001e0 99 74 8b 3f 27 d7 86 3f 1b 85 c0 be d8 33 b6 bf
       1.0894958 1.0534409 -0.3760155 -1.4234571
0001f0 33 54 94 bd ac 37 28 3f 44 bd 66 3e dd c1 09 3f
       -0.07242622 0.6570995 0.22533137 0.53811437
000200 59 55 24 3f ba 59 45 bf 9d e2 2a 3f 82 3c e3 3f
       0.6419273 -0.77090037 0.66752034 1.775284
000210 b9 31 c8 3e a0 2f ff bf ab 19 fa bf fd 3a 8b 3f
       0.39100435 -1.9936409 -1.9539083 1.0877377
000220 fc 14 0a 3f 07 ae 97 bf 29 29 65 3f df bf ef 3d
       0.5393827 -1.1849984 0.8951593 0.117065184
000230 3a ef de bf 68 fd c5 3f fc fd 0d 40 18 d6 fa bb
       -1.7416756 1.5467958 2.218627 -0.0076549165
000240 47 b0 83 3f 17 ae 86 3d db 43 62 3f 74 bb f7 3d
       1.028817 0.06576174 0.8838479 0.12096301
000250 a5 8d 7f 3f 91 48 8d 3f 82 75 b7 3f ca d4 16 3f
       0.9982551 1.103777 1.4332736 0.5891844
000260 5f b7 d2 bf 3a 30 a2 be aa 5e 41 3f 42 fe 22 3e
       -1.646221 -0.3167742 0.7553507 0.15917304
000270 b7 70 99 3f de 40 ec 3c 30 05 05 3f ed 5a 95 bf
       1.1987523 0.028839525 0.5196104 -1.1668373
000280 35 3d ec bd 05 a0 74 bf f9 f2 11 be 8c c1 04 40
       -0.11535112 -0.9555667 -0.14252843 2.0743132
000290 fe 3d 9f 3e de a6 12 3f 94 3b 1e 3f b3 14 f1 be
       0.31101984 0.5728587 0.6180966 -0.47086105
0002a0 72 3b e3 3d ac d5 8c 3f fc 96 87 3f 54 58 74 3f
       0.11095323 1.1002707 1.0592952 0.9544728
0002b0 fd 64 46 be 1f 35 84 3f ec 46 5f 3e 53 6f 03 be
       -0.19374461 1.0328711 0.21804398 -0.12835436
0002c0 14 e5 03 3f 94 3d 85 40 5c 6a 52 40 82 a7 7f bd
       0.5152142 4.163767 3.2877417 -0.062415607
0002d0 15 fc 4b 3f e3 d5 85 3f fb c7 a1 3f bd 29 58 3f
       0.7968152 1.0455898 1.2639154 0.8443869
0002e0 78 4e 56 3f 84 46 73 3f 90 7c af 3f e3 a4 1b 40
       0.83713484 0.95029473 1.3709888 2.431939
0002f0 61 c3 3e 3f c7 ff 6f 3f b1 8b 9c 3e 0e 16 e6 3e
       0.74516875 0.9374966 0.30575326 0.449387
000300 ad f7 92 3f e0 de f5 be 38 95 34 3f df 8d 7b 40
       1.1481835 -0.48021603 0.7054019 3.9305341
000310 68 65 06 bf ac 96 41 3e 02 7b c1 bc c9 dd 2c 3f
       -0.52498484 0.18905133 -0.023618225 0.6752592
000320 29 3e 5b 3f 37 34 66 3e ae 4a 3a 3f 14 62 68 bf
       0.85641724 0.22480856 0.727702 -0.90774655
000330 db 33 e4 bb ae c0 d2 bd ea 92 6a bf 69 c0 e1 bb
       -0.0069641895 -0.10290657 -0.91630423 -0.006889392
000340 21 bf ba 3a 16 6b 50 be 7d 06 0b 3f 34 65 1c bd
       0.0014247635 -0.2035335 0.54306775 -0.038182452
000350 af be f9 bf 79 92 18 3d a7 9b 7d 3f 92 28 10 3d
       -1.9511317 0.037249062 0.9906563 0.03519494
000360 37 4f 03 3f dd 8d ca bd 20 45 7d bf e0 a7 07 3f
       0.5129275 -0.098903395 -0.989336 0.5299053
000370 39 65 aa 3e 2d 2b 8a be 92 4d 7e bf 51 33 f4 3d
       0.33280352 -0.26986066 -0.9933711 0.1192385
000380 c8 e2 ae bd b7 38 50 3f 77 31 af 3e 35 2a 9c 3f
       -0.08539349 0.8133654 0.34217426 1.220038
000390 a3 a4 c6 3e c4 c3 58 3f 87 3c 3c 3e df 23 3f 3f
       0.38797483 0.84673715 0.18382464 0.7466411
0003a0 59 21 af 3f c1 f9 22 bf a7 29 03 bf 64 8f 4c 3f
       1.3682052 -0.63662344 -0.5123543 0.79906297
0003b0 0a c8 5a bd f0 f2 1d c0 4e 4a b2 3e 41 de de 3c
       -0.05341343 -2.4679527 0.34822315 0.027205588
0003c0 5b 41 4e bf 6f 91 12 3d dd e0 1f c0 ae 9d 12 3f
       -0.80568475 0.035783228 -2.4980996 0.5727185
0003d0 d8 2f 03 be 01 c0 6f bf 53 8b 4b 3f 63 15 13 3e
       -0.1281122 -0.9365235 0.79509467 0.14363627
0003e0 1a 0b 24 3e d2 4f 0f bf e7 a7 3d 3f 47 8a 22 3e
       0.1601986 -0.5598117 0.74084324 0.15873061
0003f0 a4 b7 1f bf 58 12 c7 3e 8e dc 6c bd e6 97 1a bf
       -0.6238959 0.38881183 -0.057827525 -0.6038803

l2/b f4 [15]
000000 ed 5d 4b 40 50 42 47 40 39 6b 39 40 14 16 37 40
       3.1776078 3.1134224 2.8971694 2.8607225
000010 30 67 24 40 b9 9d 4c 40 ed 6c 3e 40 c1 53 32 40
       2.568798 3.1971266 2.9753983 2.786362
000020 42 0b 37 40 25 e6 0c 40 ad a9 40 40 ec 52 36 40
       2.8600621 2.201547 3.0103562 2.8488111
000030 96 d1 2f 40 cd 50 1e 40 5c 3f 0b 40
       2.747167 2.4736817 2.1757421

l2/W f4 [15, 50]
000000 f4 f9 2a be 0c d6 7a be 92 f8 44 bf 13 3c 55 bf
       -0.16696912 -0.24495715 -0.7694179 -0.8329479
000010 d4 af 3c 3c 1e ca 2a be be 43 81 3e a0 d2 1b be
       0.01151653 -0.16678664 0.25246996 -0.15217066
000020 7f bd 1a bf f8 88 63 3f ef af cf bd 26 7c 7a be
       -0.604454 0.8888087 -0.101409785 -0.24461421
000030 bf dc 0d 3e c6 f4 b3 3d 5e e8 4d bf ea bf 24 be
       0.13853739 0.08786921 -0.8043269 -0.16088834
000040 ca 80 fc 3d 1f a2 18 3e 7d 41 ff bf 83 e5 7d be
       0.12329252 0.14905594 -1.994186 -0.24794583
000050 b8 eb 95 bf 9a 85 4c bf aa 3c 11 c0 65 2d 96 bf
       -1.1712561 -0.7989136 -2.2693276 -1.1732603
000060 01 60 f2 bf 4b b2 08 bf 27 d5 86 3d 98 ed ad be
       -1.8935548 -0.53397053 0.06583624 -0.33970332
000070 1d c0 eb bd 81 81 6c bf 53 81 19 bb 53 06 eb be
       -0.11511252 -0.9238511 -0.002342303 -0.45903262
000080 54 54 a0 bf 68 bf e9 39 26 b6 ed be e9 3e 9f 3d
       -1.2525735 0.00044583832 -0.4642803 0.07775671
000090 ca 2c 1f bf b4 39 07 bf fc ef 52 bf 4a dc 3c c0
       -0.6217772 -0.52822423 -0.8239744 -2.9509454
0000a0 e4 6c 08 be a5 c1 2c 3e 36 de 48 be 10 3b d5 bf
       -0.13322788 0.16870745 -0.19616017 -1.665865
0000b0 74 32 3d be 9f a1 36 be e4 34 91 3f 24 b1 3e bd
       -0.18476278 -0.17835091 1.1344266 -0.046555653
0000c0 c3 b7 62 3d a0 3e a5 bf 08 60 11 3e db c4 34 bf
       0.05535103 -1.2909737 0.1419679 -0.7061288
0000d0 04 e3 b0 bf 4c c2 a4 bf b7 e5 3f 3e 72 3c 8c be
       -1.381928 -1.2871795 0.18739973 -0.27389866
0000e0 cf ca ef bd 42 29 31 be 9a 83 96 bf 1a ae 83 3f
       -0.117086045 -0.17300895 -1.1758912 1.0287507
0000f0 7b c9 28 3d e8 ec aa 3d cc e5 66 3d 60 37 c6 bc
       0.04120777 0.083459675 0.056371495 -0.024196327
000100 3c de db be e5 f8 68 bf 19 e0 0c bd b3 5d 7b bd
       -0.4294299 -0.9100478 -0.034393404 -0.061368655
000110 2a a3 d5 bf f8 54 ef bd 74 96 11 bf 90 bf 14 be
       -1.6690419 -0.116861284 -0.568702 -0.145262
000120 4d 2b ef bf f4 78 ad bf 66 b3 c7 bf be d1 8d bf
       -1.8685089 -1.3552537 -1.5601623 -1.1079633
000130 87 ff 4a be bd 65 8e be 0f e0 0f bf 22 75 ba bb
       -0.19824038 -0.27811995 -0.5620126 -0.005690233
000140 4e bd bb bd 86 7f f6 bf 03 f0 9b bf 22 02 1b be
       -0.091669664 -1.9257667 -1.2182621 -0.15137532
000150 61 76 9b be ce c3 74 bd c5 16 8f bf 37 75 0b bf
       -0.30363753 -0.059757046 -1.1178824 -0.5447573
000160 d0 cd ff bf 43 45 29 c0 9d 4e 75 bd 11 ed 6c 3d
       -1.9984684 -2.6448524 -0.059889425 0.05784327
000170 6c a9 ec bd ac 61 b1 bf 52 f1 cc bd 64 4e 60 be
       -0.11555752 -1.3857932 -0.10006966 -0.21904904
000180 a7 c4 7e 3f 59 56 da 3e 21 e5 0f 3e 22 bf 00 bf
       0.9951882 0.42644003 0.1405225 -0.50291646
000190 e7 92 6f 3d 71 b7 71 bf 28 5e 7a bf a5 6e 8f be
       0.058489706 -0.94420534 -0.9779992 -0.28014103
0001a0 1f 4d 14 3e 92 d2 14 be a4 d3 9a be 6e d4 08 be
       0.14482544 -0.14533451 -0.30239594 -0.13362285
0001b0 fc 80 d4 bf 1c 67 8b 3f 6b 1d 31 3e 0e ca 06 be
       -1.6601863 1.0890841 0.17296378 -0.13163015
0001c0 7d ca 8c ba 76 35 f4 3d 20 21 5b be 91 1f 2f bf
       -0.0010741499 0.11924259 -0.21399355 -0.6840754
0001d0 0f cf 2f 3c 48 f0 80 be 92 2f ae bf 3c c3 d0 3d
       0.010730519 -0.2518332 -1.3608267 0.10193488
0001e0 18 02 a9 be 71 c4 7a be 42 a0 b7 bf 7e 6b d4 bd
       -0.3300941 -0.24488999 -1.4345782 -0.10372065
0001f0 1d ad 8f bf 26 45 a9 bf 40 66 f6 bc a7 27 19 bf
       -1.1224705 -1.3224227 -0.030078053 -0.5982613
000200 3f b2 d8 be bf a1 c7 3e 05 29 1b bc 4f c6 02 c0
       -0.4232349 0.3899059 -0.009470229 -2.0433538
000210 a6 a7 fe bf 5d 6d 89 bd 87 24 8c be 4f 7e 34 3d
       -1.9894912 -0.067103125 -0.27371618 0.04406577
000220 37 4c ac bf 68 94 02 be ab 6c bd bf 5b 29 29 c0
       -1.3460759 -0.12751925 -1.4798788 -2.6431491
000230 6a f3 cc 3d 13 29 bd bd 7d 2d db be 2e 6b 82 bf
       0.10007365 -0.0923635 -0.42808142 -1.0188959
000240 8f 2e 8f bc 9d 52 76 be 49 f6 11 3f d2 b2 97 be
       -0.017478256 -0.24054952 0.57016426 -0.29628617
000250 1b 79 03 be dd 42 dc be 1f af b6 3c 38 11 a5 bf
       -0.12839167 -0.43019763 0.022300301 -1.289588
000260 08 66 51 bf 5c e7 05 c0 af 59 55 3e e7 d3 89 bb
       -0.8179631 -2.092246 0.20834993 -0.004206169
000270 3d 0d 09 bf 51 c8 a2 be 75 c9 da bf 0b 6b 95 3f
       -0.53535825 -0.31793454 -1.709273 1.1673292
000280 eb 88 2d 3e d8 2d 8b 3e ca fb 38 bd 1a 7c 58 3d
       0.16946761 0.27183414 -0.045162 0.052852727
000290 67 e1 78 3e cc 93 8a bf 21 e2 2f 3c 9b 4d 7e 3c
       0.24304734 -1.0826354 0.010735066 0.015521432
0002a0 2f 65 72 bf ba a8 ea bd 2e 26 c8 be b4 2e d6 be
       -0.94685644 -0.11457963 -0.3909163 -0.41832507
0002b0 c3 3f 9b bf 9c af 98 be 84 cf b2 bf 3f f9 f6 bf
       -1.2128834 -0.2982148 -1.3969579 -1.9294814
0002c0 81 4e 00 3d cd 58 27 bf 41 1d e5 be fe 76 36 3f
       0.031324867 -0.65369874 -0.4474888 0.7127532
0002d0 d1 77 99 bc 43 53 d9 bf 35 a1 b4 bf a0 ab 91 bd
       -0.01873389 -1.6978534 -1.4111696 -0.07112813
0002e0 95 2a ef be 2e 6d 0d 3e 25 f6 c3 bf ec 21 4c 3e
       -0.46712175 0.1381118 -1.5309492 0.19934815
0002f0 53 16 92 bf d4 fb 12 c0 c7 6a cb 3d 3c 74 f6 3c
       -1.1413063 -2.2966204 0.099324755 0.030084722
000300 dd 68 15 bf 73 8b 13 bf ed 2a 87 3d 8c c5 ad be
       -0.58363134 -0.5763466 0.06599984 -0.3393978
000310 de 96 ca 3e 03 2d 86 bc 57 c2 60 3e d7 6f 18 be
       0.39568228 -0.016378885 0.21949135 -0.14886414
000320 24 0e dd be 13 b5 11 c0 17 82 6d bf ce 86 70 bf
       -0.4317485 -2.276677 -0.92776626 -0.93955696
000330 cf 5a ec bd ff 9f e2 bd 17 8a 7f be 60 fd dd be
       -0.11540758 -0.11065673 -0.24955021 -0.43357372
000340 39 62 33 bf d7 a4 77 3f 83 6f 35 be 44 73 c9 bd
       -0.7007175 0.967359 -0.1771832 -0.09836438
000350 d2 f0 3c be c6 4f 01 bf 8e 16 f0 bd 22 8c 4a bf
       -0.1845124 -0.5051235 -0.11723052 -0.79120076
000360 67 46 0b be e7 73 8f be 1c c1 9c be 0b 4c 68 be
       -0.13601075 -0.28018114 -0.3061608 -0.22685258
000370 28 c2 75 bf 1d e0 a4 3d f5 0c ba be eb 74 54 bf
       -0.95999384 0.08050559 -0.3633801 -0.829909
000380 3e 37 86 bf a1 40 90 bf 17 5e 77 3d cd 74 de be
       -1.0485609 -1.1269723 0.060392465 -0.43448487
000390 25 e0 7d be 5d 2e a3 3f 4b c3 e9 3c 89 1f 07 c0
       -0.24792536 1.2748524 0.028535506 -2.1112998
0003a0 05 68 00 c0 f2 ec 82 3d 7f a4 de be 05 86 d6 be
       -2.0063488 0.0639285 -0.43484876 -0.41899124
0003b0 04 7e d7 bf 63 95 64 bd f8 3b 16 bf 4e 0e e7 bf
       -1.6835332 -0.05580653 -0.58685255 -1.805124
0003c0 e9 b6 4c 3d 7d 5e 45 be a4 1c 7b bf ee 04 dd bd
       0.049979124 -0.19274326 -0.9809058 -0.10791956
0003d0 63 44 24 be ef 4e ef be 85 bf 2b be c1 7c d7 bc
       -0.16041712 -0.4673991 -0.16772278 -0.026304604
0003e0 58 1e 9e bd 09 8c 8d 3e d5 3e 03 bf 93 a6 c3 3d
       -0.07720631 0.276459 -0.5126775 0.09553256
0003f0 dc 9a c1 bf 45 3d a2 bf a5 7d 5b 39 0d 46 05 3e
       -1.5125384 -1.2674948 0.00020932274 0.13015004

l0/b f4 [100]
000000 97 8b 39 be d1 3c f2 be 25 e3 19 be 5e 09 65 be
       -0.18119656 -0.47312024 -0.15028055 -0.22366855
000010 0a 6d f3 bb 8d e5 a2 3c 3e 29 94 be 65 76 02 be
       -0.00742877 0.019884849 -0.28937715 -0.12740476
000020 a2 94 09 bf 89 3b 96 be 3d cf 23 bf 89 fb be bd
       -0.5374242 -0.29342297 -0.63988096 -0.0932532
000030 04 8e b9 be 0b b0 5f bd c3 a1 46 be 40 2f 7a bd
       -0.36241162 -0.054611247 -0.19397645 -0.061080217
000040 47 f6 1b be 43 57 82 bd 0a 4e 08 bc f0 fc 0f be
       -0.15230666 -0.063643 -0.008319387 -0.14061332
000050 19 3a 34 be c6 81 da bc 6c 64 9b be cd bb 45 bd
       -0.17600287 -0.026673209 -0.30350053 -0.048274804
000060 d3 c4 03 be 61 a2 90 bc c8 44 b5 bd 30 d4 06 3c
       -0.12868051 -0.017655553 -0.088510096 0.0082293
000070 0d d1 bd bd 78 5b 9e be b6 1e 8e bd a0 79 82 be
       -0.09268389 -0.3092916 -0.069394514 -0.25483418
000080 37 1c 22 3d 61 9b 90 be 68 81 79 be 6f 0a 3d be
       0.03957769 -0.28243545 -0.24365771 -0.18461011
000090 94 f5 61 bd 57 77 08 bf e4 3a 55 bd b8 a1 f5 bd
       -0.055165842 -0.533071 -0.052058116 -0.11993736
0000a0 da c1 20 bf 4b d5 fb be eb da 07 bf b7 cc 00 3d
       -0.62795794 -0.49186167 -0.5306842 0.03144523
0000b0 a2 20 05 be e3 89 9f 3c ac ca 25 be 20 4a bb bd
       -0.1300073 0.01947493 -0.16190594 -0.091449976
0000c0 60 ff a3 bd fa 22 54 bd b8 fa 32 be 02 23 55 bd
       -0.08007693 -0.05179117 -0.17478454 -0.05203534
0000d0 77 3a 89 be 92 33 ff bd 77 40 7f bc e6 e8 b1 be
       -0.26802418 -0.12461008 -0.015579334 -0.34748
0000e0 19 a2 82 bd 52 03 57 bd 4c 95 06 bd 1a a0 27 3c
       -0.06378574 -0.0524934 -0.032857224 0.010231042
0000f0 04 f5 f9 bd 22 e6 0a bf e8 37 bd be 1d 89 dc be
       -0.12204936 -0.54257405 -0.36956716 -0.4307336
000100 82 c1 7e bd 34 e0 e0 bd df 72 b9 bc e2 e2 85 be
       -0.062196262 -0.10980263 -0.022637783 -0.2614966
000110 d4 30 c9 bd 4d f5 83 bd d6 ac 3e be a5 bf e3 bc
       -0.09823766 -0.06443272 -0.18620619 -0.027801344
000120 ca a9 0f be 72 cd d0 bd 16 71 14 be 8d 61 05 be
       -0.14029613 -0.101954356 -0.14496264 -0.13025494
000130 21 1a 9c bd 31 b8 2c bf 9d aa 0d bf 5e 0a ba bd
       -0.07622171 -0.67468554 -0.5533846 -0.09084009
000140 a4 a9 82 be de 7c 30 be a6 25 b9 bd 70 87 da bd
       -0.2552005 -0.17235133 -0.09040384 -0.10670364
000150 15 dd 2e be 56 65 1a bc a2 f4 b7 bd c8 93 eb be
       -0.17076524 -0.009423574 -0.08982207 -0.46011186
000160 c6 d0 1b be 1a aa 09 be 4a e3 dc bd 9d ae 59 be
       -0.1521636 -0.13443795 -0.107855394 -0.21258016
000170 b0 a8 40 be a4 38 8e 3d 06 38 d5 bd fe ed 04 bf
       -0.18814349 0.06944397 -0.10411076 -0.5192565
000180 3b 8e 36 be 43 e9 65 be d9 10 eb bd 5b 3c 82 bd
       -0.17827694 -0.22452264 -0.11477823 -0.06359168

l0/W f4 [100, 3]
000000 62 11 2c 3d 93 9c 19 c0 e9 bb 0c bd 9b 37 41 bf
       0.042008765 -2.4001815 -0.034358893 -0.7547547
000010 cf ef d0 be 66 24 e2 3f bb 94 ac 3f 64 18 1c 40
       -0.4080796 1.7667358 1.3482889 2.4389887
000020 9f 23 24 bf ef 8d ed 3f 95 15 c9 be b2 84 8b 3e
       -0.64116853 1.855894 -0.39274278 0.27249676
000030 e9 ff a6 3f 12 da 88 bf d3 27 87 be 17 f4 20 3f
       1.3046848 -1.069155 -0.2639757 0.6287245
000040 81 b3 3f bf b6 bd 94 40 1b ab 11 c0 15 68 b2 bf
       -0.74883276 4.648158 -2.2760684 -1.3938013
000050 9d 1d 81 be 33 a9 6f 3f 66 45 ba bf e8 91 51 3e
       -0.25217906 0.9361755 -1.4552429 0.20465815
000060 82 94 9c bf a0 42 53 bf f5 a3 0e 40 07 af ee 3f
       -1.2232821 -0.82523537 2.2287571 1.8647164
000070 9a f5 10 40 98 1c 12 3e a8 1e bb 3f b4 8d ad bd
       2.2649903 0.1426872 1.461873 -0.08474293
000080 e9 49 d4 bf e5 c3 a4 3f 69 fa 89 bf 0b ec 17 3e
       -1.6585056 1.2872282 -1.0779544 0.14836137
000090 b5 8d 35 c0 34 77 88 bc d5 87 f2 3e 4b 01 93 bf
       -2.836774 -0.016658403 0.47369257 -1.148477
0000a0 1f 6a a0 3f bf 05 cd 3e 19 7b 89 be 2f 18 3f c0
       1.2532386 0.40043446 -0.2685173 -2.985851
0000b0 8a de e3 3e 1c bc 85 bf f8 9d ba 3f e9 97 f2 3e
       0.4450572 -1.0448031 1.4579458 0.47381523
0000c0 72 3c 3a 3e a5 7a f9 3f 84 70 24 be 78 f9 81 bf
       0.1818712 1.9490553 -0.16058546 -1.0154257
0000d0 5f 20 a9 bf 54 ae e1 3e 06 2f 89 bf 3b 42 98 be
       -1.3213004 0.44078314 -1.0717475 -0.2973803
0000e0 95 28 a4 3f 5c 38 ff 3d 38 3f 1c 40 1f 2c 1b 3e
       1.2824885 0.124619216 2.4413586 0.1515355
0000f0 b5 99 76 be 15 b4 23 c0 ba c2 46 bd fc 5a ad bf
       -0.24082072 -2.5578663 -0.04852555 -1.3543391
000100 0e 91 9e 3f 12 b9 ae 3e 23 8c 12 c0 8d b1 c3 3f
       1.2388017 0.34125572 -2.2898033 1.5288559
000110 be 2f b6 bd ee 2d 1b 3e d2 22 ec bf 80 f4 74 c0
       -0.08895825 0.1515424 -1.8448126 -3.827423
000120 20 06 11 3d d4 95 4f be 80 0b 00 bf 8c b1 07 bf
       0.035406232 -0.20271999 -0.5001755 -0.5300529
000130 fa cf 85 bd 0e c4 49 40 3c 50 04 3f 3b 70 eb 3f
       -0.06533809 3.1525912 0.5168493 1.8393625
000140 5b 03 13 bf 02 de 49 bf 3b db 30 3d e3 d0 6b 40
       -0.57426995 -0.7885438 0.043177824 3.6846244
000150 53 45 cd 3f 27 85 e5 3f 07 d5 12 bf b5 35 81 3e
       1.6036781 1.793126 -0.57356304 0.25236288
000160 af 9c 00 40 d9 21 0a 40 5c f3 a0 bf 52 48 d1 bf
       2.0095632 2.158316 -1.2574267 -1.6350195
000170 f9 54 fb 3e 94 d5 bf be 73 22 0c 40 b6 4a 55 c0
       0.49088266 -0.37467635 2.1896026 -3.332685
000180 5c 20 5d 3f 8f 9a 85 3e 70 24 90 c0 a9 99 8a 3f
       0.863775 0.2609448 -4.504448 1.0828143
000190 0a b8 c8 bf 98 80 18 c0 60 6d 00 40 a3 3e b7 3f
       -1.5681164 -2.3828487 2.0066757 1.431599
0001a0 92 d1 62 3e 92 6a e2 3e ff bd 2c c0 40 7f c4 be
       0.22150257 0.44221932 -2.6990964 -0.38378334
0001b0 ac c8 43 3f 97 63 2a bf 59 5a cf bd 7c 47 a4 bd
       0.76478076 -0.6655821 -0.10124654 -0.08021447
0001c0 99 98 81 c0 0c af 8e 3c 40 39 ac bf 30 53 6b bf
       -4.0498776 0.017417453 -1.3454971 -0.9192381
0001d0 0f 05 67 be 79 14 32 bf 87 de d1 bf 8b fa 17 3f
       -0.22560523 -0.6956249 -1.6396035 0.59366673
0001e0 83 e4 16 c0 cd fc 15 bd 31 8d 5b bf 1a 51 5a 3f
       -2.3576972 -0.036618043 -0.85762316 0.8528
0001f0 34 b3 02 3e a6 08 e5 bf 9d 9f d0 3f 23 9e 5e 40
       0.12763673 -1.7893264 1.629871 3.478402
000200 d6 0a 35 c0 cf 52 3c bf 75 fa 81 3c c1 4e 58 40
       -2.8287864 -0.73563856 0.015866498 3.3798068
000210 ee b4 96 3f 07 40 af bf 37 6e c8 bf 8e 29 fb 3f
       1.1773965 -1.3691415 -1.5658635 1.9622056
000220 d4 71 9e be 6b ed 63 c0 bf cc 30 bf 2b 15 29 c0
       -0.3094622 -3.5613658 -0.6906242 -2.641917
000230 db 66 e4 3e 85 12 8b 3f 93 16 ad 3f 50 d6 03 be
       0.44609722 1.0865027 1.3522514 -0.12874722
000240 f2 19 aa bf 8c 7a d0 3f 1d a9 f7 3e 9b e5 8a 3f
       -1.3289168 1.6287398 0.4837121 1.085132
000250 8d d4 15 bf 48 c0 81 bf 0f 5f 11 3f de bf 26 c0
       -0.5852745 -1.0136805 0.5678567 -2.6054606
000260 f3 a2 12 bf 38 db 8a 3f 31 9c 8d 3f 68 07 d8 be
       -0.5727989 1.084815 1.1063291 -0.4219315
000270 91 07 0f 40 b5 5f 0d 3f 7f e5 2e be b6 0c ae be
       2.2348368 0.5522416 -0.17079733 -0.33994073
000280 0a de ec 3f aa 9a ee 3e 8a d8 b0 3f 30 7b 5b be
       1.8505261 0.46602374 1.3816082 -0.21433711
000290 87 d2 1d 3f 1c 01 0c 40 c8 84 0b c0 d2 37 40 3e
       0.61649364 2.1875677 -2.1799793 0.18771294
0002a0 7c bd dd 3f 52 75 e2 bf c9 f1 9d bf da 5c c3 bf
       1.7323451 -1.7692053 -1.2339412 -1.5262711
0002b0 a4 07 18 be 26 50 12 40 f4 9f b7 3f 3d 3f 9f 3f
       -0.14846665 2.2861419 1.4345689 1.2441174
0002c0 ad 5e ce be 77 1e 24 3f a8 12 23 3f da dc 8c 40
       -0.40306607 0.64108986 0.6370034 4.4019594
0002d0 87 1f 0a 3f 0b 67 f1 3f d0 d1 dc be 37 8e ea 3f
       0.53954357 1.8859571 -0.43128824 1.832465
0002e0 7e 53 9b bb cf f0 d6 3f 34 55 d3 bf c3 65 27 c0
       -0.0047401777 1.6792239 -1.6510377 -2.615586
0002f0 45 07 25 40 ac f2 34 bf ac 0b fc bd 58 11 ba 3f
       2.5785687 -0.7068279 -0.12306914 1.4536543
000300 0d 52 89 3f 54 69 8c 3f 1d 59 01 bf b4 30 ef 3e
       1.0728165 1.0969644 -0.505266 0.46716845
000310 d9 58 1b 40 03 40 f7 be a9 3a 95 3f 34 51 7e 3f
       2.4272978 -0.48291025 1.1658527 0.99342656
000320 19 37 35 be 4c bd 03 40 b6 3c 3d bf 52 7d a9 be
       -0.176968 2.0584288 -0.7392076 -0.33103424
000330 03 a6 86 3f c3 e4 9f 3f c1 e4 f2 bd a0 ee 51 bf
       1.0519413 1.2491688 -0.118600376 -0.8200474
000340 c9 f3 cb 3d cc fc 7b 40 5d ab 94 bf cc dc 4a 40
       0.09958608 3.9373045 -1.1614796 3.1697264
000350 51 b5 6d 3f ce fc b3 bf 59 9e ab bf 5d 29 4e 3d
       0.9285479 -1.4061525 -1.3407699 0.050332416
000360 c4 87 a8 be d6 6f 02 40 de 40 dd 3e 9a 06 98 bf
       -0.3291608 2.038076 0.43213552 -1.1877015
000370 55 7c c1 3f 46 5c 60 3f 4d 1b c9 be c3 8a 42 40
       1.5116068 0.876408 -0.3927864 3.0397193
000380 55 4d d4 3e 45 9a aa 3e 0c 90 f9 3f cf 99 be be
       0.4146525 0.33320823 1.9497085 -0.37226722
000390 70 e7 80 3f cb 49 a6 3f d2 cf c1 be 9f cf c1 3f
       1.0070629 1.299127 -0.37853867 1.5141486
0003a0 a5 da 47 3e 96 26 4d bf 3f b1 b7 bf d5 b5 02 3f
       0.19517 -0.80137 -1.4350966 0.51058704
0003b0 8c 1e 21 40 70 db ac bf 2b 9d 84 bf e8 78 a3 bd
       2.5174894 -1.3504467 -1.0360464 -0.079820454
0003c0 84 f2 95 bf d9 5a e3 3f 08 1a 9b bb a5 68 21 bf
       -1.1714635 1.77621 -0.004733328 -0.630503
0003d0 f9 88 35 c0 a9 02 0a 3f ea 8b bd bf d9 27 8d 3f
       -2.8364851 0.5391031 -1.4808323 1.1027786
0003e0 c5 e7 86 be 27 47 6e 3f aa 9d 10 c0 ba 8c 43 bf
       -0.263487 0.9307732 -2.259623 -0.76386607
0003f0 cf ca 54 3e 65 a3 28 c0 e7 8e ed be cf 78 a0 3f
       0.2078049 -2.6349728 -0.46398088 1.2536868
