cpo/experiments/threat.model (npz, 73038 bytes, 6 tensors)

l0/W f4 [100, 9]
0	0x3bb519a3	0.005526738
1	0xbd2befcd	-0.04197674
2	0xbcdc8c93	-0.0269225
3	0x3cf51059	0.029915022
4	0x3cec7b12	0.028867278
5	0x3e25cf11	0.16192271
6	0xbe36098b	-0.17777078
7	0x40c8ad17	6.271129
8	0x3d67b4a6	0.056568764
9	0x3daf0324	0.08545521
10	0xbd52db5d	-0.051478732
11	0xbdfd9fe4	-0.12384012
12	0x3e30a831	0.1725166
13	0xbdf71769	-0.12065012
14	0x3f04826e	0.5176152
15	0xbf1d458c	-0.61434245
16	0xbfba773b	-1.4567636
17	0xbfee7008	-1.8627939
18	0xbbd15dfb	-0.006389377
19	0xbd8c5598	-0.06852263
20	0x3d0f8303	0.035037052
21	0x3e8b23f2	0.27175862
22	0xbf1bdff7	-0.6088862
23	0x3e498f7f	0.19683646
24	0xbeec461a	-0.46147233
25	0xbfb8c6c1	-1.4435655
26	0xbf820bd7	-1.0159863
27	0x3e15d3fe	0.1463165
28	0x3d79f51c	0.06102477
29	0xbd838d90	-0.06423485
30	0xbf046d45	-0.5172923
31	0x3b82e1c6	0.0039941994
32	0x3e80c78e	0.25152248
33	0xbf16a52b	-0.58845776
34	0xbfcc0c1b	-1.5941194
35	0xbf948985	-1.1604468
36	0x3e081590	0.13289475
37	0x3e86976d	0.26287404
38	0x3d8e2022	0.069397226
39	0x3f1def81	0.6169358
40	0x3f36507c	0.7121656
41	0xbf2bf3fe	-0.6716918
42	0xbe2d61d6	-0.16931853
43	0xc0165e63	-2.349511
44	0xc0159f69	-2.3378546
45	0x3d4a74f8	0.049427956
46	0xbd3c36f1	-0.045950834
47	0xbcf1b445	-0.029504905
48	0x3e7e4c08	0.24833691
49	0xbd4eb9f6	-0.050470315
50	0xbd7ab3ae	-0.061206512
51	0xbce67ca8	-0.028135613
52	0xc088a9a4	-4.270708
53	0xc08d8cd5	-4.4234414
54	0x3e2dac78	0.16960323
55	0x3e00406f	0.1252458
56	0xbd360145	-0.044434804
57	0x3f0ba70d	0.54551774
58	0x3e3630c8	0.17792046
59	0x3ddf1da9	0.10894329
60	0xbf710e0c	-0.9416206
61	0xc009c320	-2.1525345
62	0xc0240c9e	-2.56327
63	0xbdc76d6b	-0.09737667
64	0x3dd6a2f1	0.10480297
65	0x3cade64f	0.021227984
66	0x3e45714e	0.19281504
67	0x3f56a66b	0.83847684
68	0x3f0d913b	0.5529973
69	0xbf83b2e0	-1.0288963
70	0x3f717342	0.94316494
71	0xbf5b5899	-0.85682064
72	0x3a94929a	0.0011335195
73	0x3d034427	0.032047417
74	0x3cb5b126	0.022179198
75	0x3e47d3e0	0.19514418
76	0x3ec61f45	0.38695732
77	0xbe2bdeb6	-0.16784176
78	0x3ccf4ed0	0.025306135
79	0xbfe36e31	-1.7768003
80	0xc01dcae3	-2.4655082
81	0x3d86f1ce	0.06589089
82	0xbe1d19c9	-0.15341868
83	0x3dd1e568	0.10248834
84	0xbe4b7dde	-0.19872233
85	0x3f3e456f	0.743247
86	0x3d15557e	0.036458485
87	0xbe57280c	-0.2101137
88	0xc01210c1	-2.2822726
89	0xbf8aeff9	-1.0854484
90	0x3cc7421e	0.02432352
91	0x3e4d1f47	0.20031463
92	0xbc8dfdaf	-0.01733288
93	0xbee008fc	-0.43756855
94	0xbdc4fc0f	-0.09618389
95	0xbf11f291	-0.5701075
96	0xbe9ab83a	-0.3021868
97	0xbfc60687	-1.5470742
98	0xbfccf0bc	-1.6010966
99	0x3d5088d8	0.050911754
100	0x3d84820c	0.06470117
101	0x3d490d3f	0.049084898
102	0xbe9a981a	-0.3019417
103	0xbe54748b	-0.20747583
104	0x3ef5c6dc	0.4800328
105	0xbf31e8d1	-0.69495875
106	0xbf0b7a1e	-0.5448321
107	0xbf5dbcbc	-0.8661611
108	0xbd7cde21	-0.061735276
109	0x3de4a419	0.11164112
110	0xb9a2ff6d	-0.00031089355
111	0xbea8f43f	-0.32998845
112	0x3d43970d	0.047751475
113	0x3ba4fbae	0.0050348854
114	0xbed9dd48	-0.42551637
115	0x3f2ad088	0.66724443
116	0xbfa7cadc	-1.3108783
117	0x3e0c3d3a	0.13695231
118	0x3d55de3c	0.052213892
119	0x3dbf332f	0.09335934
120	0x3f350e2c	0.7072475
121	0x3d6bf557	0.05760702
122	0x3e8503ed	0.25979558
123	0xbe3be910	-0.18350625
124	0xc01901f3	-2.390744
125	0xc00ebe34	-2.230359
126	0x3c26eea1	0.0101887295
127	0xbd6345be	-0.055486433
128	0xbd2df6ac	-0.042471573
129	0xbe968d88	-0.29404855
130	0x3f3a5c5f	0.727972
131	0x3f0672c1	0.5251885
132	0xbf56c515	-0.83894473
133	0x3e85cc46	0.2613241
134	0xbf3de582	-0.74178326
135	0x3d5094ee	0.05092328
136	0xbd448982	-0.0479827
137	0x3c87c818	0.016574904
138	0xbe0fc9a1	-0.14041759
139	0x3dded8a4	0.10881165
140	0x3f67d1e2	0.9055463
141	0xbe302632	-0.1720207
142	0x3f91c137	1.138709
143	0xbfb0e51a	-1.3819916
144	0x3d160356	0.036624275
145	0xbc6ff7fc	-0.014646526
146	0xbd816482	-0.063179985
147	0xbf12b1da	-0.5730263
148	0x3f6734fd	0.9031523
149	0xbf700057	-0.9375052
150	0xbec17e29	-0.37791565
151	0xbf37c084	-0.7177813
152	0xbf3d883d	-0.7403601
153	0x3d034a62	0.03205336
154	0x3ceec58f	0.029146938
155	0xbc771772	-0.015081273
156	0xbf885899	-1.0652038
157	0xbf6c6b8a	-0.9235159
158	0xbf00ce03	-0.5031435
159	0xbf288228	-0.658236
160	0xbf42dd5e	-0.7611903
161	0xbf0a2103	-0.5395662
162	0x3d047397	0.032336798
163	0x3c798c82	0.015231254
164	0xbd9a31ed	-0.07529054
165	0xbf4a3882	-0.78992474
166	0xbd600125	-0.05468859
167	0xbcd2d613	-0.025736844
168	0xbe04fd6f	-0.12987302
169	0xbf739298	-0.9514556
170	0xbf289faf	-0.6586866
171	0xbbd15e80	-0.006389439
172	0x3d0d38ea	0.034478106
173	0x3c0813b3	0.008305478
174	0xbd18416f	-0.037171777
175	0x3e0c7f7c	0.13720506
176	0xbdbe940a	-0.0930558
177	0x3ec54402	0.38528448
178	0x40ab10b3	5.3457885
179	0x3b19545e	0.0023396234
180	0x3f390484	0.72272515
181	0x3dcc12de	0.09964536
182	0x3dafd569	0.08585627
183	0xbe94da3f	-0.2907276
184	0x3d4a2c3d	0.049358595
185	0x3e049b98	0.1294998
186	0xbf181846	-0.5941204
187	0xc088777b	-4.264585
188	0xc08611a4	-4.1896534
189	0x3d152160	0.036408782
190	0x3ce3790c	0.02776768
191	0x3c15e38c	0.00914849
192	0xbdcac083	-0.099
193	0xbcb093b5	-0.021554807
194	0xbe92a025	-0.28637806
195	0xba4b22f9	-0.0007749047
196	0xbfe6b7e2	-1.8024867
197	0xbf8a4751	-1.0803014
198	0xbd0c4ab1	-0.03425092
199	0x3d461764	0.04836215
200	0xbcfe43f8	-0.03103827
201	0xbe730f80	-0.23736382
202	0xbf431598	-0.76204824
203	0x3ea5ead2	0.32405716
204	0xbec27f69	-0.3798783
205	0xbecb8408	-0.3974917
206	0xbf60e84a	-0.87854445
207	0x3dac3753	0.0840899
208	0x3bfc38ae	0.0076971864
209	0x3c4bd9ec	0.012442093
210	0x3ef102cf	0.47072455
211	0xbf45b759	-0.7723289
212	0xbf8e41be	-1.1113813
213	0xbf3c4fa7	-0.7355904
214	0xbf5d8a09	-0.8653875
215	0xbf8bd4f5	-1.0924364
216	0x3d27824a	0.040895738
217	0x3ce045a7	0.027376963
218	0xbdb6b7da	-0.08921786
219	0x3df76eaf	0.12081658
220	0xbd1ebb11	-0.03875262
221	0xbdf4b922	-0.11949374
222	0x3f651ebd	0.8950003
223	0xc0db4b84	-6.852968
224	0xbfd8f253	-1.6948951
225	0x3cb5f05b	0.022209337
226	0xbd8f5c7b	-0.07000061
227	0xbd283374	-0.041064695
228	0x3f07133b	0.5276372
229	0x3e8ef8ae	0.27924103
230	0xbe284ed5	-0.16436322
231	0xbd146465	-0.036228556
232	0xbda65db6	-0.08123343
233	0xbee36635	-0.44413915
234	0x3f3ac744	0.72960305
235	0xbdaad59a	-0.083415225
236	0x3ded599e	0.11589359
237	0xbe4206de	-0.18947932
238	0x3f0175ed	0.50570565
239	0x3e8f43c2	0.27981383
240	0xbf0de84e	-0.55432594
241	0xc0593d5c	-3.39437
242	0xc0452d07	-3.0808733
243	0xbce21d3c	-0.02760183
244	0xbbf234a1	-0.0073915278
245	0x3d87e7fa	0.06636043
246	0x3df84b71	0.12123764
247	0x3e780d38	0.24223793
248	0x3ee306d4	0.44341147
249	0xc005c921	-2.090401
250	0x3f3dd32e	0.7415036
251	0x3fa85e76	1.3153827
252	0x3d3a88f7	0.045540776
253	0x3def9199	0.116976924
254	0x3de45ad3	0.11150136
255	0xbf15b0c1	-0.5847283

l0/b f4 [100]
0	0xc051007d	-3.2656548
1	0xbffb3c17	-1.9627713
2	0xbf6fdd45	-0.93697006
3	0xbfd16653	-1.6359352
4	0xbf978c34	-1.1839662
5	0x4076c07a	3.8554978
6	0xbdedd599	-0.11613006
7	0xc01aa044	-2.4160318
8	0xbf462de7	-0.7741379
9	0xc0047be4	-2.0700617
10	0xbf476b55	-0.7789815
11	0xbf000397	-0.5000548
12	0xbff90f20	-1.9457741
13	0xbf0a10be	-0.53931797
14	0xbf8ab48f	-1.0836352
15	0xbff67e26	-1.9257247
16	0xbf533066	-0.82495725
17	0xbf82745e	-1.0191762
18	0xbf1d6eb5	-0.6149705
19	0xc07c4283	-3.9415596
20	0x3f875ebe	1.0575788
21	0x3d93b02a	0.07211335
22	0xbf4250b6	-0.75904405
23	0xbfafbef4	-1.3730149
24	0x3db50b14	0.088400036
25	0xbf869bcd	-1.0516297
26	0xc054f1b5	-3.3272526
27	0x3e865ed2	0.26244217
28	0xbfa834d7	-1.3141125
29	0xbf845c30	-1.0340633
30	0xbf98eb31	-1.1946775
31	0xbf0db3e3	-0.5535261
32	0xbf97419c	-1.1816897
33	0xbfc30e59	-1.5238754
34	0xc0d0694e	-6.5128546
35	0xbfabf943	-1.3435444
36	0xbf0f8636	-0.56064165
37	0xbf17c7e1	-0.59289366
38	0xbf88130b	-1.0630811
39	0xbf8bf829	-1.0935107
40	0xbf4514d8	-0.7698493
41	0xc06eaaac	-3.729167
42	0xbfa57533	-1.2926391
43	0xbf128fa4	-0.5725043
44	0xbeec633d	-0.46169463
45	0xbfcb8cda	-1.590236
46	0xc0178310	-2.3673744
47	0xbf20d717	-0.628282
48	0xbfa40cd8	-1.281642
49	0xbee31fa2	-0.4436007
50	0xbf4498c1	-0.76795584
51	0xbf459450	-0.7717943
52	0xbf968566	-1.175946
53	0xbfacad3f	-1.349037
54	0x403b10a6	2.9228911
55	0xbf8b3e2c	-1.0878348
56	0xbf620e26	-0.8830284
57	0xc00c6e5c	-2.1942358
58	0xc014e636	-2.326551
59	0xbfbf9071	-1.4965955
60	0xbe8fb55d	-0.28068057
61	0xbf4a1545	-0.78938705
62	0xbfa04bf0	-1.2523174
63	0xc07f730d	-3.9913971
64	0xbf85839a	-1.0430787
65	0xbf6a435c	-0.9150903
66	0xbfc581e5	-1.5430266
67	0xc0279677	-2.6185586
68	0xbef74a59	-0.4829891
69	0xbe83f587	-0.2577326
70	0xbfc32692	-1.5246146
71	0xbf5c5cef	-0.86079305
72	0xbf83cb56	-1.0296428
73	0xbf0ced30	-0.5504942
74	0xbeec3bd6	-0.461394
75	0xc0d1678c	-6.54389
76	0xbefd7238	-0.49501204
77	0xbf80be86	-1.0058143
78	0xbf205ba1	-0.62639815
79	0xbfe164a1	-1.7608835
80	0xbf7d33e9	-0.98907334
81	0xbf7f7552	-0.9978839
82	0xbf4a0cc4	-0.7892573
83	0xbf2093d4	-0.6272557
84	0xbf0a4f4e	-0.5402726
85	0xc03f66e7	-2.9906557
86	0xbf25c57e	-0.64754474
87	0xbf7a7a51	-0.9784289
88	0xbfb10274	-1.3828874
89	0xbf21751f	-0.6306934
90	0xbf221904	-0.6331942
91	0xbf90ef50	-1.1323032
92	0xbf4cfaae	-0.80070007
93	0xbf77d452	-0.9680835
94	0xc0107eeb	-2.2577465
95	0xbfa5efd6	-1.2963817
96	0xbf7a6585	-0.97811157
97	0xbeec7add	-0.46187487
98	0xc01b9086	-2.430696
99	0xbe4bcdb6	-0.19902691

l1/W f4 [100, 100]
0	0x3c871db8	0.016493663
1	0xbd2cf85c	-0.04222904
2	0xbd2e1da5	-0.04250874
3	0xbbc2cb64	-0.005944656
4	0xbe59e13e	-0.2127733
5	0x3c0bbcd9	0.0085289115
6	0xbe207841	-0.15670873
7	0xbc8d9c43	-0.017286425
8	0xbd76e4a7	-0.060276654
9	0x3df9afe9	0.12191755
10	0x3d571b79	0.052516434
11	0x3caaa6f1	0.020831557
12	0xbdc54618	-0.0963251
13	0xbdca070e	-0.09864627
14	0x3c831b69	0.016004281
15	0x3c9a4c1b	0.018835118
16	0xbe0627c9	-0.13101114
17	0x3e27e790	0.16396928
18	0x3da9faf7	0.08299821
19	0xbdf8b7fd	-0.12144468
20	0xbef1f4b2	-0.47257
21	0xbd79f042	-0.061020143
22	0xbe24feda	-0.16112843
23	0x3d9b751b	0.075906955
24	0xbce1635c	-0.027513199
25	0xbbd67186	-0.0065442948
26	0xbca84cf8	-0.020544514
27	0xbe8fa530	-0.28055716
28	0xbd8fef0b	-0.07028016
29	0x3e1c082a	0.1523749
30	0x3cd9c2ed	0.026582206
31	0x3df92ee7	0.12167149
32	0xbde6c56e	-0.112681255
33	0xbe806f8e	-0.2508511
34	0xbd33e85f	-0.04392278
35	0xbd8d0149	-0.06885011
36	0xbd5e97d6	-0.05434402
37	0xbded7bb6	-0.115958616
38	0xbcd5880d	-0.02606585
39	0x3d413c85	0.047176857
40	0xbdb5b39b	-0.08872148
41	0xbe3efb7f	-0.18650626
42	0x3d0d6f94	0.034530237
43	0xbdd79555	-0.1052653
44	0x3d0565e1	0.032567862
45	0xbe19f558	-0.15034997
46	0x3d31ab9b	0.043376546
47	0x3d0611c0	0.03273177
48	0xbdf0f001	-0.11764527
49	0x3b830d32	0.0039993757
50	0x3e09dac5	0.1346236
51	0x3c9cb478	0.019129023
52	0xbe282432	-0.16420057
53	0x3c406eec	0.011745196
54	0xbe991b90	-0.2990384
55	0x3df9a79b	0.12190171
56	0xbcacc5a8	-0.021090344
57	0xbdf1ae9e	-0.11800884
58	0xbdc944b9	-0.09827561
59	0xbd6d2481	-0.05789614
60	0xbe1e3382	-0.15449336
61	0xbe31800b	-0.17334001
62	0xbe5b1a19	-0.21396674
63	0xbe145e0e	-0.14489004
64	0xbd79bb3a	-0.06096957
65	0x3bd27571	0.0064226915
66	0xbe1840b9	-0.1486844
67	0xbe67d700	-0.2264061
68	0xbc95b8f5	-0.018276671
69	0xbdf19b7c	-0.117972344
70	0xbc12a648	-0.008950777
71	0x3dd0429c	0.10168955
72	0xbe62d4f8	-0.22151554
73	0xbe2371aa	-0.15961328
74	0xbd7c7df1	-0.061643545
75	0xbe0f11cd	-0.13971634
76	0xbe071f08	-0.13195431
77	0x3df1b71c	0.118025035
78	0xbe13fecd	-0.14452668
79	0x3eb9ee42	0.3631459
80	0xbe061972	-0.13095644
81	0xbe0413d7	-0.12898193
82	0xbd86b5b2	-0.065776244
83	0xbe2c97af	-0.16854738
84	0x3c879f39	0.016555415
85	0xbde3bd11	-0.11120046
86	0xbe26dded	-0.16295595
87	0x3d8f3206	0.06991963
88	0xbdcbfa68	-0.099598706
89	0xbe35608e	-0.17712614
90	0xbc40a8cf	-0.011758997
91	0xbe01c18b	-0.12671487
92	0xbdd6c9eb	-0.104877315
93	0x3afa9407	0.0019117602
94	0x3e2955de	0.16536662
95	0x3c97d7cf	0.018535523
96	0xbd90cbc8	-0.07070118
97	0xbe0a17a6	-0.13485584
98	0xbe0d2c6f	-0.13786481
99	0xbdb4b8cb	-0.08824309
100	0x3e4643bf	0.1936178
101	0xbe18d3e6	-0.14924583
102	0xbe2500bb	-0.1611356
103	0xbe796e9d	-0.24358602
104	0x3ea8bf09	0.32958248
105	0x3f423899	0.7586761
106	0x3e130a7f	0.14359473
107	0x3f012398	0.50444937
108	0x3d8ce862	0.06880261
109	0x3c58fb4b	0.013243507
110	0xbd2cdd0d	-0.042202998
111	0xbebdbd73	-0.370586
112	0xbf27032d	-0.6523922
113	0xbed5d101	-0.4176102
114	0xbeb2be77	-0.34910938
115	0xbf3037c9	-0.6883512
116	0x3d2f3d6a	0.04278318
117	0xbea82f66	-0.32848662
118	0xbddea2e9	-0.108709164
119	0xc0a331fd	-5.099852
120	0xbf5bbd27	-0.858355
121	0x3df144ac	0.11780676
122	0x3dff5f74	0.12469378
123	0xbdfd514e	-0.12369023
124	0x3ebb8be1	0.36630157
125	0x3be556e8	0.0069988854
126	0x3f412861	0.7545224
127	0xbf479997	-0.77968735
128	0xbe7f3de5	-0.24925955
129	0x3cb6dd70	0.022322387
130	0xbef39ee6	-0.47582167
131	0xbd043095	-0.032272894
132	0x3ea4ded5	0.32201257
133	0xbd8415f5	-0.064495005
134	0xbfc21250	-1.5161839
135	0xbe3df580	-0.18550682
136	0xbe164468	-0.14674532
137	0xbe2cd326	-0.16877422
138	0x3e3e7aa6	0.18601474
139	0xbe15a3d2	-0.14613274
140	0x3e4b1cd2	0.19835213
141	0xbfcd210f	-1.6025714
142	0x3dd0e2ba	0.10199495
143	0x3e6ce738	0.23135078
144	0xbd96ee20	-0.073696375
145	0x3f593702	0.8484956
146	0xbe02b704	-0.12765127
147	0xbe3d660b	-0.18495958
148	0xbf002752	-0.5006
149	0xbd4b4b1d	-0.04963218
150	0xbd30c12f	-0.043152984
151	0x3df85fcf	0.12127649
152	0xbe89a803	-0.26885995
153	0xbef3815b	-0.47559628
154	0x3e74898d	0.23880596
155	0xbf0dda28	-0.55411005
156	0xbf2cfc6f	-0.67572683
157	0xbec7368c	-0.38908803
158	0xbefd39bc	-0.4945811
159	0xbec1be69	-0.37840584
160	0xbe0e05f6	-0.13869461
161	0xbe5f64a2	-0.21815732
162	0x3e3d6c20	0.18498278
163	0x3dca3dba	0.09875055
164	0xbe193d87	-0.14964877
165	0x3d11c4a6	0.03558793
166	0xbeb32394	-0.3498808
167	0xbe9e0895	-0.30865923
168	0xbd3f8472	-0.04675717
169	0xbdcffa60	-0.10155177
170	0xbe26b6eb	-0.16280715
171	0x3fe9e053	1.8271583
172	0x3f169a36	0.5882906
173	0xbd835bc5	-0.06413988
174	0xbeccffbe	-0.40038866
175	0xbfabe2d3	-1.3428596
176	0xbe8496c3	-0.25896272
177	0x3d750398	0.05981788
178	0x3f9cfb04	1.2264104
179	0xbf4ea416	-0.80719125
180	0xbf37207f	-0.7153396
181	0xbd1ec598	-0.03876266
182	0x3d88e00d	0.06683359
183	0xbd2e78cb	-0.042595666
184	0x3d30f082	0.043198116
185	0x3f1c96eb	0.6116778
186	0x3e618d8b	0.2202665
187	0x3ee1de81	0.4411507
188	0xbd21c675	-0.039495904
189	0xbd281389	-0.041034255
190	0x3f654d31	0.8957091
191	0xbde87340	-0.11350107
192	0xbe584635	-0.21120532
193	0xbe5ab5d3	-0.21358423
194	0xbca8d5b5	-0.020609716
195	0xbe1cdce6	-0.15318641
196	0xbd499213	-0.049211573
197	0xbd9c2905	-0.07625011
198	0xbdb08a45	-0.08620123
199	0x3e35e699	0.17763747
200	0x3e7bf4bd	0.24605079
201	0xbde79440	-0.11307573
202	0xbddcdc60	-0.10784221
203	0xbe830485	-0.25589386
204	0xbc970dc6	-0.018439185
205	0xbe35fb16	-0.17771563
206	0xbe216574	-0.15761358
207	0x3d8b5b25	0.06804494
208	0xbe10dbab	-0.14146297
209	0x3f1fa6a3	0.6236364
210	0xbdd4d99c	-0.10393068
211	0xbd60109b	-0.054703336
212	0xbeaad69b	-0.33366856
213	0xbcc1f606	-0.023676883
214	0xbe1c350b	-0.1525461
215	0xbe5f1b37	-0.21787725
216	0x3e1a059a	0.150412
217	0x3dc75f34	0.097349554
218	0xbdced488	-0.10099131
219	0xbec98dce	-0.39366
220	0xbff11dcc	-1.8837218
221	0x3dc24226	0.09485273
222	0xbdc7d03d	-0.09756515
223	0xbdaaf477	-0.08347409
224	0xbf0f75e2	-0.5603925
225	0x3d89e03e	0.06732224
226	0x404c9259	3.1964324
227	0xbfb7144b	-1.4303068
228	0xbd9e051a	-0.07715817
229	0xbc74997e	-0.0149291735
230	0x3c4ee6ce	0.01262827
231	0xbd9b7df6	-0.075923845
232	0xbf071e8b	-0.5278098
233	0x3d015382	0.03157378
234	0x3df7a477	0.12091916
235	0xbdc87d0c	-0.09789476
236	0xbe011dce	-0.12609026
237	0x3d898c60	0.067162275
238	0xbe306eee	-0.17229816
239	0xbbe84d97	-0.0070893276
240	0xbc550790	-0.013002291
241	0xbea61779	-0.32439783
242	0x3ee7dcb7	0.4528558
243	0xbe7037c9	-0.2345878
244	0xbe2b04d1	-0.16701056
245	0x3d4fe24b	0.05075292
246	0xbe810033	-0.25195464
247	0x3d711296	0.058855616
248	0xbdc38d4c	-0.095484346
249	0x3c8fc89a	0.017551709
250	0x3d9c3288	0.076268256
251	0x3d003481	0.03130007
252	0x3dd03391	0.101660855
253	0x3ecebc33	0.4037796
254	0xbf30fa0c	-0.6913154
255	0xbdeb0e71	-0.11477364

l1/b f4 [100]
0	0xbe81eda2	-0.25376612
1	0xbf9971f2	-1.1987898
2	0xbffc8f2e	-1.9731195
3	0xc02560e4	-2.5840387
4	0xbf457400	-0.77130127
5	0xbe8be320	-0.2732172
6	0xbf52c852	-0.82336915
7	0xbf18af1d	-0.596422
8	0xbf2b3b49	-0.66887337
9	0xc0301f58	-2.751913
10	0xbf86a8b1	-1.052023
11	0x3e81cc9c	0.25351417
12	0xbec02bf9	-0.37533548
13	0xc0122e28	-2.2840672
14	0xc0825e39	-4.074002
15	0xbee9732d	-0.45595685
16	0xbf64439f	-0.8916568
17	0xbf0158a6	-0.5052589
18	0xbee24f33	-0.4420105
19	0xbf1066dd	-0.56406957
20	0xbe98e211	-0.29859975
21	0xbf7b7172	-0.9821998
22	0xbf0d40e7	-0.5517716
23	0xbbab21b2	-0.0052225227
24	0xbe91bde6	-0.28465194
25	0xbe821012	-0.25402886
26	0x3f95b2f7	1.1695241
27	0xbfcfb6a6	-1.6227615
28	0xc00d2220	-2.2052078
29	0xbe9bbe02	-0.30418402
30	0xbfb93202	-1.4468386
31	0xbf04abbb	-0.5182454
32	0xbe9f19be	-0.31074327
33	0xbf41b63d	-0.756687
34	0xbfa59bff	-1.2938231
35	0x3f77182c	0.9652126
36	0xbeb102d7	-0.3457248
37	0xc0297b85	-2.648164
38	0xbe88cf39	-0.26720598
39	0xbdeaf504	-0.11472514
40	0xbeb5361c	-0.35392845
41	0xbf67578e	-0.9036797
42	0xbf16e19e	-0.58938015
43	0xbebb3c3f	-0.36569402
44	0xbebde410	-0.3708806
45	0xc0283249	-2.6280692
46	0xbf2d4555	-0.6768392
47	0xbf5e7049	-0.86890084
48	0xc017e4c3	-2.3733375
49	0x3ed0e3d1	0.4079881
50	0xbf9e8308	-1.2383738
51	0xbfceaa2f	-1.6145686
52	0xbedfbf70	-0.43700743
53	0xbfc67b37	-1.5506352
54	0xbf327bb6	-0.6972002
55	0xbef088f6	-0.46979493
56	0xbf1a20f1	-0.60206515
57	0xbeed850a	-0.46390563
58	0xbf3b26d9	-0.7310615
59	0xbfebdd87	-1.842698
60	0xbf93faab	-1.1560873
61	0xbef57f6f	-0.47948787
62	0xc0427a4b	-3.0387142
63	0xbe796434	-0.2435463
64	0xbe3992ae	-0.1812236
65	0xc029859e	-2.6487803
66	0xbf1df602	-0.61703503
67	0xbf9bc4e3	-1.216946
68	0xc059ca51	-3.4029734
69	0xbf12be71	-0.5732184
70	0xbe81e5f2	-0.25370747
71	0xbeba0e0d	-0.36338845
72	0xbeb19522	-0.34684092
73	0x3e9a2cf2	0.30112416
74	0xbe3810f7	-0.17975222
75	0xbfc64c42	-1.5492022
76	0xbf29503e	-0.66138065
77	0xbfb38051	-1.4023534
78	0xbed20b9f	-0.4102449
79	0xbf898d46	-1.0746238
80	0xbfa3ea27	-1.2805833
81	0x3ee7453d	0.45170012
82	0x3dea57b8	0.11442512
83	0xbf7c81c9	-0.98635536
84	0x3f3aebd8	0.7301612
85	0xbf554c7c	-0.8331983
86	0xbfba46a7	-1.4552811
87	0xbffe51b1	-1.986868
88	0xbfd8dba6	-1.6942031
89	0xbea21d52	-0.31662995
90	0xbf4f114a	-0.80885756
91	0xbfafa297	-1.3721493
92	0xc0236918	-2.5532894
93	0xbf231c34	-0.6371491
94	0xbfa7f3f8	-1.3121328
95	0xbf94fc9f	-1.1639594
96	0xbf0e6b17	-0.55632156
97	0xc03621c4	-2.845811
98	0xc00bc462	-2.1838613
99	0xbf2a77dd	-0.66589147

l2/W f4 [81, 100]
0	0xbd00ea26	-0.0314733
1	0xc0b1f26a	-5.5608416
2	0xbfe9854c	-1.8243804
3	0x3eaa47bb	0.3325785
4	0xbea58b48	-0.32332826
5	0xbedf15fb	-0.43571457
6	0xbf3e99f1	-0.74453646
7	0xbea26bbb	-0.31722817
8	0xbf174960	-0.59096336
9	0xbea6c449	-0.3257163
10	0x3e8e6ec0	0.2781887
11	0xbf2b7e1e	-0.66989315
12	0x3d6af440	0.05736184
13	0xc05a1e92	-3.4081159
14	0xc006a432	-2.1037717
15	0xbe2c3722	-0.16817906
16	0xbe06d9dd	-0.13169046
17	0xbdc5de39	-0.09661526
18	0x3d8b8414	0.06812301
19	0xbe15018a	-0.14551368
20	0x3e1942a8	0.14966834
21	0xbe512ac5	-0.20426472
22	0xbe690747	-0.22756682
23	0xbee2b9b7	-0.44282314
24	0xbf3eaf64	-0.74486375
25	0x3e6eeb9d	0.23332067
26	0xc007ca15	-2.121709
27	0xbf29f4a6	-0.6638893
28	0xc03e7fb3	-2.9765441
29	0xbd9fffd1	-0.07812465
30	0xbee04c36	-0.43808144
31	0x3c9c14ce	0.01905289
32	0xbd9904ed	-0.07471643
33	0xbe65a29d	-0.22425313
34	0xbde633d7	-0.112403564
35	0xbf8e57d4	-1.1120553
36	0x3d6a835f	0.05725419
37	0x3f1be288	0.60892534
38	0xbed13b2e	-0.40865463
39	0xbecb41f5	-0.3969876
40	0x3da6b11b	0.08139249
41	0xc01bddcc	-2.4354124
42	0x3d555e05	0.052091617
43	0xbf7213fd	-0.9456175
44	0x3de06b0e	0.10957919
45	0xbfa08c02	-1.2542727
46	0xbe1553d2	-0.14582756
47	0x3ee77942	0.452097
48	0xbf6e040d	-0.9297493
49	0xbeae5c17	-0.34054634
50	0xbf9059c2	-1.1277392
51	0xbfea5161	-1.8306085
52	0xbeedf349	-0.46474674
53	0xbf56e578	-0.8394389
54	0xbe8f3780	-0.2797203
55	0xbd85bb37	-0.06529849
56	0xbe44d710	-0.19222665
57	0xc02d5740	-2.7084503
58	0xbe776db9	-0.2416295
59	0xbeb1c0fc	-0.34717548
60	0xbe189472	-0.14900377
61	0xbe1d6279	-0.15369596
62	0xc0b60102	-5.687623
63	0xbe0b0e09	-0.13579573
64	0xbdaa4c7a	-0.08315368
65	0xc02e6d68	-2.7254276
66	0xbe4fbabc	-0.20286077
67	0x3f2d7138	0.67750883
68	0xc01a3206	-2.4093032
69	0xbed6af21	-0.41930488
70	0x3d39cacd	0.04535942
71	0xbe4a75b4	-0.19771463
72	0xbdf7bb72	-0.12096299
73	0xbea0500a	-0.31311065
74	0xbe294aff	-0.16532515
75	0xbe761e3d	-0.24034972
76	0x3b19d743	0.0023474253
77	0xbe0aaba6	-0.13542041
78	0xbd8be0ea	-0.06830008
79	0xbf9b03b4	-1.2110505
80	0x3e8854da	0.26627237
81	0xbe6b3235	-0.22968371
82	0xbf854aa8	-1.0413408
83	0xbf0721d3	-0.52785987
84	0xbf90e18d	-1.1318833
85	0x3d7e445d	0.062076915
86	0xbf3bccff	-0.73359674
87	0xbfa66d7f	-1.3002166
88	0xbe3ecb91	-0.18632342
89	0xbd075e9c	-0.03304921
90	0xbdc7e133	-0.0975975
91	0xbfd49ad4	-1.660975
92	0xbfc06f68	-1.5033998
93	0xbdda40f9	-0.10656924
94	0xbfc53b69	-1.5408756
95	0xbf7341b2	-0.9502212
96	0xbe4d5ce7	-0.2005497
97	0xc0103dc6	-2.2537704
98	0xbf94759d	-1.1598393
99	0x3dab474d	0.08363209
100	0xbe01a1d8	-0.12659395
101	0xc106268e	-8.384413
102	0xbf45732d	-0.7712887
103	0xbf9a135e	-1.203716
104	0xbea35eb3	-0.31908187
105	0xbe665ccb	-0.22496335
106	0x3ccaf681	0.024775745
107	0x3a0ff4e1	0.0005491507
108	0xbd22e09d	-0.03976499
109	0x3eecd86f	0.46258876
110	0xbd11ccc6	-0.035595678
111	0xbfaa5f7c	-1.331039
112	0xbe9863c6	-0.2976362
113	0xbfc75aaa	-1.5574543
114	0xc0ceee2e	-6.4665747
115	0x3d8c49e8	0.06850034
116	0xbd8fedbd	-0.07027767
117	0xbe433a66	-0.19065246
118	0xbc78dbd5	-0.015189131
119	0xbdb5ea9e	-0.0888264
120	0x3d83915b	0.06424209
121	0xbf4b548c	-0.79425883
122	0xbcb6375f	-0.0222432
123	0xbe9de56a	-0.30839092
124	0xbf613069	-0.87964493
125	0xbe4c7c9b	-0.19969408
126	0xc01f3737	-2.487745
127	0xbfc9a440	-1.575325
128	0xc0586f3a	-3.3817887
129	0xbe433103	-0.19061665
130	0xbf2e620f	-0.68118376
131	0xbdc8b825	-0.09800748
132	0xbea8db59	-0.3297985
133	0xbd817802	-0.06321718
134	0xbec56e12	-0.3856054
135	0xbf32b051	-0.6980029
136	0xbe68fe77	-0.2275332
137	0x3f08fe82	0.5351335
138	0x3e15394a	0.14572635
139	0xbe7198ca	-0.2359344
140	0xbda97b1e	-0.08275436
141	0x3e007576	0.12544808
142	0xbe457524	-0.19282967
143	0xbe26bb93	-0.16282491
144	0xbd29196d	-0.041284014
145	0xbd0c6fa3	-0.034286153
146	0xbe2c5f92	-0.16833332
147	0xbec230f0	-0.3792796
148	0xc0d44b4e	-6.6341925
149	0xbf6b2547	-0.91853756
150	0x3e1c713f	0.15277575
151	0x3e941cc8	0.28928208
152	0xbf06e94f	-0.5269975
153	0xbfbbfbdb	-1.4686235
154	0xbee62757	-0.4495189
155	0x3eb1980d	0.34686318
156	0xbe5a4aae	-0.2131755
157	0xbf3342c0	-0.7002373
158	0xbee85f63	-0.45385274
159	0xbec725c8	-0.38896012
160	0xbf3f9381	-0.7483445
161	0xbe8fb4cb	-0.28067622
162	0xc07adaae	-3.9195971
163	0x3d976044	0.07391408
164	0xbe73fd15	-0.23827012
165	0xbfd06971	-1.6282178
166	0xbd4a1c64	-0.04934348
167	0xbf418da6	-0.75606763
168	0xc01fb2d0	-2.4952888
169	0x3df45acd	0.119313814
170	0xbe2b3811	-0.16720606
171	0x3d008489	0.031376395
172	0xbe2aa30d	-0.16663761
173	0x3e25deb5	0.16198237
174	0x3df69001	0.12039185
175	0xbf8fdc82	-1.1239169
176	0xbe341f93	-0.1759017
177	0xbf25e3f0	-0.6480093
178	0xbed52505	-0.41629806
179	0xbef0579a	-0.46941835
180	0xbf2f20e6	-0.68409574
181	0xbf4f27c4	-0.8092005
182	0x3d1dd690	0.0385347
183	0xbe85c542	-0.26127058
184	0xbf98388f	-1.189226
185	0x3dab9680	0.08378315
186	0xbfb73c0c	-1.43152
187	0xbef2a9d1	-0.47395185
188	0xbf896da9	-1.0736591
189	0xbdfd7f2b	-0.12377771
190	0xbaae0120	-0.0013275482
191	0xbf845092	-1.0337088
192	0xc078a4be	-3.885055
193	0xbf00ef57	-0.50365204
194	0xbf9385e5	-1.1525236
195	0x3e1ea4b1	0.15492512
196	0xbe568f65	-0.20953138
197	0xbf3dac34	-0.74090886
198	0xc002a500	-2.0413208
199	0xbd99dee1	-0.07513214
200	0x3dede23a	0.11615415
201	0xc0901250	-4.5022354
202	0xbf8a575e	-1.0807912
203	0xbf863505	-1.048493
204	0xbea02230	-0.31276083
205	0xbe9596da	-0.29216653
206	0x3c3fb27a	0.011700267
207	0x3d2860d5	0.04110797
208	0xbedd6bb0	-0.43246222
209	0x4009ca02	2.1529546
210	0xbeabdc54	-0.33566535
211	0xbfbcb6d7	-1.4743298
212	0xbdec6e6c	-0.11544499
213	0xc06c5d18	-3.693182
214	0xc079b1ca	-3.9014764
215	0xbd33c519	-0.04388914
216	0xbf4f83d2	-0.81060517
217	0x3e8cc88e	0.2749676
218	0xbdfbdcc5	-0.12297968
219	0x3d8bed99	0.068324275
220	0x3c56d510	0.0131123215
221	0xbed01fa4	-0.4064914
222	0xbe337316	-0.1752437
223	0xbd5e49fd	-0.05426978
224	0xc0348486	-2.8205886
225	0xbdf581a6	-0.11987619
226	0xbfbb0c44	-1.4613118
227	0xbf97ffba	-1.1874917
228	0xc00256cb	-2.0365474
229	0xbd38ea8f	-0.045145568
230	0xc07ff99e	-3.9996104
231	0x3db724b9	0.08942551
232	0xbe87bf44	-0.26513112
233	0xbf01ba13	-0.5067455
234	0xbe05facc	-0.13083953
235	0xbeeb56b3	-0.45964584
236	0xbf0f6100	-0.56007385
237	0x3f2f8f19	0.68577725
238	0xbd84cff5	-0.06484977
239	0x3da31a2c	0.07963976
240	0xbcfffbf5	-0.031248072
241	0xbf802720	-1.001194
242	0x3db4d6b0	0.08830011
243	0xbd534b03	-0.05158521
244	0xbe839737	-0.25701305
245	0xbf624b25	-0.8839591
246	0xbcc422ce	-0.023942377
247	0xbf0fc251	-0.5615588
248	0xc15ade3c	-13.679256
249	0xbf0ca0b9	-0.54932743
250	0xbfa3a903	-1.2785953
251	0xbfb396ca	-1.4030392
252	0xbe155f93	-0.1458724
253	0xc056796a	-3.3511605
254	0xbf34fc59	-0.7069755
255	0xbe9b7ab2	-0.30367047

l2/b f4 [81]
0	0xbfc133ab	-1.5093893
1	0xbfa2b911	-1.2712728
2	0xbfe33936	-1.7751834
3	0xbfa81bdc	-1.3133502
4	0xbfcc4fec	-1.596189
5	0xbfba9f92	-1.4579947
6	0xbfcafcd8	-1.5858412
7	0xc006bb9d	-2.105201
8	0xbfd6737f	-1.6753997
9	0xbfddde8c	-1.7333541
10	0xbfa8b704	-1.3180852
11	0xbfc37f80	-1.5273285
12	0xbfee6b0e	-1.862642
13	0xbfca4238	-1.5801458
14	0xbfe22cd5	-1.7669932
15	0xbfb46cc2	-1.409569
16	0xbfdec1e1	-1.7402917
17	0xbfc3f4e5	-1.5309111
18	0xbfbb6c33	-1.4642395
19	0xbfb03e9a	-1.3769104
20	0xbfc89366	-1.5669982
21	0xbfb27e46	-1.3944786
22	0xbf8ec4a0	-1.1153755
23	0xbfcdc26d	-1.6074959
24	0xbf9b8d93	-1.215258
25	0xbfa05491	-1.2525808
26	0xbf748358	-0.95512915
27	0xbfc2a98d	-1.5207993
28	0xbf992f71	-1.1967603
29	0xbfddf46a	-1.7340214
30	0xbfbbfc6f	-1.4686412
31	0xbfa5897e	-1.2932584
32	0xbf1bca33	-0.60855407
33	0xbf841ddd	-1.0321614
34	0xbf9557fe	-1.1667478
35	0xbf88ed19	-1.0697356
36	0xbf97a3bb	-1.1846842
37	0xbf4b70af	-0.79468817
38	0xbf8d8401	-1.1055909
39	0xbf3d6c03	-0.7399294
40	0xbf48f057	-0.7849173
41	0xbf95cda6	-1.1703384
42	0xbf1b43dc	-0.6065042
43	0xbf7a0018	-0.97656393
44	0xbf93cbee	-1.1546609
45	0xbf9d381e	-1.2282751
46	0xbf5b5c73	-0.8568794
47	0xbfa28bda	-1.2698929
48	0xbf9cadc6	-1.2240531
49	0xbf9208f8	-1.1408987
50	0xbf0dfe7c	-0.5546644
51	0xbf9da36a	-1.2315495
52	0xbfb4ee8f	-1.4135302
53	0xbf69a0a5	-0.9126075
54	0xbfaf9d60	-1.3719902
55	0xbf95fd86	-1.1717994
56	0xbf04efae	-0.5192822
57	0xbf4443d9	-0.7666603
58	0xbf823e55	-1.0175272
59	0xbf9a0518	-1.2032804
60	0xbe7eb330	-0.24873042
61	0xbeb004c3	-0.34378633
62	0xbe7a0522	-0.2441602
63	0xbf149399	-0.58037716
64	0xbf7c3039	-0.9851108
65	0xbf9127a6	-1.1340225
66	0xbec455ef	-0.38346812
67	0xbebb094a	-0.36530524
68	0xbf616eca	-0.88059676
69	0xbdc400cc	-0.095704645
70	0x3d2d7e3b	0.04235671
71	0xbbc3f9e4	-0.005980717
72	0xbea549ec	-0.3228296
73	0xbf048654	-0.5176747
74	0xbedcf55a	-0.43155938
75	0x3e82d125	0.2555019
76	0xbec0ab4e	-0.37630695
77	0xbdf920fb	-0.12164494
78	0x3d914003	0.070922874
79	0xbee57e68	-0.44823003
80	0xbf15840b	-0.58404607
