sample-agents/circuit-rp/model.npz (npz, 32816 bytes, 8 tensors)

l1/W f4 [20, 50]
000000 85 e5 93 3e bc b5 7d be 2e bd 10 be 84 fe 08 bf
       0.28886047 -0.24776357 -0.14134666 -0.5351336
000010 2b ba a8 3e e5 4c c3 be 28 38 b8 be 0e c8 bb 3f
       0.32954535 -0.38144603 -0.35980344 1.4670427
000020 fd c5 55 bf 05 07 46 be 4b b0 bb be 25 04 cf be
       -0.8350523 -0.19338615 -0.36657938 -0.4043285
000030 bb 43 3b be 21 3d d0 bf ea f9 a7 3d 2a 01 85 be
       -0.18287556 -1.6268655 0.08201964 -0.2597745
000040 c3 c1 a0 3c 67 4f 90 3f 71 b5 18 3d ff e0 cc 3e
       0.019623643 1.1274232 0.03728241 0.40015408
000050 c7 91 2f 3f 98 91 73 3e 27 0b 17 bd b4 a2 e8 be
       0.68581814 0.23786008 -0.03687587 -0.45436633
000060 9b f3 0f 3f ca 94 33 be 21 ec 61 be e7 80 7f 3f
       0.5623109 -0.17537227 -0.22062732 0.99806064
000070 46 fa 81 3d 10 72 d4 be a1 80 ae be b5 80 19 3e
       0.06346564 -0.41493273 -0.3408251 0.14990504
000080 c5 3a e4 3b 18 95 db bc 93 8f 98 3f b9 38 56 bf
       0.0069650137 -0.026804492 1.1918815 -0.836803
000090 c8 eb 6a 3e 40 72 08 be 3f 55 6d 3e 80 ce a4 bd
       0.22941506 -0.13324833 0.2317705 -0.08047199
0000a0 b3 80 61 be 28 03 df be b2 ff 31 be 70 08 33 3f
       -0.22021751 -0.43557096 -0.17382696 0.6993475
0000b0 2d 01 e9 bd 1e 3d 48 3e 3c 70 3e bf 1b aa 4d 3e
       -0.113771774 0.19554564 -0.74390006 0.20084421
0000c0 02 04 c0 be 89 7d 8d 3f 87 18 c6 be 26 01 7f bf
       -0.37503058 1.1053935 -0.38690588 -0.9961113
0000d0 40 d5 71 bf d8 08 13 3f 57 49 00 40 7e e9 56 3e
       -0.9446602 0.5743537 2.0044763 0.20987508
0000e0 df 6b 15 bf ad 58 76 3d 92 45 d4 bd a2 1b 62 bf
       -0.58367723 0.06014316 -0.10364832 -0.88323414
0000f0 14 a7 44 3f 0f 9b bf 3e dd 60 19 3e 28 c2 bd 3e
       0.7681744 0.37422988 0.14978357 0.37062192
000100 2c 3f 0e bf e5 02 21 bf 1d df 71 bf b3 fe fa be
       -0.5556514 -0.6289504 -0.9448107 -0.49022445
000110 e1 50 1c 3e eb bc 9d 3e f9 cb c0 bd 94 5d 83 bd
       0.15265228 0.30808195 -0.09413905 -0.06414333
000120 c0 9a 94 bf 28 91 aa be cb 42 12 3f 7a b3 b5 3f
       -1.1609726 -0.3331387 0.5713317 1.4195397
000130 f6 73 41 bf d0 8a b9 3d 1d 0c d2 be 3d d8 85 be
       -0.7556757 0.090596795 -0.41024867 -0.2614154
000140 83 2d 82 be 44 4f 7a bf 29 d5 eb be e4 82 11 bf
       -0.25425348 -0.977772 -0.46061066 -0.5684035
000150 7c 94 a8 bf 76 cd 98 3f c9 4d a6 bf d8 0a e4 bf
       -1.3170314 1.1937702 -1.2992488 -1.7815809
000160 6c 5c b7 be d6 66 0f 3f 22 2a 6c 3f 6a 75 b6 bf
       -0.358127 0.5601629 0.9225179 -1.4254582
000170 d5 4d 6c 3d b5 ca 00 3f bf 0b 13 3e c2 60 3d 3f
       0.057691414 0.50309306 0.1435995 0.73975766
000180 f2 6d f5 be c9 ed 23 3f 5e 93 08 bf 9f 71 24 3f
       -0.47935444 0.64034706 -0.53349864 0.6423587
000190 73 1d 69 be 78 f4 9b bd e0 8b 29 bd bf 56 78 3e
       -0.2276514 -0.07614988 -0.04139316 0.24251841
0001a0 86 ac b9 3e 80 bb 46 3e 4b 89 48 bd 86 8a 9e 3e
       0.36264437 0.19407463 -0.048959058 0.3096506
0001b0 c3 2e d4 3e 77 db 75 3e bc 00 22 bd d1 60 9a 3e
       0.41441926 0.240095 -0.03955148 0.3015199
0001c0 8d 7c 61 bd 64 8b e2 3e 8d 5e c3 be da 2c 19 3e
       -0.05505042 0.44246972 -0.38158074 0.14958516
0001d0 e5 2a 9c be 0d ed 10 be d1 f5 9c 3e 29 e2 80 be
       -0.30501476 -0.14152928 0.30656293 -0.25172547
0001e0 c4 c6 2b 3d 5a 9a df bd 08 de 4f 3e 20 8c b7 3d
       0.041937605 -0.10918112 0.20299542 0.089622736
0001f0 07 fa fb bc 4d bc 21 3f d2 ef 41 be 7c b8 9a 3e
       -0.03075887 0.6317795 -0.1893914 0.30218875
000200 81 c4 20 3e b1 93 8b bc dd 96 52 bf 07 4f d7 bc
       0.1569996 -0.017038198 -0.8226145 -0.0262828
000210 e7 02 76 be 49 e0 1f 3e d2 06 a1 3f 17 86 ad 3f
       -0.24024545 0.15612902 1.2580206 1.3556546
000220 78 9b e9 3d 79 b6 4a 3e 7b 9a 09 3f ee 59 2f bd
       0.114066064 0.1979617 0.53751343 -0.042810373
000230 17 1b 78 bf fe ef 8a be f6 5a f9 bc f1 4f 49 3e
       -0.96916336 -0.27136225 -0.030438881 0.19659401
000240 b2 e7 07 be 7d dc f6 bc b2 59 a6 3c c2 31 70 3e
       -0.13271978 -0.030134434 0.020306442 0.23456481
000250 b1 d5 92 3e 0c c1 b4 3e 9f 3d 6d 3c d9 c3 06 bf
       0.2867866 0.35303533 0.014480024 -0.5264259
000260 22 a8 90 bf 90 9c 05 3f e3 05 bc bf dc 8a 70 be
       -1.130131 0.5219202 -1.4689296 -0.2349047
000270 38 68 0a bf 12 3a 2e 3d c9 82 3f bd cb 2a 14 3f
       -0.54065275 0.04253585 -0.046755586 0.57877797
000280 b0 c8 49 3f 68 56 d3 3e b2 98 6f 3d ad 64 30 3f
       0.7882185 0.4127686 0.05849523 0.6890362
000290 83 17 e8 bc 0d bf af be 07 0f 14 3f f7 eb 7d 3f
       -0.028331524 -0.34325448 0.5783543 0.9918818
0002a0 33 4f 33 3e 4a 6d a9 3f 64 0c e3 3f 98 52 69 3f
       0.17510681 1.3236477 1.7738156 0.91141653
0002b0 a4 36 3d 3f 0b 1e 23 3d 0e 40 ba 3e 89 bf 51 3d
       0.739115 0.039823573 0.36376995 0.051208053
0002c0 d9 d1 f9 bc b1 2c 1a bf 18 57 dd 3e ac 8c ae 3e
       -0.030495571 -0.60224444 0.4323051 0.340917
0002d0 c5 30 34 bf 5d 2c f3 be 4f 97 56 3f 4e 5c 05 bf
       -0.70386916 -0.47494784 0.8382463 -0.5209397
0002e0 e7 28 3a be fb b8 27 3d 20 4c 34 bf e2 1e d5 3d
       -0.18179666 0.040947895 -0.7042866 0.10406281
0002f0 9b 67 ed 3e 82 68 fd bf d7 eb 2d 3f 3a 63 ea be
       0.46368107 -1.9797518 0.6793799 -0.4577883
000300 b2 ee 5b bf 98 c5 2b 3f fa d1 23 3e 15 09 8d 3f
       -0.85911095 0.6709838 0.15998068 1.1018397
000310 64 67 11 bf ab 36 86 be d4 cf 34 bd 87 60 e4 be
       -0.56798387 -0.26213583 -0.044143513 -0.44604895
000320 a5 a2 45 bf 45 0c d6 3d bb a4 e1 be 17 02 63 3c
       -0.772013 0.10451559 -0.44070992 0.013855479
000330 04 25 97 be ed 8a a6 be 1e 62 a0 bd e7 93 81 be
       -0.29520428 -0.32527867 -0.07831214 -0.25308153
000340 ae 7f ae 3f 31 c8 3b be 69 f3 c8 3e ad 49 95 3d
       1.3632715 -0.18338086 0.39248207 0.07289443
000350 99 54 aa 3f 91 11 a6 3f ad 6d 32 3f 6e 41 df 3d
       1.3307067 1.2974111 0.696986 0.109011516
000360 05 53 df 3d 6d 69 79 bf 86 08 55 3e 99 ce 48 be
       0.109045066 -0.9742649 0.20804033 -0.19610061
000370 08 bf b6 bf bf 18 72 be 5b f0 b2 3e 10 a7 e9 3c
       -1.4277048 -0.23642252 0.34949002 0.028522044
000380 cb 7a ce 3e b5 2f 51 bd 53 ef 35 3d 55 cd 4a bf
       0.4032806 -0.051070888 0.04441769 -0.7921956
000390 6c 3d a4 be 7c eb 05 bf 9b 10 11 bf e1 7e 26 be
       -0.3207811 -0.52312446 -0.5666596 -0.16259338
0003a0 07 3e f3 3d 08 66 2a bf 57 b4 95 be 3e 1c 83 bf
       0.11877065 -0.6656194 -0.2923915 -1.0242994
0003b0 f7 65 97 be cc fc 9d be de 50 18 3e c2 fd c6 3e
       -0.2956998 -0.3085693 0.14874598 0.38865477
0003c0 a2 86 34 3d f4 02 dd be f2 98 81 3e 6e bf 65 be
       0.04407371 -0.43166316 0.25312 -0.22436306
0003d0 25 75 25 bd e2 60 e2 be 96 9b 9d 3f 84 24 5c bf
       -0.04039492 -0.4421454 1.2313106 -0.8599322
0003e0 07 af 2c 3d 35 94 62 bf 07 7f 4e bf 28 b9 25 bf
       0.042159107 -0.88507396 -0.8066258 -0.6473565
0003f0 66 1a 01 3f 51 67 26 3e f1 18 bf 3e f5 47 b3 be
       0.50430906 0.1625035 0.37323716 -0.35015836

l0/W f4 [50, 139]
000000 f0 71 1b 3e 84 22 e2 3d f9 c9 71 3f ee 3f 7c 3f
       0.15180182 0.110417396 0.9444881 0.9853505
000010 c2 8e 60 3f ab 08 62 3f 51 ab 5e 3e c7 51 d6 3e
       0.8771783 0.88294476 0.2174504 0.41859266
000020 df cf af 3e f7 92 d4 bd 43 68 3d bc a5 da a4 be
       0.3433828 -0.10379594 -0.011560502 -0.32198063
000030 85 63 97 be b6 4b 0e be 91 c4 9e be 98 17 95 bf
       -0.29568115 -0.13896069 -0.31009343 -1.1647825
000040 54 a0 bb bf a8 d3 bc bf 15 bc 67 bf 4e e9 ef be
       -1.4658303 -1.4752092 -0.90521365 -0.46857685
000050 8d 6e cc be 82 89 37 bd ae e9 03 3e 02 fa f1 3e
       -0.39928094 -0.044808872 0.1288211 0.47261053
000060 e7 59 75 3e db 7d e1 bd cf 3d e9 bd 0d b7 7e 3e
       0.23960076 -0.11010333 -0.11388742 0.24874516
000070 da 1f 50 3f 4f 10 6d 3f c8 05 80 3f df 09 28 3f
       0.812986 0.9260301 1.0001764 0.6564006
000080 26 ca 18 3f 40 a4 48 3f ed e6 0c 3f df d2 79 3e
       0.59683454 0.78375626 0.55039865 0.24396847
000090 62 b2 38 3e 00 5e d5 3e a7 c4 a3 3e 36 a3 4d 3e
       0.18036798 0.4167328 0.3198597 0.20081791
0000a0 49 82 a0 3d 7a 58 52 bd 8d ea e4 3d 75 1e 93 3d
       0.0783735 -0.05135391 0.111775495 0.071835436
0000b0 cc ee 25 3e 39 f7 95 3d 0a 18 c1 bc 00 cc d1 3d
       0.16204375 0.073225446 -0.023571033 0.10243988
0000c0 91 11 f6 bc 18 82 0b be 68 7f ea 3d a1 16 5a be
       -0.030037673 -0.13623846 0.11450082 -0.21297695
0000d0 55 8c 1b 3e f3 b6 ba bc 2b a5 a4 bd 2f 35 f7 3c
       0.15190251 -0.022792315 -0.08039316 0.030176727
0000e0 34 7e 7b 3d 56 6f 98 bd 99 91 7f 3d 15 f4 6b be
       0.061399654 -0.07443111 0.062394712 -0.23042329
0000f0 04 6c ab bd a9 09 a4 3d ce b1 ed 3d 3c d0 b6 3d
       -0.08370212 0.08009655 0.11606179 0.08926436
000100 f5 0d 42 bc dd a5 a3 3d e6 76 9a bd 7a aa b2 bd
       -0.011844148 0.0799062 -0.07542209 -0.08723922
000110 c9 4c 96 3d 14 39 f1 3c 30 e6 d5 3c 8b e2 76 3d
       0.07338864 0.029446162 0.026110739 0.060274642
000120 87 e4 ca bc 9d 5b c2 3c cc 7a 57 3e 79 90 d2 3d
       -0.024767173 0.023725325 0.21042937 0.10281462
000130 1f 98 90 bc e9 2c 40 bd 6a 02 2c bc 6c 55 4c 3d
       -0.017650662 -0.04691783 -0.010498622 0.049886152
000140 f5 69 11 3d 24 f0 80 bd 93 71 4a 3e 72 59 2b 3e
       0.03550144 -0.06295803 0.19769888 0.1673334
000150 26 3d 9e 3d 67 d7 44 bd d0 ba 16 3d 83 68 2e bd
       0.07726507 -0.048056986 0.036799252 -0.04258014
000160 0a 18 89 ba a7 f6 df 3c 94 66 50 bf c3 18 0f bf
       -0.0010459435 0.027339293 -0.8140652 -0.5589716
000170 6d 49 3f be 43 2d 2f 3d 03 a5 0d 3e f3 18 1f bd
       -0.18680353 0.042767774 0.13832478 -0.038842153
000180 85 6b 22 be 79 3e 2d be da 60 90 be f2 ba 40 3c
       -0.15861328 -0.16918363 -0.28198892 0.011763321
000190 fb c6 c5 3e 62 a9 28 3f 05 3e b3 3e 18 ef 9f bd
       0.38628373 0.6588346 0.35008255 -0.078092754
0001a0 87 ae 6b 3c ed 00 00 be c3 8b 33 be 84 25 a8 3e
       0.014384872 -0.12500353 -0.17533784 0.32841122
0001b0 db a6 16 3e 12 6f 8c bd 00 54 a5 3e f3 51 12 3d
       0.14712088 -0.068571225 0.3229065 0.035722684
0001c0 fb 88 42 bd e9 13 a3 3e 6b 90 7a be 19 5b 64 bf
       -0.047493916 0.31851128 -0.24469154 -0.89201504
0001d0 05 22 18 bf 25 c6 10 bf 93 23 d8 be 5a b0 7d bd
       -0.5942691 -0.56552345 -0.4221464 -0.06193576
0001e0 e2 95 84 3d 0a cb 82 3d 1b 01 ba 3d 43 99 01 bd
       0.064739004 0.06386383 0.09082242 -0.031640302
0001f0 bd 27 a3 3e e6 6c 01 3f 11 2b f9 3e 45 e1 2a 3f
       0.31866255 0.5055679 0.4866567 0.66749984
000200 18 fa e4 3e f3 10 ad 3e 87 ea 3f 3f 8f 82 e8 3e
       0.44722056 0.33801994 0.74967235 0.45412108
000210 96 79 40 3d 5e 3f 4f be b7 d8 d0 be e4 f8 30 3f
       0.046990953 -0.20239016 -0.4079034 0.69129777
000220 db 35 71 40 3d 92 aa be 9a f1 cd be 47 74 e9 3e
       3.768912 -0.33314696 -0.4022339 0.45596525
000230 3f 67 39 3f b0 09 06 3f 8a 48 7e 3e 54 01 16 3f
       0.72423166 0.5235853 0.24832359 0.58595777
000240 21 4b 37 3e 97 8d a5 3e 7f f6 38 3f 2d eb 3d 3f
       0.17899753 0.32334587 0.72251123 0.74186975
000250 dd f3 50 3f 8e f0 c1 3e 84 86 38 be e2 6d 87 be
       0.81622106 0.3787884 -0.18020064 -0.2645102
000260 85 be 33 bd 35 e6 bb bd 0a 90 30 bd c0 01 bb 3e
       -0.043882865 -0.09174768 -0.043106116 0.36524773
000270 07 44 90 3e 60 87 0a 3e 0a d5 62 3e 3a e2 76 3e
       0.281769 0.13528204 0.2215158 0.24109736
000280 84 1d d3 bd 52 84 1d bd e1 3b a6 be 74 f5 0a be
       -0.10308364 -0.03845627 -0.3246756 -0.13570195
000290 a4 a5 72 be 54 7c 9f be 73 40 c6 be 9b 8e a1 be
       -0.23696 -0.31149542 -0.38721046 -0.31554112
0002a0 b3 07 10 bd b5 3b 64 bd 2a ad c0 be 08 33 21 bf
       -0.035163593 -0.055721004 -0.37632114 -0.6296849
0002b0 97 27 47 bf de e9 5d bf 29 10 e3 be ac fa cd be
       -0.77794784 -0.8668498 -0.44348267 -0.4023031
0002c0 87 83 d2 be 58 bd 30 be 27 9d d6 be 69 e6 22 bf
       -0.41115972 -0.17259729 -0.41916773 -0.6363283
0002d0 77 3c 8a be 45 03 c1 3c a2 b9 67 3d 56 ec 80 3d
       -0.26999256 0.02356113 0.056573518 0.062950775
0002e0 b8 a7 99 bd a2 8c 57 bd 10 e6 43 3d e3 8e 4d be
       -0.07502693 -0.052624352 0.047826827 -0.20074038
0002f0 78 90 13 be 6f b5 f1 3d 17 76 fa 3c a2 03 ca bc
       -0.14410579 0.11802184 0.030573888 -0.024659935
000300 06 6e c9 3d fa 3b 97 bc 58 a3 8f 3c 2a bf cb 3d
       0.098354384 -0.018461216 0.017533943 0.09948571
000310 89 15 55 3c b0 08 04 3e 64 28 b5 3b 81 75 d1 3d
       0.013005623 0.12893939 0.0055284966 0.1022749
000320 9a 9b b8 3a df ad 80 bd f2 7a 30 bc 48 e3 b5 3d
       0.0014084459 -0.06283163 -0.0107715 0.08881241
000330 81 b4 f2 3c 9c 1a 82 bd f0 4d f1 3c 0a 58 09 bd
       0.029627087 -0.063527316 0.029456109 -0.033531226
000340 de ac 3c be 76 f6 94 3d 6e 80 ea bd 55 f4 df bd
       -0.18425319 0.07273571 -0.11450277 -0.109352745
000350 38 d8 00 bc 73 fb 5d be 32 73 19 bd 69 d3 9c b9
       -0.007864051 -0.21677952 -0.037463374 -0.00029912152
000360 8b 3f 17 3e f2 32 03 3d 13 43 9a 3d 44 86 46 bd
       0.14770333 0.032031007 0.07532325 -0.04846789
000370 78 ab f9 3c 5d ac b4 3c 36 4f 29 be 44 40 b5 3d
       0.03047727 0.022054845 -0.16534123 0.08850148
000380 ed 38 a1 3d 6d b1 75 bd e2 da a2 bc 33 61 7a bd
       0.07872186 -0.05998366 -0.019879762 -0.061127853
000390 55 0d 2b be 84 11 cb be e9 80 1a be 64 07 d1 bd
       -0.16704305 -0.396618 -0.15088238 -0.10206488
0003a0 d3 12 14 be 7e 01 a1 be 3d ac 57 be b2 71 0a 3e
       -0.14460306 -0.3144645 -0.21061797 0.13519934
0003b0 fd aa 2e 3e 39 2b e9 3e ec 97 ec 3e 03 de c2 3e
       0.17057414 0.4554079 0.46209657 0.38060006
0003c0 6c 8b 26 3e c2 21 48 3e 0e 9b 8e 3e 60 9a ac bd
       0.16264123 0.19544128 0.27852672 -0.08427882
0003d0 65 68 c5 be ef 0d f4 be 2b a6 4b be 82 cf ba bd
       -0.3855621 -0.4766688 -0.19887607 -0.0912161
0003e0 34 85 67 be 46 86 b6 be 06 99 81 be e6 d3 d6 be
       -0.22609407 -0.35649318 -0.2531206 -0.4195854
0003f0 cc 3d 00 bf 31 6f 10 bf 23 6f 3e be d9 4b b3 3c
       -0.50094295 -0.56419665 -0.18597083 0.021886753

conv/W f4 [3, 1, 1, 6]
000000 13 20 36 3e 26 c2 86 ba 52 c3 ac 3b 1d 9f ac 3e
       0.17785673 -0.0010281249 0.0052723074 0.33715144
000010 1d f4 1f 3b d7 19 11 3e d3 63 85 be 88 cc bc bd
       0.0024406977 0.14170013 -0.26052722 -0.09218699
000020 d3 8a ad bc 95 46 4d be 60 bb 6a bf 41 e8 a6 be
       -0.02118436 -0.20046456 -0.9169216 -0.3259907
000030 91 6d 1d bd ff 23 00 be 2b d4 89 be d4 47 65 c0
       -0.03843457 -0.12513731 -0.26919684 -3.582509
000040 fb 2e 1d 3f 9c bf 9c c0
       0.6139981 -4.89839

l0/b f4 [50]
000000 41 83 81 3e ab 52 a2 3f 38 f8 f4 bf d2 53 9b bf
       0.2529545 1.2681478 -1.913825 -1.2134955
000010 23 4f 35 40 62 be 05 3f cc 0a 61 bd 3d 66 5f 3f
       2.8329551 0.52243626 -0.054941937 0.8726538
000020 6f 8d 48 40 fb 49 4b 3f 4f da bf 3f de ee d2 bf
       3.1336324 0.7940976 1.4988497 -1.6479146
000030 6d f1 0b 3f 31 0d 1a 40 91 e9 82 be b1 29 33 3f
       0.5466526 2.4070551 -0.25568822 0.6998549
000040 83 fa af 3f 46 84 14 c0 00 3a 83 3f 1f 7e b0 3e
       1.3748325 -2.3205733 1.0252075 0.34471223
000050 e4 89 86 40 88 f3 97 3f 57 6b 82 bf a3 35 6b bf
       4.2043324 1.1871195 -1.0189008 -0.9187872
000060 19 a2 af 3f 91 b7 ca bf e0 41 f3 3e a3 7b 10 c0
       1.3721343 -1.583727 0.47511196 -2.2575462
000070 61 ef 55 be 68 3c bc 3d e7 d5 99 bf 41 fa da be
       -0.20892097 0.09191209 -1.2018403 -0.42769054
000080 54 3f bd 3f 5c ce 6d 3f 9a ff 27 40 39 c2 c2 3f
       1.4784951 0.92893004 2.6249757 1.5215522
000090 45 49 c9 3f 1e 72 0a bf ae cf 51 3f ef 69 09 40
       1.5725485 -0.5408038 0.8195752 2.1470907
0000a0 7d 39 0b 3e 62 41 bf 3f 51 91 11 c0 9c ac 8a bf
       0.13596149 1.4941828 -2.2744944 -1.0833926
0000b0 7f 22 86 3f ca e4 46 bf 86 04 d9 3f f3 17 73 bf
       1.0479277 -0.77692854 1.6954505 -0.9495842
0000c0 de 4d c0 bf 5b f8 23 c0
       -1.5023763 -2.5620334

l2/b f4 [15]
000000 95 05 ff 40 74 fe f0 40 d7 d9 e7 40 b6 f7 ef 40
       7.9694314 7.531061 7.245342 7.498988
000010 00 0f f8 40 99 a7 eb 40 d2 8a e7 40 f8 88 e8 40
       7.751831 7.3642087 7.235696 7.26672
000020 21 80 db 40 61 48 e8 40 66 d5 f6 40 79 e2 f2 40
       6.8593907 7.2588353 7.7135496 7.5901456
000030 d6 a0 e8 40 8c 22 ee 40 e7 a6 e9 40
       7.2696333 7.441717 7.301624

l1/b f4 [20]
000000 45 2e 29 3f c0 81 19 bf de 6b d7 be c4 0a 87 3d
       0.66086227 -0.5996361 -0.42074484 0.0659385
000010 05 d7 ae bd c3 0f 3e bf 1a e5 2a 3f 54 01 08 3f
       -0.085371055 -0.742428 0.6675583 0.53127027
000020 7e 80 55 3f d4 02 f6 3e 3a 68 27 3f 87 28 9b be
       0.8339919 0.48049033 0.6539341 -0.30304357
000030 d1 47 1b 3f 0a 2a 04 bf fb 75 ab 3e 4f d4 15 bf
       0.6065646 -0.51626647 0.3348845 -0.5852708
000040 ba 1f af bf 2b e1 6c be c8 43 be bf 31 de 5a bf
       -1.3681557 -0.2313277 -1.4864435 -0.8549529

l2/W f4 [15, 20]
000000 13 34 00 41 f7 a1 08 c1 d5 bc ae 3e 77 b5 e8 c0
       8.012713 -8.539542 0.34128442 -7.2721515
000010 bc cc e5 c0 8c 89 02 c1 34 d3 f7 40 61 1c 3e 40
       -7.181242 -8.158581 7.7445316 2.970482
000020 50 5f 68 c1 fb 8f e2 40 f6 77 dc 40 33 63 0c c1
       -14.52327 7.0800757 6.8896437 -8.774219
000030 26 03 0d 41 ac dd d6 c0 02 14 fe 40 78 72 08 c1
       8.813269 -6.7145596 7.9399424 -8.527946
000040 b6 2b 35 41 ce c1 e4 40 8c 99 1c 41 a2 19 ef c0
       11.323172 7.148658 9.787487 -7.471879
000050 d9 4c ee 40 61 ce 07 c1 8f 23 f2 be 54 b7 f5 c0
       7.446881 -8.487885 -0.47292754 -7.678629
000060 76 91 14 c1 88 27 ee c0 55 c6 f6 40 2a 99 b6 40
       -9.285513 -7.4423256 7.7117105 5.706197
000070 70 fc 41 c1 df a6 c2 40 6e fa f2 40 05 45 0f c1
       -12.12413 6.08287 7.59307 -8.95435
000080 57 66 fc 40 09 05 e3 c0 69 37 ea 40 46 c6 0d c1
       7.8874927 -7.0943646 7.319264 -8.860907
000090 26 47 3b 41 54 5a f7 40 e4 f1 22 41 0b 2b 05 c1
       11.70487 7.7297764 10.184055 -8.323009
0000a0 76 ae e3 40 17 0a 06 c1 9d 39 50 bf 13 a6 f8 c0
       7.1150465 -8.377463 -0.8133791 -7.7702727
0000b0 df 83 24 c1 e6 24 f5 c0 b0 34 ec 40 09 e5 dc 40
       -10.282195 -7.660754 7.3814316 6.9029584
0000c0 cc 6d 2f c1 9b 3d b9 40 19 ba f1 40 00 bc 05 c1
       -10.964306 5.78877 7.553967 -8.358398
0000d0 ed 17 02 41 ff f4 ea c0 7f 9a e1 40 8b 48 0f c1
       8.130841 -7.3424067 7.0501094 -8.955211
0000e0 85 07 40 41 9b 6a 01 41 20 4d 27 41 c9 ac 0b c1
       12.001836 8.088527 10.456329 -8.729684
0000f0 44 4e da 40 40 39 fc c0 46 4f a8 bf d2 17 f9 c0
       6.822054 -7.8819885 -1.3149192 -7.7841578
000100 d9 af 32 c1 ba 0b e8 c0 37 a9 e5 40 3d 05 01 41
       -11.167932 -7.2514315 7.176906 8.063779
000110 f9 b9 1d c1 2f 27 ad 40 f3 4f f5 40 1d f3 06 c1
       -9.8579035 5.411033 7.6660094 -8.434354
000120 55 0f 08 41 60 af e9 c0 59 e9 d7 40 43 f6 0f c1
       8.503743 -7.302658 6.747235 -8.9976225
000130 ed a2 44 41 24 2e 07 41 d7 26 2c 41 55 a7 10 c1
       12.289777 8.448765 10.759482 -9.040853
000140 a6 43 bf 40 af a9 e6 c0 40 2d d3 bf 5a 2f f7 c0
       5.977008 -7.2082133 -1.6498184 -7.72453
000150 47 ed 5a c1 19 00 e8 c0 52 bc 00 41 f2 dd 21 41
       -13.682929 -7.250012 8.045977 10.116686
000160 a5 23 fc c0 1f 0f a7 40 63 1e 02 41 7a d6 fd c0
       -7.879351 5.220596 8.132419 -7.932431
000170 5e b6 ed 40 01 ac e3 c0 e3 af c3 40 05 34 0e c1
       7.4285116 -7.1147466 6.1152205 -8.8877
000180 b6 81 4c 41 cb 4c 17 41 23 77 36 41 91 66 14 c1
       12.781668 9.456248 11.404086 -9.275041
000190 1c 4d 27 41 55 6e 1a c1 2c 32 11 41 b2 da 02 c1
       10.456326 -9.651937 9.074749 -8.178392
0001a0 48 75 05 c1 ff 53 03 c1 a3 2c df 40 d7 78 38 40
       -8.341133 -8.208007 6.974199 2.8823755
0001b0 e6 11 6d c1 8c f5 10 41 ce 22 e3 40 12 f4 09 c1
       -14.81687 9.059948 7.0979986 -8.6220875
0001c0 61 6d fd 40 04 fd d7 c0 ab eb 00 41 3e c9 e7 c0
       7.919602 -6.7496357 8.057536 -7.2433157
0001d0 f2 3b 0a 41 42 e2 b8 40 f5 79 c5 40 65 c2 95 c0
       8.639635 5.7776194 6.1711373 -4.67998
0001e0 c1 c3 1d 41 30 55 12 c1 79 e5 0c 41 bb af 08 c1
       9.8602915 -9.145798 8.806024 -8.542903
0001f0 b9 cb 1b c1 81 32 f8 c0 a3 87 d4 40 ae 3a bb 40
       -9.737237 -7.756165 6.641557 5.850913
000200 55 1b 44 c1 73 03 fe 40 38 db ea 40 77 dd 01 c1
       -12.256673 7.937921 7.33926 -8.116569
000210 cd b4 00 41 3e 10 d0 c0 df c6 ef 40 49 44 e8 c0
       8.044141 -6.5019827 7.4930263 -7.2583356
000220 2e d3 15 41 5f 63 c7 40 b5 e3 d7 40 ae 31 af c0
       9.364058 6.2308803 6.7465463 -5.4748144
000230 a2 5c 1b 41 13 8b 10 c1 25 5b 03 41 ce b4 0a c1
       9.710115 -9.033954 8.209752 -8.669142
000240 19 92 29 c1 d7 d3 fb c0 11 a6 e3 40 1a 08 de 40
       -10.598168 -7.8696094 7.114022 6.938489
000250 60 56 2f c1 2a 23 ea 40 bb f6 e7 40 d2 40 00 c1
       -10.958588 7.3167925 7.2488685 -8.015825
000260 13 18 e2 40 13 a8 d3 c0 19 9f e8 40 4a 3a f0 c0
       7.0654387 -6.614267 7.269421 -7.5071154
000270 a7 10 1b 41 f9 ec db 40 bd 1f e2 40 44 a2 bd c0
       9.6915655 6.8726773 7.0663743 -5.926058
000280 45 80 17 41 e1 1e 0c c1 45 e7 f3 40 1b a4 0b c1
       9.468816 -8.757539 7.621981 -8.727565
000290 77 f0 3c c1 94 0c fe c0 b3 d7 ee 40 d9 8d 04 41
       -11.808707 -7.9390354 7.4638305 8.284631
0002a0 a0 52 1b c1 9a 88 db 40 6e 5f f1 40 d4 2f f7 c0
       -9.707672 6.860425 7.542899 -7.7245884
0002b0 1e 03 da 40 95 6d de c0 0a bf dc 40 bc 39 f4 c0
       6.8128805 -6.9508767 6.89832 -7.6320477
0002c0 36 c0 1d 41 51 75 e5 40 95 5e e9 40 bf 90 ca c0
       9.8594265 7.170571 7.2927957 -6.330169
0002d0 f4 ad 0c 41 f5 19 fc c0 d7 56 dc 40 53 8a 0b c1
       8.792469 -7.8781686 6.8856006 -8.721271
0002e0 b9 76 5e c1 12 cb e1 c0 1a fe 02 41 55 79 25 41
       -13.903985 -7.056039 8.1870365 10.342122
0002f0 ad e9 f3 c0 d5 43 c2 40 d2 08 fc 40 ae fd f7 c0
       -7.622275 6.0707803 7.8760767 -7.7497168
000300 4e f9 ef 40 83 56 e4 c0 bd ca c9 40 57 fc e9 c0
       7.4991827 -7.1355605 6.3059983 -7.312053
000310 34 97 29 41 5c 0b ff 40 bd 1b 01 41 95 81 c0 c0
       10.599415 7.9701366 8.069272 -6.015818
000320 45 48 4d 41 fa e5 e2 c0 58 1a 20 41 77 ec 0f c1
       12.830144 -7.0905733 10.006432 -8.995231
000330 8a a2 07 c1 0a a9 01 c1 ba 1c 00 41 6d 9f 5c 40
       -8.477182 -8.103769 8.007013 3.4472306
000340 53 eb 65 c1 4c a7 31 41 d4 81 cf 40 a6 21 e5 c0
       -14.369952 11.103344 6.484598 -7.1603575
000350 42 a8 ff 40 ca f8 07 c1 fa a8 fb 40 13 0b d2 c0
       7.9892893 -8.4982395 7.864377 -6.563852
000360 0f 9e be 40 26 25 f3 40 6d 05 30 40 dd 37 60 c0
       5.9567943 7.5982847 2.7503312 -3.5034096
000370 ad c6 43 41 05 cb d9 c0 a5 c3 1a 41 c3 38 15 c1
       12.236005 -6.8060327 9.672765 -9.326358
000380 9a 7d 26 c1 fb 46 fb c0 9d 57 05 41 5e 51 c8 40
       -10.405664 -7.8524146 8.33389 6.2599325
000390 9c 87 3c c1 a6 a8 25 41 51 0c e1 40 03 d2 db c0
       -11.783108 10.353674 7.0327535 -6.869386
0003a0 5d 78 e4 40 e3 f0 09 c1 d4 a9 e8 40 f0 7b cd c0
       7.139693 -8.62131 7.270731 -6.421379
0003b0 a6 4c d8 40 eb 63 fe 40 3a 31 57 40 a4 93 73 c0
       6.7593565 7.949697 3.3623796 -3.8058863
0003c0 d1 ec 3f 41 2e 40 ce c0 e7 b4 20 41 a1 0b 17 c1
       11.9953165 -6.4453344 10.044166 -9.440339
0003d0 29 c3 34 c1 cd fe fb c0 7d 19 04 41 8d a8 f2 40
       -11.2976465 -7.8748536 8.256223 7.583075
0003e0 fd 82 27 c1 f5 f7 18 41 90 6f de 40 43 44 e3 c0
       -10.46948 9.560536 6.9511185 -7.1020827
0003f0 d2 d0 f2 40 a0 e8 07 c1 44 39 e1 40 e1 0b cc c0
       7.5879908 -8.494293 7.0382404 -6.37645

conv/b f4 [3]
000000 df 76 ab be 00 00 00 00 dd be 0d bd
       -0.3348913 0.0 -0.03460585
