sample-agents/circuit-rp/target_model.npz (npz, 32822 bytes, 8 tensors)

l1/W f4 [20, 50]
000000 04 f3 93 3e a5 9d 7d be 81 b1 10 be 97 f7 08 bf
       0.28896344 -0.24767168 -0.14130212 -0.5350279
000010 08 c2 a8 3e bf 45 c3 be ed 3e b8 be 38 cb bb 3f
       0.32960534 -0.3813915 -0.3598551 1.4671392
000020 a2 bf 55 bf eb 02 46 be cd b7 bb be f6 04 cf be
       -0.83495533 -0.1933705 -0.36663666 -0.40433472
000030 3a 5b 3b be ed 39 d0 bf 1c af a7 3d 18 f1 84 be
       -0.18296519 -1.6267678 0.08187696 -0.2596519
000040 4c a1 a0 3c b8 48 90 3f 4e 10 18 3d f2 f8 cc 3e
       0.019608162 1.1272192 0.037124924 0.4003368
000050 ba 9a 2f 3f 67 6a 73 3e 23 23 17 bd d7 bb e8 be
       0.6859547 0.23771058 -0.036898743 -0.4545581
000060 17 ec 0f 3f 75 b0 33 be 31 dd 61 be 15 93 7f 3f
       0.5621962 -0.17547782 -0.22057034 0.99833804
000070 fc d5 81 3d f0 79 d4 be 9c 8d ae be e3 99 19 3e
       0.063396424 -0.4149928 -0.34092414 0.1500011
000080 8a 70 e6 3b 79 f9 db bc e9 92 98 3f de 32 56 bf
       0.0070324587 -0.026852356 1.1919833 -0.8367137
000090 47 04 6b 3e ac be 08 be e9 60 6d 3e 39 c6 a4 bd
       0.2295085 -0.13353986 0.231815 -0.080456205
0000a0 41 88 61 be 2b f5 de be 9a b9 31 be 6c 01 33 3f
       -0.22024633 -0.43546423 -0.17355958 0.69924045
0000b0 41 54 e9 bd bb 7f 48 3e 93 69 3e bf 48 8d 4d 3e
       -0.11393023 0.19579975 -0.74379843 0.20073426
0000c0 df 0f c0 be 4c 7a 8d 3f 4d 1c c6 be ff 00 7f bf
       -0.3751211 1.1052947 -0.38693467 -0.99610895
0000d0 f0 d4 71 bf 15 08 13 3f e9 48 00 40 5b f1 56 3e
       -0.9446554 0.5743421 2.00445 0.20990507
0000e0 2e 6d 15 bf d1 3a 76 3d b0 54 d4 bd 42 1e 62 bf
       -0.5836972 0.060114685 -0.10367715 -0.8832742
0000f0 cd a9 44 3f 9d 98 bf 3e 69 68 19 3e c0 be bd 3e
       0.76821595 0.37421122 0.14981236 0.37059593
000100 91 3c 0e bf 60 04 21 bf 9a df 71 bf f9 fa fa be
       -0.55561167 -0.628973 -0.94481814 -0.49019602
000110 8d 4e 1c 3e 75 b9 9d 3e df da c0 bd e9 49 83 bd
       0.1526434 0.30805555 -0.09416746 -0.064105816
000120 f3 99 94 bf a1 8f aa be 31 44 12 3f 4e b4 b5 3f
       -1.1609482 -0.33312705 0.571353 1.419565
000130 1d 75 41 bf 27 7c b9 3d 9c 0d d2 be 9f d3 85 be
       -0.75569326 0.09056883 -0.41026008 -0.26138017
000140 ca 29 82 be 30 4f 7a bf 4b d8 eb be fe 80 11 bf
       -0.25422508 -0.9777708 -0.46063456 -0.5683745
000150 6c 95 a8 bf c0 cc 98 3f 3e 4e a6 bf d0 09 e4 bf
       -1.31706 1.1937485 -1.2992628 -1.7815495
000160 3a 5b b7 be 97 65 0f 3f 45 2b 6c 3f 63 76 b6 bf
       -0.35811788 0.5601439 0.92253524 -1.4254879
000170 0e 30 6c 3d 49 cc 00 3f ce 10 13 3e e4 5e 3d 3f
       0.057663016 0.50311714 0.14361879 0.73972917
000180 a4 71 f5 be a7 ef 23 3f b5 91 08 bf 6b 73 24 3f
       -0.47938263 0.64037555 -0.5334733 0.64238614
000190 e1 13 69 be b1 e3 9b bd e3 77 29 bd 0d 53 78 3e
       -0.2276149 -0.07611788 -0.0413741 0.24250431
0001a0 24 b0 b9 3e d0 c7 46 3e 70 94 48 bd 38 8f 9e 3e
       0.36267197 0.1941216 -0.048969686 0.30968642
0001b0 d5 34 d4 3e 56 d1 75 3e 89 c3 21 bd 68 5d 9a 3e
       0.41446558 0.24005637 -0.039493117 0.30149388
0001c0 bb af 61 bd 02 90 e2 3e 6c 64 c3 be 9d 32 19 3e
       -0.05509923 0.44250494 -0.38162553 0.14960714
0001d0 16 27 9c be f3 e7 10 be 58 e7 9c 3e 70 df 80 be
       -0.3049857 -0.14150982 0.3064525 -0.2517047
0001e0 18 ec 2b 3d 70 bc df bd 13 dd 4f 3e 10 75 b7 3d
       0.041973203 -0.109246135 0.20299177 0.08957875
0001f0 17 ff fb bc e9 b9 21 3f e1 e7 41 be 95 bf 9a 3e
       -0.030761285 0.631743 -0.18936111 0.3022429
000200 9d c3 20 3e e7 fd 8a bc e3 99 52 bf d6 f9 d6 bc
       0.1569962 -0.016966773 -0.8226606 -0.026242178
000210 a4 ff 75 be 03 e8 1f 3e f5 07 a1 3f 21 87 ad 3f
       -0.240233 0.15615849 1.2580553 1.3556863
000220 59 ab e9 3d 01 a0 4a 3e 39 99 09 3f f4 3e 2f bd
       0.11409635 0.19787599 0.53749424 -0.042784646
000230 96 1a 78 bf 2d e9 8a be ec 02 f9 bc b5 46 49 3e
       -0.96915567 -0.27131024 -0.030396901 0.19655879
000240 b2 d8 07 be 40 f0 f6 bc 32 a4 a6 3c 55 2e 70 3e
       -0.13266256 -0.030143857 0.020341966 0.23455174
000250 4c d1 92 3e 6e bc b4 3e a9 4f 6e 3c 64 bf 06 bf
       0.28675306 0.3530001 0.01454536 -0.5263579
000260 73 aa 90 bf 19 98 05 3f 04 04 bc bf a2 8a 70 be
       -1.1302017 0.5218521 -1.4688725 -0.23490384
000270 9c 6a 0a bf 95 77 2e 3d a6 49 3f bd d6 28 14 3f
       -0.54068923 0.04259451 -0.046701096 0.5787481
000280 86 c9 49 3f 33 4c d3 3e bb a4 6f 3d 6a 68 30 3f
       0.78823125 0.41269073 0.05850671 0.68909323
000290 3d 8a e8 bc 94 b9 af be 13 11 14 3f 0d de 7d 3f
       -0.02838623 -0.34321272 0.57838553 0.9916695
0002a0 58 64 33 3e ff 6e a9 3f 52 0e e3 3f 36 54 69 3f
       0.17518747 1.3236998 1.7738745 0.9114412
0002b0 7a 32 3d 3f ab e1 22 3d 65 37 ba 3e ef 85 51 3d
       0.73905146 0.039765995 0.36370388 0.05115312
0002c0 a2 56 f9 bc 39 30 1a bf e8 62 dd 3e c6 80 ae 3e
       -0.030436818 -0.6022983 0.43239522 0.3408262
0002d0 7d 34 34 bf 7c 22 f3 be 35 9b 56 3f 8c 5d 05 bf
       -0.7039259 -0.47487247 0.8383058 -0.52095866
0002e0 30 1a 3a be f9 f7 27 3d 2c 48 34 bf fd 4f d5 3d
       -0.18174052 0.04100797 -0.70422626 0.10415647
0002f0 0f 73 ed 3e 41 69 fd bf 12 e8 2d 3f 83 5c ea be
       0.46376845 -1.9797746 0.67932236 -0.45773706
000300 55 f3 5b bf 20 c2 2b 3f 3a be 23 3e 25 0b 8d 3f
       -0.8591817 0.67093086 0.15990534 1.1019026
000310 bd 63 11 bf 11 42 86 be 8b e4 34 bd ed 67 e4 be
       -0.56792814 -0.2622228 -0.044163268 -0.4461054
000320 b7 ad 45 bf 14 ca d5 3d db 9f e1 be e5 69 63 3c
       -0.7721819 0.10438934 -0.44067273 0.013880228
000330 8b 38 97 be 02 85 a6 be 56 22 a0 bd 1d aa 81 be
       -0.29535326 -0.32523352 -0.07819049 -0.253251
000340 fd 79 ae 3f ed d5 3b be 28 05 c9 3e ff 78 95 3d
       1.3630978 -0.18343325 0.39261746 0.07298469
000350 22 5a aa 3f 50 0c a6 3f 6d 76 32 3f b1 f8 de 3d
       1.3308756 1.2972507 0.69711953 0.10887278
000360 4a 24 df 3d 1f 60 79 bf 54 10 55 3e 7d e4 48 be
       0.108955935 -0.97412294 0.2080701 -0.19618411
000370 53 c5 b6 bf 15 ec 71 be 03 0e b3 3e 99 56 eb 3c
       -1.4278969 -0.23625214 0.34971628 0.028727816
000380 c6 8e ce 3e cc 83 50 bd 9f 79 35 3d 5a d8 4a bf
       0.40343302 -0.05090694 0.04430544 -0.79236376
000390 38 46 a4 be d5 e5 05 bf c9 05 11 bf 17 9b 26 be
       -0.32084823 -0.5230382 -0.5664945 -0.162701
0003a0 be f3 f2 3d dc 5a 2a bf b0 ca 95 be 59 21 83 bf
       0.118628964 -0.6654489 -0.292562 -1.0244552
0003b0 64 7b 97 be a8 da 9d be 90 3b 18 3e 83 ee c6 3e
       -0.29586327 -0.30830884 0.14866471 0.38853845
0003c0 cd a9 34 3d 1b 19 dd be a6 85 81 3e 43 90 65 be
       0.044107247 -0.43183216 0.25297278 -0.22418313
0003d0 3c e1 24 bd 34 79 e2 be f5 95 9d 3f ba 19 5c bf
       -0.040253863 -0.44233096 1.2311388 -0.85976756
0003e0 1f 91 2d 3d 6d 89 62 bf 08 7f 4e bf 29 b9 25 bf
       0.042374726 -0.88490945 -0.80662584 -0.64735657
0003f0 67 1a 01 3f 56 67 26 3e ee 18 bf 3e f6 47 b3 be
       0.5043091 0.16250357 0.37323707 -0.3501584

l0/W f4 [50, 139]
000000 2f 71 1b 3e 31 25 e2 3d ed cc 71 3f eb 42 7c 3f
       0.15179895 0.1104225 0.94453317 0.9853961
000010 b3 90 60 3f ad 09 62 3f a6 ad 5e 3e 1f 52 d6 3e
       0.87720793 0.88296014 0.21745929 0.41859528
000020 de cf af 3e f2 92 d4 bd bb 67 3d bc a0 da a4 be
       0.34338278 -0.1037959 -0.011560376 -0.32198048
000030 8f 63 97 be f0 4b 0e be 9f c4 9e be 79 17 95 bf
       -0.29568145 -0.13896155 -0.31009385 -1.1647788
000040 f6 9f bb bf b3 d2 bc bf b2 b8 67 bf 48 e4 ef be
       -1.4658191 -1.47518 -0.905162 -0.46853852
000050 18 69 cc be 61 8d 37 bd 18 e5 03 3e a7 fb f1 3e
       -0.3992393 -0.044812564 0.12880361 0.47262308
000060 80 63 75 3e 14 61 e1 bd ec 32 e9 bd e1 b4 7e 3e
       0.23963737 -0.11004844 -0.11386666 0.24873687
000070 b7 1e 50 3f 9c 0f 6d 3f 15 06 80 3f d1 09 28 3f
       0.8129687 0.92601943 1.0001856 0.6563998
000080 0e ca 18 3f 60 a4 48 3f e9 e6 0c 3f 74 d1 79 3e
       0.5968331 0.78375816 0.5503984 0.24396306
000090 f9 b9 38 3e ad 5f d5 3e ed c5 a3 3e 05 a6 4d 3e
       0.18039693 0.41674557 0.31986943 0.20082863
0000a0 20 91 a0 3d a2 3b 52 bd 73 ef e4 3d 68 1c 93 3d
       0.078401804 -0.0513264 0.11178484 0.071831524
0000b0 83 ec 25 3e 39 f7 95 3d 0a 18 c1 bc 00 cc d1 3d
       0.16203503 0.073225446 -0.023571033 0.10243988
0000c0 91 11 f6 bc 18 82 0b be 68 7f ea 3d a1 16 5a be
       -0.030037673 -0.13623846 0.11450082 -0.21297695
0000d0 55 8c 1b 3e f3 b6 ba bc 2b a5 a4 bd 2f 35 f7 3c
       0.15190251 -0.022792315 -0.08039316 0.030176727
0000e0 34 7e 7b 3d 56 6f 98 bd 99 91 7f 3d 15 f4 6b be
       0.061399654 -0.07443111 0.062394712 -0.23042329
0000f0 04 6c ab bd a9 09 a4 3d ce b1 ed 3d 3c d0 b6 3d
       -0.08370212 0.08009655 0.11606179 0.08926436
000100 f5 0d 42 bc dd a5 a3 3d e6 76 9a bd 7a aa b2 bd
       -0.011844148 0.0799062 -0.07542209 -0.08723922
000110 c9 4c 96 3d 14 39 f1 3c 30 e6 d5 3c 8b e2 76 3d
       0.07338864 0.029446162 0.026110739 0.060274642
000120 87 e4 ca bc 9d 5b c2 3c cc 7a 57 3e 79 90 d2 3d
       -0.024767173 0.023725325 0.21042937 0.10281462
000130 1f 98 90 bc e9 2c 40 bd 6a 02 2c bc 6c 55 4c 3d
       -0.017650662 -0.04691783 -0.010498622 0.049886152
000140 f5 69 11 3d 24 f0 80 bd 93 71 4a 3e 72 59 2b 3e
       0.03550144 -0.06295803 0.19769888 0.1673334
000150 26 3d 9e 3d 67 d7 44 bd d0 ba 16 3d 83 68 2e bd
       0.07726507 -0.048056986 0.036799252 -0.04258014
000160 0a 18 89 ba a7 f6 df 3c b5 66 50 bf a9 18 0f bf
       -0.0010459435 0.027339293 -0.8140672 -0.55897003
000170 3f 4b 3f be 77 35 2f 3d 33 a8 0d 3e 6b 08 1f bd
       -0.18681048 0.042775597 0.13833694 -0.038826387
000180 06 65 22 be 87 37 2d be 74 5b 90 be 24 4f 41 3c
       -0.1585885 -0.16915713 -0.28194773 0.011798654
000190 9c cd c5 3e 8d ab 28 3f a7 42 b3 3e 29 e1 9f bd
       0.3863343 0.65886766 0.3501179 -0.07806618
0001a0 8d 40 6c 3c 53 f2 ff bd 8c 89 33 be 7d 25 a8 3e
       0.014419687 -0.124973916 -0.17532939 0.328411
0001b0 d9 a2 16 3e 1a 76 8c bd 61 52 a5 3e d8 55 12 3d
       0.14710559 -0.068584636 0.32289413 0.0357264
0001c0 97 88 42 bd b5 13 a3 3e d3 90 7a be d1 5a 64 bf
       -0.047493543 0.31850973 -0.24469309 -0.89201075
0001d0 64 21 18 bf c7 c4 10 bf 28 1f d8 be ff 8e 7d bd
       -0.5942595 -0.5655026 -0.4221127 -0.06190395
0001e0 00 a1 84 3d ec d0 82 3d 7d 07 ba 3d 8b 98 01 bd
       0.06476021 0.06387505 0.090834595 -0.031639617
0001f0 90 28 a3 3e 68 6e 01 3f aa 2c f9 3e f9 e2 2a 3f
       0.31866884 0.5055909 0.48666888 0.6675258
000200 e8 fd e4 3e 3f 14 ad 3e ca eb 3f 3f 32 84 e8 3e
       0.44724965 0.3380451 0.7496916 0.45413357
000210 b4 79 40 3d 57 3f 4f be b8 d8 d0 be a2 f5 30 3f
       0.046991065 -0.20239006 -0.40790343 0.69124806
000220 73 36 71 40 8d 94 aa be f7 ed cd be 68 73 e9 3e
       3.7689483 -0.3331646 -0.40220615 0.4559586
000230 12 67 39 3f 58 09 06 3f b9 48 7e 3e 29 01 16 3f
       0.724229 0.5235801 0.24832429 0.5859552
000240 e4 4f 37 3e 52 8e a5 3e d6 f6 38 3f 60 ea 3d 3f
       0.1790157 0.32335144 0.7225164 0.7418575
000250 fe f2 50 3f d0 ef c1 3e 6a 8b 38 be 41 6f 87 be
       0.81620777 0.37878275 -0.18021932 -0.26452067
000260 9a b1 33 bd 18 cd bb bd 2c 73 30 bd 21 01 bb 3e
       -0.043870546 -0.09169978 -0.043078586 0.365243
000270 57 43 90 3e 36 86 0a 3e bd db 62 3e aa e2 76 3e
       0.28176376 0.1352776 0.22154136 0.24109903
000280 68 2c d3 bd 39 d3 1d bd bb 3a a6 be 07 f3 0a be
       -0.10311204 -0.038531516 -0.32466683 -0.1356927
000290 ff 9f 72 be b3 74 9f be e7 37 c6 be 07 8b a1 be
       -0.23693846 -0.31143722 -0.38714525 -0.31551382
0002a0 78 e8 0f bd 90 33 64 bd d7 ab c0 be 61 32 21 bf
       -0.03513381 -0.055713236 -0.37631103 -0.629675
0002b0 a3 25 47 bf 41 e8 5d bf 1a 11 e3 be ae f9 cd be
       -0.77791804 -0.86682516 -0.44348985 -0.40229553
0002c0 58 81 d2 be fc b4 30 be 01 98 d6 be 81 e3 22 bf
       -0.41114306 -0.1725654 -0.41912845 -0.63628393
0002d0 1f 36 8a be 40 42 c1 3c f1 ec 67 3d e0 03 81 3d
       -0.26994416 0.02359116 0.05662245 0.06299567
0002e0 b8 a7 99 bd a2 8c 57 bd 10 e6 43 3d e3 8e 4d be
       -0.07502693 -0.052624352 0.047826827 -0.20074038
0002f0 78 90 13 be 6f b5 f1 3d 17 76 fa 3c a2 03 ca bc
       -0.14410579 0.11802184 0.030573888 -0.024659935
000300 06 6e c9 3d fa 3b 97 bc 58 a3 8f 3c 2a bf cb 3d
       0.098354384 -0.018461216 0.017533943 0.09948571
000310 89 15 55 3c b0 08 04 3e 64 28 b5 3b 81 75 d1 3d
       0.013005623 0.12893939 0.0055284966 0.1022749
000320 9a 9b b8 3a df ad 80 bd f2 7a 30 bc 48 e3 b5 3d
       0.0014084459 -0.06283163 -0.0107715 0.08881241
000330 81 b4 f2 3c 9c 1a 82 bd f0 4d f1 3c 0a 58 09 bd
       0.029627087 -0.063527316 0.029456109 -0.033531226
000340 de ac 3c be 76 f6 94 3d 6e 80 ea bd 55 f4 df bd
       -0.18425319 0.07273571 -0.11450277 -0.109352745
000350 38 d8 00 bc 73 fb 5d be 32 73 19 bd 69 d3 9c b9
       -0.007864051 -0.21677952 -0.037463374 -0.00029912152
000360 8b 3f 17 3e f2 32 03 3d 13 43 9a 3d 44 86 46 bd
       0.14770333 0.032031007 0.07532325 -0.04846789
000370 78 ab f9 3c 5d ac b4 3c 36 4f 29 be 44 40 b5 3d
       0.03047727 0.022054845 -0.16534123 0.08850148
000380 ed 38 a1 3d 6d b1 75 bd e2 da a2 bc 33 61 7a bd
       0.07872186 -0.05998366 -0.019879762 -0.061127853
000390 55 0d 2b be fc 10 cb be 46 80 1a be 3e 0d d1 bd
       -0.16704305 -0.39661396 -0.15087995 -0.10207604
0003a0 02 19 14 be 43 07 a1 be d7 b1 57 be 75 64 0a 3e
       -0.14462665 -0.31450853 -0.21063934 0.13514884
0003b0 db 9e 2e 3e 0e 26 e9 3e 62 93 ec 3e b1 da c2 3e
       0.17052786 0.45536846 0.46206194 0.38057473
0003c0 95 85 26 3e f8 19 48 3e e2 97 8e 3e d0 a8 ac bd
       0.16261895 0.19541156 0.27850252 -0.08430636
0003d0 5a 6a c5 be ab 0e f4 be 2a 9e 4b be 33 d5 ba bd
       -0.38557702 -0.4766744 -0.19884554 -0.09122696
0003e0 80 87 67 be 86 85 b6 be d6 97 81 be e7 d1 d6 be
       -0.22610283 -0.35648745 -0.25311154 -0.41957018
0003f0 25 3d 00 bf b5 6e 10 bf 21 6c 3e be 55 5f b3 3c
       -0.500933 -0.56418926 -0.18595935 0.021896044

conv/W f4 [3, 1, 1, 6]
000000 85 2c 36 3e 8f 5c 86 ba ce f5 ac 3b 0e a4 ac 3e
       0.1779042 -0.0010250973 0.0052783256 0.33718914
000010 cb 7b 1f 3b d8 25 11 3e d3 63 85 be 88 cc bc bd
       0.002433526 0.14174592 -0.26052722 -0.09218699
000020 d3 8a ad bc 95 46 4d be 60 bb 6a bf 41 e8 a6 be
       -0.02118436 -0.20046456 -0.9169216 -0.3259907
000030 e0 70 1d bd 4f 30 00 be d0 cf 89 be d4 47 65 c0
       -0.038437724 -0.12518428 -0.2691636 -3.582509
000040 e5 2d 1d 3f 9c bf 9c c0
       0.61398154 -4.89839

l0/b f4 [50]
000000 48 90 81 3e fe 52 a2 3f 85 f9 f4 bf c4 59 9b bf
       0.2530539 1.2681577 -1.9138647 -1.2136769
000010 0f 52 35 40 de b9 05 3f e5 82 60 bd 66 6f 5f 3f
       2.8331335 0.52236736 -0.05481233 0.87279356
000020 86 8b 48 40 12 51 4b 3f a5 dd bf 3f d0 f3 d2 bf
       3.1335158 0.7942058 1.4989516 -1.6480656
000030 9d e9 0b 3f d2 0a 1a 40 39 fb 82 be 0d 20 33 3f
       0.5465334 2.4069104 -0.25582293 0.6997078
000040 21 fb af 3f 4c 88 14 c0 ef 3f 83 3f f9 94 b0 3e
       1.3748513 -2.320819 1.0253886 0.34488657
000050 b5 89 86 40 de f3 97 3f 95 64 82 bf fd 2a 6b bf
       4.20431 1.1871297 -1.0186945 -0.9186247
000060 65 a0 af 3f fe ae ca bf 2b 32 f3 3e 97 7c 10 c0
       1.3720824 -1.5834653 0.47499213 -2.2576044
000070 58 c2 55 be 94 55 bc 3d 28 d9 99 bf 21 eb da be
       -0.20874918 0.0919601 -1.2019396 -0.42757514
000080 c0 3b bd 3f 5e cf 6d 3f 14 ff 27 40 be ca c2 3f
       1.4783859 0.9289454 2.6249437 1.5218122
000090 0e 4f c9 3f 43 66 0a bf f0 d4 51 3f c0 65 09 40
       1.572725 -0.5406229 0.8196554 2.1468353
0000a0 2a 1b 0b 3e 13 43 bf 3f 47 91 11 c0 84 ac 8a bf
       0.13584581 1.4942344 -2.274492 -1.0833898
0000b0 68 25 86 3f dc e2 46 bf ed 03 d9 3f 2c 0e 73 bf
       1.0480165 -0.7768991 1.6954323 -0.949435
0000c0 2c 4f c0 bf ec f4 23 c0
       -1.5024161 -2.5618238

l2/b f4 [15]
000000 24 06 ff 40 55 fe f0 40 40 da e7 40 d7 f7 ef 40
       7.9694996 7.5310464 7.245392 7.499004
000010 16 0f f8 40 ae a7 eb 40 98 8a e7 40 25 89 e8 40
       7.7518415 7.3642187 7.235668 7.2667413
000020 98 7f db 40 61 48 e8 40 d0 d4 f6 40 8b e2 f2 40
       6.8593254 7.2588353 7.713478 7.590154
000030 87 a0 e8 40 df 21 ee 40 0e a8 e9 40
       7.2695956 7.4416347 7.3017645

l1/b f4 [20]
000000 e9 34 29 3f 9e 83 19 bf 3d 67 d7 be ce 27 87 3d
       0.6609636 -0.59966457 -0.42070952 0.06599389
000010 e7 2f af bd c4 0f 3e bf 03 e5 2a 3f 17 f8 07 3f
       -0.085540585 -0.74242806 0.66755694 0.5311293
000020 06 7b 55 3f 1e 12 f6 3e c9 63 27 3f 55 2b 9b be
       0.83390844 0.48060697 0.65386635 -0.30306497
000030 d1 47 1b 3f 0a 2a 04 bf 4d 63 ab 3e 88 d1 15 bf
       0.6065646 -0.51626647 0.33474198 -0.58522844
000040 e9 1c af bf c6 e2 6c be 9d 3f be bf 79 ee 5a bf
       -1.3680698 -0.23133382 -1.4863163 -0.8552013

l2/W f4 [15, 20]
000000 37 34 00 41 3e a2 08 c1 c4 c5 ae 3e bc b5 e8 c0
       8.012748 -8.53961 0.34135258 -7.2721844
000010 3a cc e5 c0 d3 89 02 c1 c3 d3 f7 40 7e 1d 3e 40
       -7.18118 -8.1586485 7.7446 2.97055
000020 57 5f 68 c1 8c 90 e2 40 85 78 dc 40 7a 63 0c c1
       -14.523276 7.080145 6.889712 -8.774286
000030 6d 03 0d 41 3b de d6 c0 8d 14 fe 40 a2 72 08 c1
       8.813336 -6.7146277 7.9400086 -8.527987
000040 dc 2b 35 41 62 c2 e4 40 8f 99 1c 41 2f 1a ef c0
       11.323208 7.1487284 9.78749 -7.4719462
000050 21 4d ee 40 51 ce 07 c1 80 25 f2 be df b6 f5 c0
       7.446915 -8.48787 -0.47294235 -7.678573
000060 84 91 14 c1 69 27 ee c0 36 c6 f6 40 32 99 b6 40
       -9.285526 -7.442311 7.7116957 5.7062006
000070 6a fc 41 c1 bf a6 c2 40 44 fa f2 40 f5 44 0f c1
       -12.124125 6.0828547 7.59305 -8.954335
000080 38 66 fc 40 ea 04 e3 c0 7e 37 ea 40 4e c6 0d c1
       7.887478 -7.09435 7.319274 -8.860914
000090 52 47 3b 41 32 5a f7 40 b5 f1 22 41 f3 2a 05 c1
       11.704912 7.72976 10.1840105 -8.322986
0000a0 50 ae e3 40 4a 0a 06 c1 2c 36 50 bf 53 a6 f8 c0
       7.1150284 -8.377512 -0.8133266 -7.7703032
0000b0 b3 83 24 c1 4f 25 f5 c0 19 35 ec 40 76 e5 dc 40
       -10.282153 -7.6608043 7.3814816 6.9030104
0000c0 9a 6d 2f c1 fb 3d b9 40 88 ba f1 40 34 bc 05 c1
       -10.964258 5.788816 7.55402 -8.358448
0000d0 21 18 02 41 68 f5 ea c0 cd 9a e1 40 c4 48 0f c1
       8.130891 -7.342457 7.0501466 -8.955265
0000e0 a9 07 40 41 cf 6a 01 41 16 4d 27 41 de ac 0b c1
       12.00187 8.088576 10.45632 -8.729704
0000f0 47 4e da 40 61 39 fc c0 c1 4e a8 bf d0 17 f9 c0
       6.8220553 -7.8820043 -1.3149034 -7.784157
000100 d2 af 32 c1 db 0b e8 c0 58 a9 e5 40 4d 05 01 41
       -11.167925 -7.251447 7.176922 8.063794
000110 e9 b9 1d c1 50 27 ad 40 14 50 f5 40 2d f3 06 c1
       -9.857888 5.411049 7.666025 -8.434369
000120 65 0f 08 41 81 af e9 c0 78 e9 d7 40 54 f6 0f c1
       8.503758 -7.302674 6.7472496 -8.997639
000130 f6 a2 44 41 35 2e 07 41 e0 26 2c 41 66 a7 10 c1
       12.289785 8.448781 10.759491 -9.040869
000140 c4 43 bf 40 c4 a9 e6 c0 ff 2c d3 bf 6a 2f f7 c0
       5.977022 -7.2082233 -1.6498107 -7.724538
000150 35 ed 5a c1 2f 00 e8 c0 5d bc 00 41 f6 dd 21 41
       -13.682912 -7.2500224 8.045987 10.11669
000160 7c 23 fc c0 28 0f a7 40 6e 1e 02 41 90 d6 fd c0
       -7.8793316 5.2206 8.132429 -7.9324417
000170 74 b6 ed 40 17 ac e3 c0 dd af c3 40 fc 33 0e c1
       7.428522 -7.114757 6.1152177 -8.8876915
000180 cb 81 4c 41 d6 4c 17 41 ef 76 36 41 84 66 14 c1
       12.781688 9.456259 11.4040365 -9.275028
000190 26 4d 27 41 5f 6e 1a c1 37 32 11 41 b2 da 02 c1
       10.456335 -9.651946 9.0747595 -8.178392
0001a0 54 75 05 c1 09 54 03 c1 b8 2c df 40 15 79 38 40
       -8.341145 -8.208016 6.974209 2.8823903
0001b0 c5 11 6d c1 95 f5 10 41 f0 22 e3 40 1c f4 09 c1
       -14.816838 9.059957 7.098015 -8.622097
0001c0 76 6d fd 40 19 fd d7 c0 b1 eb 00 41 2b c9 e7 c0
       7.919612 -6.7496457 8.057542 -7.2433066
0001d0 db 3b 0a 41 55 e2 b8 40 14 7a c5 40 7d c2 95 c0
       8.639613 5.7776284 6.171152 -4.6799912
0001e0 61 c3 1d 41 14 55 12 c1 53 e5 0c 41 8d af 08 c1
       9.8602 -9.145771 8.805987 -8.542859
0001f0 cd cb 1b c1 47 32 f8 c0 69 87 d4 40 3a 3a bb 40
       -9.737256 -7.7561374 6.6415296 5.8508577
000200 34 1b 44 c1 35 03 fe 40 ff da ea 40 5a dd 01 c1
       -12.256641 7.9378915 7.339233 -8.116541
000210 b0 b4 00 41 04 10 d0 c0 6e c6 ef 40 03 44 e8 c0
       8.044113 -6.501955 7.4929724 -7.258302
000220 1b d3 15 41 24 63 c7 40 60 e3 d7 40 7e 31 af c0
       9.364039 6.230852 6.7465057 -5.4747915
000230 7d 5c 1b 41 29 8b 10 c1 3f 5b 03 41 ef b4 0a c1
       9.71008 -9.033975 8.209777 -8.669173
000240 fb 91 29 c1 04 d4 fb c0 4c a6 e3 40 44 08 de 40
       -10.59814 -7.869631 7.11405 6.938509
000250 47 56 2f c1 59 23 ea 40 e8 f6 e7 40 e8 40 00 c1
       -10.958564 7.316815 7.24889 -8.015846
000260 40 18 e2 40 40 a8 d3 c0 53 9f e8 40 54 3a f0 c0
       7.06546 -6.6142883 7.2694488 -7.50712
000270 8b 10 1b 41 2a ed db 40 00 20 e2 40 74 a2 bd c0
       9.691539 6.8727007 7.0664062 -5.9260807
000280 8b 80 17 41 9d 1e 0c c1 c4 e6 f3 40 d7 a3 0b c1
       9.468883 -8.757474 7.6219196 -8.7275
000290 bd f0 3c c1 0b 0c fe c0 28 d7 ee 40 b0 8d 04 41
       -11.808774 -7.93897 7.463764 8.284592
0002a0 0d 53 1b c1 10 88 db 40 e5 5e f1 40 4b 2f f7 c0
       -9.707776 6.860359 7.542834 -7.724523
0002b0 95 02 da 40 0c 6d de c0 af be dc 40 94 39 f4 c0
       6.812815 -6.9508114 6.898277 -7.6320286
0002c0 85 c0 1d 41 c2 74 e5 40 41 5e e9 40 35 90 ca c0
       9.859502 7.1705027 7.2927556 -6.3301034
0002d0 fa ad 0c 41 f5 19 fc c0 d2 56 dc 40 79 8a 0b c1
       8.792475 -7.8781686 6.885598 -8.721307
0002e0 c1 76 5e c1 12 cb e1 c0 1a fe 02 41 5a 79 25 41
       -13.903993 -7.056039 8.1870365 10.342127
0002f0 ba e9 f3 c0 d0 43 c2 40 d1 08 fc 40 ad fd f7 c0
       -7.622281 6.070778 7.876076 -7.7497163
000300 4e f9 ef 40 83 56 e4 c0 f6 ca c9 40 7b fc e9 c0
       7.4991827 -7.1355605 6.3060255 -7.3120704
000310 6d 97 29 41 57 0b ff 40 61 1b 01 41 29 81 c0 c0
       10.599469 7.9701343 8.069184 -6.0157666
000320 7c 48 4d 41 64 e5 e2 c0 10 1a 20 41 60 ec 0f c1
       12.830196 -7.090502 10.006363 -8.995209
000330 e7 a2 07 c1 bf a8 01 c1 6f 1c 00 41 9d 9e 5c 40
       -8.477271 -8.103698 8.006942 3.447181
000340 8e eb 65 c1 01 a7 31 41 42 81 cf 40 10 21 e5 c0
       -14.370008 11.103272 6.4845285 -7.160286
000350 ac a7 ff 40 7f f8 07 c1 98 a8 fb 40 fa 0a d2 c0
       7.9892178 -8.498168 7.8643303 -6.56384
000360 91 9e be 40 94 24 f3 40 d7 04 30 40 9f 36 60 c0
       5.9568563 7.598215 2.7502954 -3.5033338
000370 91 c6 43 41 17 cb d9 c0 ad c3 1a 41 dc 38 15 c1
       12.235978 -6.8060412 9.672772 -9.326382
000380 90 7d 26 c1 0d 47 fb c0 a6 57 05 41 81 51 c8 40
       -10.405655 -7.852423 8.333899 6.259949
000390 bd 87 3c c1 af a8 25 41 6c 0c e1 40 15 d2 db c0
       -11.783139 10.3536825 7.0327663 -6.869395
0003a0 6f 78 e4 40 ec f0 09 c1 e7 a9 e8 40 ea 7b cd c0
       7.1397014 -8.621319 7.27074 -6.421376
0003b0 b3 4c d8 40 fe 63 fe 40 fb 30 57 40 d2 93 73 c0
       6.7593627 7.949706 3.3623645 -3.8058972
0003c0 ff ec 3f 41 df 3f ce c0 c5 b4 20 41 af 0b 17 c1
       11.99536 -6.445297 10.044133 -9.440352
0003d0 54 c3 34 c1 7e fe fb c0 55 19 04 41 5b a8 f2 40
       -11.297688 -7.874816 8.256185 7.583051
0003e0 46 83 27 c1 cf f7 18 41 41 6f de 40 f4 43 e3 c0
       -10.469549 9.5605 6.951081 -7.102045
0003f0 83 d0 f2 40 78 e8 07 c1 2e 39 e1 40 d6 0b cc c0
       7.587953 -8.494255 7.03823 -6.376445

conv/b f4 [3]
000000 e2 72 ab be 00 00 00 00 d7 e9 0d bd
       -0.33486086 0.0 -0.034646835
