circuit/threat.model (npz, 24462 bytes, 6 tensors)

l1/W f4 [50, 100]
000000 32 9f 92 3e 2f 8a 40 40 26 e7 2f bf 87 7e 29 be
       0.2863708 3.008434 -0.6871208 -0.16552173
000010 21 3b 59 3f 38 25 e5 bd a3 92 94 be 4c ac 9e be
       0.8485585 -0.111887395 -0.29018125 -0.30990827
000020 a5 fc 98 3d 56 03 0e 3f 42 9f 46 bd 89 d2 46 3e
       0.07470063 0.5547384 -0.048491724 0.1941625
000030 c7 60 20 bf d4 ea 63 be 79 0f 61 bf d9 98 12 40
       -0.6264767 -0.22257549 -0.87914234 2.290579
000040 72 9e 3f 3e 2c 2c a1 3d b5 01 38 3f e3 17 41 bf
       0.18712786 0.07869753 0.71877605 -0.75427073
000050 bd 39 c7 3e 2c 46 e1 be ca 6e 1c 40 16 0c c3 3d
       0.38911238 -0.4399885 2.444262 0.095237896
000060 4f c6 17 c0 f8 26 ab bc ef f8 63 3d 9b 9c 13 3f
       -2.3714788 -0.020892605 0.055657323 0.57660836
000070 4c d9 1f bf fa ec 2f bd 12 cd 88 3e ed cf 95 3e
       -0.62440944 -0.042950608 0.26718956 0.29260197
000080 10 49 e4 be 3f 29 03 3f 25 a6 42 3e 12 83 c7 3d
       -0.44586992 0.5123481 0.19008692 0.097417966
000090 30 25 15 3e 12 0f 44 3e 0e db 62 3e ee f5 9c 3e
       0.14564967 0.19146374 0.22153875 0.3065638
0000a0 12 17 ee 3d c9 3a 4d bf 4d 9e 1c 3f 3e 2a 5f 3e
       0.11625494 -0.80167824 0.6117905 0.21793458
0000b0 a4 6c f2 3e 4f ba d2 be 2c f4 97 bf 5f 5d 6e 3f
       0.4734851 -0.41157767 -1.187139 0.93111223
0000c0 4f 77 95 bd df ce f5 3d fd 6b 07 bf f9 0f cb 3e
       -0.07298147 0.12002348 -0.5289915 0.39660624
0000d0 93 8b bb be 0d 47 1d 3f 8c 0a 8b 3e f2 38 36 3e
       -0.36629924 0.6143654 0.27156484 0.1779516
0000e0 6c f7 c4 be 80 7f cd 3e 19 78 1f 3f 6c 27 a9 3e
       -0.38470018 0.40136337 0.6229263 0.3303789
0000f0 3d 53 dc be 1c bf 82 3f 5a 96 8a 3e fd a2 03 3f
       -0.43032256 1.0214572 0.27067834 0.51420575
000100 68 ab cd 3e c6 88 5a be e6 0b 1c 3f c5 61 68 3e
       0.40169835 -0.21341237 0.60955656 0.22693546
000110 81 c3 a9 3e fe 34 d1 bc 86 33 a1 3e 62 ce 1b 3f
       0.3315697 -0.025537964 0.31484622 0.6086179
000120 9a e7 31 3e c3 b7 d4 bd 6a fc 23 3f 2b 66 fe 3d
       0.17373505 -0.10386612 0.6405703 0.12421831
000130 d0 8e 19 3e b5 11 40 3e 6f d8 7f bf 36 b5 3b 3f
       0.14995885 0.18756755 -0.99939626 0.7332338
000140 4c 66 d8 bd 1b 89 91 3f 2c 4c dd be 5f 70 80 3f
       -0.105663866 1.1369966 -0.43222177 1.0034293
000150 fa 0b da 3e c1 be c1 3e 87 24 05 3f d1 2c 00 3f
       0.42587262 0.37840846 0.5200886 0.50068384
000160 7b 4a 05 bf b8 2b 50 bf 8b 5c fc bd ba b1 d5 be
       -0.52066773 -0.8131671 -0.12322339 -0.41737157
000170 31 4a 16 bf de f8 93 be 3a 50 31 c0 15 7d 38 3f
       -0.5870696 -0.28900808 -2.7705216 0.7206586
000180 7b 02 76 3e f2 35 07 be 7e 3c 52 3e 35 ad 40 3e
       0.24024384 -0.13204172 0.20530888 0.18816073
000190 4c e0 f0 3d 28 d2 53 3f ab 39 0a 3f 2f db 13 3c
       0.11761531 0.8274255 0.53994244 0.009024425
0001a0 54 c3 48 bd c7 d1 6c be 39 f2 08 bf 9e 2c ce 3e
       -0.049014404 -0.23126899 -0.534946 0.40268415
0001b0 61 5e 9b be ef 47 18 3e 20 56 ef bd 51 7d a4 3f
       -0.30345443 0.1487119 -0.11686349 1.2850744
0001c0 03 9c d8 3e 2a a7 81 3d 55 cd 1a bf a9 71 d2 3f
       0.42306527 0.06330712 -0.6046956 1.6440936
0001d0 d2 27 9b 3f f9 2c c1 3c 05 06 49 be 85 3f b5 3f
       1.2121527 0.023581015 -0.19631203 1.416001
0001e0 c2 71 9e 3f 2f 53 13 be 03 ba 9b 3d 7b 11 0f 3f
       1.2378466 -0.14387201 0.07603838 0.5588605
0001f0 b9 8a a3 3e ea 02 67 be 03 6d aa 3e 36 12 6a 3f
       0.31941774 -0.22559705 0.33286294 0.9143404
000200 02 fe e6 be 00 82 e9 3e fc 73 86 3d 27 e9 71 bf
       -0.45115668 0.45606995 0.06565091 -0.9449639
000210 38 d0 4d 3e 0d 26 40 3e d7 45 10 3f 24 52 b1 3d
       0.2009896 0.18764515 0.5635657 0.08658245
000220 0e e7 7c 3e 7c ed ba 3e 2d 91 94 3f 10 a1 3e 3d
       0.24697515 0.3650931 1.1606804 0.04654032
000230 57 29 7e 3f a1 db 20 be 34 17 40 3f bf 56 f2 3e
       0.9928183 -0.15708782 0.75035405 0.47331807
000240 ec 9d b6 3f dc 31 81 3e 04 e2 2a 3f db 87 58 3f
       1.4266944 0.25233352 0.6675112 0.845823
000250 30 b9 de 3e 4b c4 e2 3e 33 88 a8 3e 82 c4 99 3c
       0.43500662 0.44290385 0.32916412 0.01877046
000260 2c 9b 9c 3d ec d0 50 3f 0f a8 c8 3e 37 bf 05 3e
       0.07646784 0.8156879 0.3919072 0.13061224
000270 32 d1 8b bd 1b 94 fb 3e bc 18 2d 3f 0c 27 fa bc
       -0.0682701 0.49136433 0.67615867 -0.030536197
000280 16 8e b0 bd d1 07 b5 3f 3c 36 22 3f b3 b4 ce be
       -0.08620851 1.414301 0.63364005 -0.40372238
000290 c9 bc 2f be d6 7e b2 bd 3b 9c a9 bd cc 1e bc bc
       -0.1716186 -0.08715598 -0.08281752 -0.022963904
0002a0 42 56 f3 3e 9d dd eb 3d 64 09 6d 3f 50 58 3e bf
       0.47526747 0.11516879 0.92592454 -0.74353504
0002b0 48 ef fe 3d 14 04 9a 3d 2f fe 01 c0 fe 67 85 3f
       0.12447983 0.07520309 -2.0311391 1.0422361
0002c0 95 96 f6 3d 3c 4a 88 bd ae 31 2d 3f c5 75 49 3f
       0.1204044 -0.06654784 0.6765393 0.7869533
0002d0 27 7b 7d bb 18 fa c1 3f 48 56 fa bd 9f 40 85 3f
       -0.003867814 1.5154448 -0.12223488 1.0410346
0002e0 60 43 b2 3d bf e1 db be b2 2e e1 bf ab 3c 4a 3f
       0.08704257 -0.42945668 -1.7592375 0.7899882
0002f0 be 4d c6 3e 6b 8b 45 3f a3 bf 99 be 72 8b b4 bf
       0.38731188 0.7716586 -0.3002902 -1.4105055
000300 33 f1 91 bf f0 d8 55 bf cd 29 df 3f ee 22 c9 3f
       -1.1401733 -0.83534145 1.7434632 1.5713785
000310 ba 05 b1 3e e3 16 8f 3e 73 82 b4 3f c0 f7 e2 bd
       0.34574682 0.2794715 1.410231 -0.11082411
000320 f2 28 09 be 05 9b 12 bd 97 bd c2 bd 04 ed cd bd
       -0.13394526 -0.03579237 -0.09508818 -0.10054973
000330 03 e9 87 bc 4e cf 68 bd b0 01 16 3d 4a 4d 79 3d
       -0.0165906 -0.056838326 0.036622703 0.060864724
000340 65 96 84 3d 31 69 ec 3c 38 87 d3 bc 4f 3f 8c bd
       0.06473998 0.028858753 -0.025821313 -0.06848013
000350 45 80 c7 3b aa b6 16 be 34 c4 e8 bd ef 7f a2 bc
       0.006088289 -0.14718118 -0.11365548 -0.019836394
000360 6c aa 08 be 9d d2 3d 3d ed 09 00 3c 1a e1 a5 3c
       -0.13346261 0.046343435 0.0078148665 0.020248938
000370 17 f0 92 bd 14 61 2b bd df e5 f8 bd b8 e1 14 3d
       -0.071747 -0.041840628 -0.121532194 0.036348075
000380 8e a4 c6 bd ae 01 eb bd c2 3e ee 3d bc 74 64 3d
       -0.09699355 -0.1147493 0.11633064 0.05577539
000390 b9 83 28 be fb ca 42 bd 89 06 05 3e ef 80 2c bc
       -0.16456498 -0.04755686 0.12990774 -0.010528787
0003a0 a5 63 e2 bd ba 1c 15 3e d6 71 93 3c 57 69 23 be
       -0.11054162 0.1456174 0.017998617 -0.15958153
0003b0 93 56 ba bd b5 c4 19 bd e7 1d b3 bd 9a 62 82 3c
       -0.09098544 -0.03754111 -0.08745938 0.015916158
0003c0 7c 92 86 bd 9e 55 8a bd b5 35 00 3d 8a 94 06 3e
       -0.065709084 -0.067546114 0.03130122 0.131426
0003d0 ce 5b 39 3d 66 51 f9 bd 3c f7 00 3e e1 47 53 bd
       0.045253567 -0.12173729 0.12594312 -0.05158222
0003e0 64 48 ba bc 66 bd b9 3c fb 1f df 3d e2 7b 1b be
       -0.022739597 0.02267332 0.10894772 -0.15183976
0003f0 36 8b 0b 3e 43 09 da bd c5 d3 39 be 73 ae 51 bc
       0.13627324 -0.10646298 -0.1814719 -0.01279794

l1/b f4 [50]
000000 78 0e 0f 3c e2 73 80 bd 66 fd b2 bd 92 f7 75 bd
       0.008731477 -0.06272103 -0.08739738 -0.060050555
000010 fe 08 d9 3b fb 48 a3 be 86 be ae bd f5 99 76 bd
       0.0066233864 -0.31891617 -0.08532433 -0.06020542
000020 87 bf 74 be 2f 33 8e bd 2d 19 a4 bd df 55 4f be
       -0.23901187 -0.06943356 -0.080126144 -0.20247601
000030 d9 79 d2 3c 71 e4 03 be f0 f4 5c be fa ed 75 bd
       0.025692867 -0.12880112 -0.21577811 -0.060041405
000040 16 df ff bd 68 b6 de bd 77 71 74 be 97 73 a1 bd
       -0.12493722 -0.10874635 -0.23871408 -0.07883375
000050 35 83 a9 bd 75 8f 93 bd 01 84 53 3d a7 ab 94 be
       -0.08276979 -0.07205097 0.05163956 -0.2903721
000060 30 ca 93 bd 26 a3 a3 bb b9 64 cd bd 09 7e 56 bd
       -0.072162986 -0.004993814 -0.10028977 -0.05236629
000070 17 20 9a 3b 44 76 d0 bd 0b 78 81 be 36 28 82 3d
       0.0047035324 -0.101788074 -0.25286898 0.06355326
000080 ba f1 63 bd ba 46 38 be d4 55 16 3d 9c 7c 99 bd
       -0.05565045 -0.1799573 0.036702946 -0.074944705
000090 ca 8e 2e 3b da d0 21 3f 19 d5 8f be bd 5c 85 3e
       0.0026635402 0.6320931 -0.28092268 0.26047316
0000a0 7a c1 98 bd 2a c2 a0 bd 1c 8d 47 ba b7 34 7d bd
       -0.07458778 -0.07849534 -0.00076122745 -0.06181785
0000b0 29 40 d0 bd f9 b2 b6 bd 74 9b c9 bd cd 9f 69 be
       -0.101684876 -0.08920855 -0.098441035 -0.22814865
0000c0 c1 c0 a6 bd 1c 6f e4 3f
       -0.08142234 1.7846408

l2/W f4 [15, 50]
000000 cb 37 11 3e 3b bb 1e bf c8 80 c3 bb 74 69 6a 3c
       0.1418144 -0.6200444 -0.0059662797 0.014307369
000010 d3 64 e8 bd f6 d1 1a bf 29 ec 18 3e 1e 49 f7 bd
       -0.11347356 -0.60476625 0.14933838 -0.12074493
000020 c2 d7 51 3e 84 d6 78 bd c3 08 c0 be bd 99 24 c0
       0.20492461 -0.060751453 -0.37506685 -2.5718834
000030 86 96 91 bf e9 f7 1f bf d9 0a 3f be 26 b3 25 bd
       -1.1374061 -0.62487656 -0.18656482 -0.040454052
000040 bc e8 42 be e5 58 82 bf e0 ca 8a be f4 0f 87 be
       -0.19034094 -1.0183378 -0.27107906 -0.2637936
000050 02 4d 9f be 89 fc 2d 3c 69 85 0f bf 0d b1 86 bf
       -0.3111344 0.010619291 -0.5606294 -1.0522782
000060 d5 60 26 bf f2 43 32 be 73 21 42 3e 35 39 1c 3f
       -0.64991504 -0.17408732 0.18958072 0.6102479
000070 11 ec 0e 3f 61 01 78 bd 68 17 76 be 24 16 ea be
       0.5582896 -0.06054819 -0.24032366 -0.45720017
000080 2c 93 23 bf 6a 27 4b 3f dc 60 1a c0 31 f9 05 be
       -0.6389644 0.79357016 -2.4121618 -0.1308334
000090 08 4f f5 be 46 77 ff bf 5a 2f 69 bf f5 5f 89 bf
       -0.4791186 -1.9958274 -0.9108788 -1.0732409
0000a0 84 d4 82 be a5 23 0e be d1 76 1e bf a7 c3 3d bd
       -0.25552762 -0.13880785 -0.6190005 -0.046329167
0000b0 9b 82 10 be 3c 61 83 bf fa c1 ba bf 99 91 80 bd
       -0.14112322 -1.0264049 -1.4590447 -0.062777705
0000c0 b6 9c 84 be e1 bb bc 3f f6 c4 4a 3e f6 b6 b7 be
       -0.2590081 1.4744836 0.19801697 -0.35881776
0000d0 0b fe 96 bd 61 35 2c bd b9 ab 97 be e6 52 99 be
       -0.073726736 -0.042043094 -0.296232 -0.2994606
0000e0 e7 e2 5a 3d 86 2f 2b 3d ab e0 65 be bf 2e f6 3c
       0.053439047 0.04179337 -0.22448985 0.030051587
0000f0 d1 8f 88 bf 49 74 df bf 53 e2 61 bf 81 36 a1 be
       -1.0668889 -1.7457362 -0.8823597 -0.31486896
000100 ab 89 08 3e ca ca 72 3c a5 9d 13 be 57 00 9e bf
       0.13333766 0.0148188565 -0.14415605 -1.2343854
000110 7f 53 36 be 74 76 03 be 63 01 ad 3d 83 3b 46 3d
       -0.17805289 -0.12838155 0.0844753 0.0483966
000120 24 c7 b8 3e 5a ba 48 bf e8 22 f6 be 17 7a 98 be
       0.36089432 -0.7840935 -0.48073506 -0.29780647
000130 2c 83 2b be 3f b2 98 3e ee e3 bd bb 23 f6 1a bd
       -0.16749257 0.2982349 -0.0057949936 -0.03783239
000140 0c c5 41 bc ea 9c 8c be 0f 76 6f bf b2 16 88 3e
       -0.011826765 -0.27463466 -0.9353952 0.26579815
000150 2c fc f2 bf 58 58 a7 3c 90 a4 46 bf 8e d1 f3 bf
       -1.8983207 0.020427868 -0.7759485 -1.9048326
000160 24 47 a3 bf c8 b9 96 bf b4 30 ba 3e 44 db 4e be
       -1.2756085 -1.1775446 0.36365283 -0.2020083
000170 79 92 46 bf 38 7e ea 3d 8e f8 9f be ac 81 b4 be
       -0.7756725 0.114498556 -0.3124432 -0.35255182
000180 43 a8 9a bf c6 74 9f bd c6 8e 6c 3d 71 a4 cd 3f
       -1.2082599 -0.07785945 0.057753347 1.6065809
000190 ae 85 b7 3c 85 19 00 bf b6 35 2b 3e 6a 76 a0 3d
       0.02240261 -0.5003894 0.16719708 0.07835086
0001a0 4e c7 cd be 6c 0a 4d be 7c 27 a3 bd 81 3b 2b be
       -0.4019112 -0.20023507 -0.079665154 -0.16721918
0001b0 fc a7 2b 3d 4f 8a 03 be e3 77 42 bf f7 1c a4 bf
       0.04190825 -0.1284573 -0.7596418 -1.2821339
0001c0 ff e2 84 bf 82 22 c4 bd 1b 93 11 3e 77 97 6d be
       -1.0381774 -0.09576894 0.14216273 -0.2320231
0001d0 49 5a 3b be 4d 2a be be 90 0d 87 be e6 df e9 3d
       -0.1829616 -0.37141648 -0.26377535 0.11419658
0001e0 7e 46 47 bd 6f 66 9d 3e 23 23 18 3f 34 50 71 bf
       -0.04865121 0.30742213 0.59428614 -0.94263005
0001f0 17 bb 69 bf 19 7c 19 bf 75 2c 80 be 23 31 fd 3e
       -0.913011 -0.59954983 -0.25033918 0.4945155
000200 7d 50 d1 be 1a 77 85 be 5b 29 be bd 21 2f bd be
       -0.4088172 -0.2606743 -0.09285232 -0.3695002
000210 83 fb 8f bf c9 cd 6f bd e7 c1 df bf c1 16 19 be
       -1.124863 -0.05854586 -1.7481049 -0.14950086
000220 76 dc 61 bf 63 94 e4 bf 5d f1 8e bf eb a0 a4 bf
       -0.8822702 -1.7857784 -1.1167408 -1.2861608
000230 3c 26 3e 3e ec 5b 0d 3d 61 fd 9a bf 42 8e 2b bd
       0.18569273 0.03451149 -1.2108575 -0.041883714
000240 3e d4 0c be 15 e6 72 bf 24 eb d4 bf cc 7f 55 bd
       -0.13752839 -0.9488233 -1.6634259 -0.05212383
000250 ff e3 b5 bb a0 f3 bd 3f 00 bd 8a bd 38 0d 36 be
       -0.005550861 1.4839973 -0.0677433 -0.1777848
000260 90 35 db 3d d4 14 0e 3e f7 90 c8 be e8 34 e4 bd
       0.107035756 0.13875133 -0.391731 -0.111429036
000270 d1 f8 1c be 48 42 74 bc dd 33 88 3d 08 e1 f2 bd
       -0.15329291 -0.014908381 0.06650517 -0.118593276
000280 07 b0 ac bf 15 f7 94 be 86 a4 8b bf ad e2 12 bf
       -1.3491219 -0.2909476 -1.0909584 -0.5737713
000290 fd ac 93 3d 73 00 de bd 81 c4 21 bd aa 37 05 bf
       0.07210729 -0.108399294 -0.03949404 -0.5203806
0002a0 ef 70 39 be f5 03 4e 3e 1a b4 83 be 2a f7 4d be
       -0.18109487 0.20118697 -0.25723344 -0.20113817
0002b0 a9 d2 39 3f 00 07 53 bf 20 07 ed be 04 9a 82 bd
       0.72587067 -0.82432556 -0.46294498 -0.063770324
0002c0 ad 3f 0e bf 80 8d 1a 3f 1c 2c 98 be d0 94 fb 3c
       -0.5556591 0.6037216 -0.29721153 0.030710608
0002d0 c9 4a e7 bc d1 fc a2 be 96 a0 2c bf ce a3 8e be
       -0.028233903 -0.3183351 -0.67432535 -0.27859348
0002e0 61 62 cb bf a7 a1 85 bc 4a c0 f6 be 5f 62 f3 bf
       -1.5889398 -0.016312433 -0.4819358 -1.9014395
0002f0 b0 79 7f bf c9 6f 96 bf 0a 38 34 3e f7 ae 26 3e
       -0.99795055 -1.1752864 0.17599502 0.16277681
000300 d9 df cf bf 98 97 ee 3d cf aa ca 3d 09 ed 17 be
       -1.6240188 0.11650008 0.098958604 -0.14836515
000310 dd a3 cf bf b3 62 45 bd 8f 82 07 3d ca 40 c6 3f
       -1.6221882 -0.04818983 0.033083495 1.5488522
000320 8a e7 79 3e 26 bc 71 bf c6 c8 1c bb 64 aa c9 3d
       0.24404731 -0.94427717 -0.0023923381 0.098469526
000330 a1 0b ba bd 76 6a 8f be 8a e7 27 bd 85 3b 94 bd
       -0.09084249 -0.2801091 -0.040992297 -0.07237915
000340 19 e3 8a 3e 8d 83 e0 3a 13 eb dc bf fa cb 2f 3e
       0.27126387 0.0017129049 -1.7259239 0.17167655
000350 00 4e 7a bf 0c c2 11 bf fa 21 e0 bd 9d d6 45 be
       -0.9777527 -0.5693672 -0.109439805 -0.1932015
000360 29 f1 c0 be db e2 c0 3d 3d 4b ee be fa b0 04 be
       -0.3768399 0.09418269 -0.46541777 -0.12958136
000370 5f ac 1b 3e ef 6d 3b be d0 c4 8c 3f 78 86 1c bf
       0.15202473 -0.18303655 1.0997562 -0.61142683
000380 f5 de fe be 71 fc 68 be 49 75 ba bf b9 86 24 3f
       -0.49779478 -0.22752549 -1.4567043 0.6426807
000390 c5 d4 45 bf 70 de c5 bc ed 89 34 be d7 05 6b 3d
       -0.77277786 -0.024153918 -0.1763074 0.057378616
0003a0 b6 19 33 bf 92 ab 46 be ee 8b 9b bf e4 44 37 3d
       -0.69961107 -0.19401386 -1.2152078 0.044743434
0003b0 89 26 30 bf 31 52 07 c0 2c 9c 4e bf c9 02 91 bf
       -0.688088 -2.1143916 -0.8070705 -1.1328975
0003c0 b9 35 47 3f 0c 91 9b bd 34 5c bf bf 67 c2 5d 3c
       0.7781635 -0.07596025 -1.4950013 0.013535119
0003d0 4c d5 50 3d 68 c8 a6 be 28 a2 7b bf 67 85 a8 3c
       0.050984666 -0.32574773 -0.98294306 0.020571424
0003e0 a2 be 91 bc be fa b7 3f 76 3b f0 be c7 9d 08 bf
       -0.017791096 1.4373395 -0.46920365 -0.5336575
0003f0 a2 68 bf bd f7 11 0a 3e 3d 8d 8c be 89 fc 3e bf
       -0.09346129 0.13483416 -0.27451506 -0.7460409

l2/b f4 [15]
000000 33 b0 e7 3e 0e 65 ab 3e 2a 8c 6c 3e 3d 9a b7 3e
       0.45251617 0.33475536 0.23100343 0.35859862
000010 56 1d 69 3e 75 f0 e2 3e 6a b3 12 3f e2 1c 84 3e
       0.22765097 0.4432408 0.57305014 0.25803286
000020 6f 0f d7 3e 8a be b6 3e 1e df 2a 3f bd 5a eb 3e
       0.42003962 0.35692245 0.667467 0.45967665
000030 82 b4 f1 3e 78 c3 0b 3f da 3c 8c 3e
       0.4720803 0.54595137 0.27390176

l0/W f4 [100, 3]
000000 08 a9 d9 3e d6 82 0b c0 23 d5 90 bf e1 d5 ca 3f
       0.42511773 -2.1798606 -1.1315044 1.5846521
000010 e2 9f 04 bc 13 ab 07 bf 76 75 26 be be b6 d4 bf
       -0.00809476 -0.52995414 -0.16255745 -1.6618268
000020 96 ff 97 3f c9 47 0b 3f a2 ff f1 bf 82 4b 19 bf
       1.1874874 0.5440641 -1.8906138 -0.5988084
000030 60 f7 ff bf 68 e8 e9 bf 8d 92 86 3f 52 42 1f 3f
       -1.9997368 -1.827405 1.0513474 0.6221057
000040 ee 0f c4 bf 88 1a 06 bf e2 10 bc bf 82 f5 98 3d
       -1.5317361 -0.52384233 -1.4692652 0.07468702
000050 27 de e3 c0 59 ac f3 3e 70 d8 f9 3f a8 70 6d bf
       -7.120868 0.47592428 1.9519176 -0.92750025
000060 78 03 0b 40 48 5b ac 3e 78 98 3b 3f 1c 67 82 3f
       2.1720867 0.33663392 0.73279524 1.0187716
000070 ed 4c ff 3d f1 9c 70 c0 7b 48 94 be 68 da b3 bf
       0.12465844 -3.759579 -0.28961548 -1.4051027
000080 cb a1 1a 40 e5 79 56 bf 56 db 12 40 f7 36 60 be
       2.416125 -0.83779746 2.2946372 -0.21895967
000090 fd cb d6 3e e8 9a 4b c0 68 fc 10 3e 67 f4 8d bc
       0.41952506 -3.1813297 0.14158785 -0.017328454
0000a0 26 f3 6c 3d c6 2b b8 bd 97 98 b5 3f e4 e4 ba 3e
       0.057849072 -0.08992724 1.4187192 0.36502755
0000b0 1a 8f d4 3e cc b4 6a 3f aa 8a 3f 3e 80 79 ad c0
       0.41515428 0.91682124 0.1870524 -5.4210815
0000c0 50 f3 cf bf fb b4 07 40 1e 50 61 3f 39 20 dc 3e
       -1.6246128 2.1204212 0.88012874 0.42993334
0000d0 8c 28 da 3f 22 74 a8 3e aa 88 eb bd 6a 60 bd 3f
       1.7043624 0.32901102 -0.11500676 1.4795048
0000e0 5a 90 42 40 6b 11 e7 be a5 26 36 c0 f8 54 29 3f
       3.0400605 -0.45130476 -2.8461087 0.6614528
0000f0 fe b9 a8 bf 09 aa 03 c0 8c 27 1d be 3f 23 a0 3f
       -1.318176 -2.0572531 -0.15347117 1.2510756
000100 14 6e 66 3e 34 8d 01 40 73 ee 84 3f f5 49 34 c0
       0.22502929 2.0242434 1.0385269 -2.817014
000110 ed 27 2f c0 e5 8f 66 3d 43 67 37 40 1d 7a f6 3e
       -2.7368119 0.056289572 2.8656776 0.4814004
000120 c3 3d 3f c0 0e 0e 51 3f 89 13 9c c0 49 86 82 3f
       -2.9881446 0.8166207 -4.8773847 1.019723
000130 5b cb b6 bf 32 25 a3 bf a3 83 ab be f3 d4 95 3f
       -1.4280809 -1.2745726 -0.33498868 1.1705612
000140 6a bb 8d 3f 1f e0 57 bf 8b f6 11 40 bf 1d 97 3f
       1.1072819 -0.84326357 2.2806728 1.1805953
000150 f8 4b 8b 3f d4 e4 01 40 ab 90 51 c0 07 41 10 3f
       1.0882559 2.0295916 -3.2744548 0.56349224
000160 ce ee ee 3f 76 6b 27 bf af 47 8f 3f eb 5d fc bf
       1.8666627 -0.6539835 1.1193751 -1.9716161
000170 3b b2 ba bf 9d 9f 15 c0 10 20 a3 3e 9f c6 c2 be
       -1.4585642 -2.337867 0.318604 -0.3804216
000180 19 66 ac 3e 6d cb 01 c0 c4 f9 52 3e cb 45 48 3f
       0.33671644 -2.0280411 0.2060309 0.78231496
000190 3e 8c f0 3f b5 80 01 bf ab 0f 29 3f 4d 1a f3 3f
       1.8792799 -0.50587016 0.6603953 1.8992401
0001a0 ea 0b 25 bf cb 74 a7 3f dd f5 f7 bf e8 30 a3 bf
       -0.64471304 1.3082517 -1.9371907 -1.27493
0001b0 49 4d 87 3f 55 9b 03 c0 8e 63 80 bf 6c d5 fe 3e
       1.057046 -2.0563557 -1.0030382 0.49772203
0001c0 f6 29 19 40 01 af 75 3d c6 94 a1 bf 46 7c 0c c0
       2.393186 0.05998135 -1.2623527 -2.195085
0001d0 47 bc 1a 3b be 24 56 3f ed 13 ee bf 39 57 d1 bf
       0.0023610757 0.83649814 -1.8599831 -1.6354743
0001e0 26 e5 48 bf 75 fb 0d 40 a2 0d 89 3e 71 53 19 3f
       -0.7847465 2.2184727 0.26768214 0.59892946
0001f0 23 ee 2c c0 04 77 e4 3f ae 1b 9c be 0a ba 03 c0
       -2.7020347 1.7848821 -0.30489868 -2.05823
000200 88 fa f7 3f 8a c6 84 be ac 17 dd bf 54 06 f3 3f
       1.9373331 -0.25932723 -1.7272849 1.8986306
000210 46 8f 53 bf 71 4d 02 c0 8d 8a 27 3f 53 43 0c 3f
       -0.8264049 -2.0359766 0.65445787 0.5479023
000220 bc 3a 1f c0 a9 a4 7f 3d 1a 74 ac be 04 7c 02 c0
       -2.4879599 0.06241289 -0.33682328 -2.0388193
000230 f1 1d c2 bd f8 28 4a bf 77 d9 0a c0 8b c5 d0 3f
       -0.09478367 -0.78968763 -2.169523 1.6310285
000240 9a 5c 12 3f f4 6e 13 40 fd 8f c6 be af d6 80 be
       0.5717255 2.303647 -0.3878173 -0.2516379
000250 28 9f e8 3f f3 21 2e 3f 92 a0 a4 bc 07 1f e1 bf
       1.8173571 0.6802055 -0.020096097 -1.7587594
000260 df 75 79 3f 96 00 ac bf 76 d2 94 be 30 1b 4c 40
       0.9744548 -1.3437679 -0.2906682 3.1891594
000270 44 f2 8f be 27 51 98 bf a1 1b 5d 3f 50 17 7d bf
       -0.28114522 -1.1899766 0.86370283 -0.988637
000280 59 fa 03 40 4c 7e a5 3f 77 d2 4e 3f bd f0 0b 40
       2.062155 1.2929168 0.80789894 2.1865685
000290 64 66 18 bf 95 fe 61 3e 7d a5 07 40 5e 44 b2 3f
       -0.59531236 0.22069772 2.1194756 1.3927114
0002a0 47 2f c2 bc 32 a9 07 c0 65 6e 36 40 2c 27 e3 be
       -0.023704184 -2.1197019 2.850488 -0.44365823
0002b0 01 f3 17 40 b1 31 6f 3f b4 34 62 3f 89 eb 0c be
       2.3742068 0.934352 0.8836167 -0.13761725
0002c0 78 ad 54 c0 16 02 a3 3f 38 75 64 3f 59 c7 32 c0
       -3.3230877 1.2735012 0.8924136 -2.7934172
0002d0 67 3f b5 3f e9 ba 36 3e 1c f6 3b 40 aa e0 83 bf
       1.4159974 0.17844738 2.9368963 -1.0302937
0002e0 94 f2 19 c0 d4 79 cb 3f 23 23 12 bf 38 e0 c2 3f
       -2.4054308 1.5896554 -0.57084864 1.5224676
0002f0 7f 4d 05 40 d1 0c 0e c0 24 10 2f bc ef 0d 38 bf
       2.082855 -2.2195323 -0.010685001 -0.7189626
000300 cc ef 9d 3f 60 2a d5 be 55 6c 34 c0 e9 d3 d9 3c
       1.2338805 -0.41633892 -2.819112 0.026590304
000310 fa 15 0c 40 b9 3b ad 3f 4e af 09 3f 7a ff b1 bf
       2.1888413 1.3533851 0.5378312 -1.390609
000320 0d f3 33 bf b0 0f b2 3f fe ec ce 3f c9 8d ac be
       -0.7029274 1.3911037 1.6166074 -0.33701923
000330 e2 7a c9 3e da 41 0c 40 24 dc f3 3d 1e 9e 2b bf
       0.39351565 2.1915193 0.11907223 -0.6703814
000340 51 8c 3d 3d 8c 91 b9 bc d2 97 83 bf 4d 81 f4 bf
       0.046276394 -0.02265241 -1.0280707 -1.910196
000350 33 6c f3 3e a8 1d 19 c0 f6 d6 4e 3d d7 ef 33 bf
       0.47543487 -2.392435 0.05049797 -0.7028784
000360 f0 bc ba bf b2 52 c7 3f 24 78 2f 3f 7a c8 cb 3e
       -1.4588909 1.5572112 0.68542695 0.3980139
000370 60 cb fd 3f 92 29 b1 3d ae 16 2e c0 6a 0b 98 bd
       1.982769 0.08650507 -2.7201343 -0.07424052
000380 84 2a 00 3f bf 6b 8b bf 61 67 e6 3f 8c eb 17 3f
       0.50064874 -1.0892256 1.8000299 0.5934379
000390 62 a2 45 3f 57 8c b9 3f dc 1b bb bf 46 10 8d 3f
       0.772009 1.4495953 -1.4617877 1.1020591
0003a0 26 66 b7 3f 46 cb 95 be 05 71 86 be 76 be 2a c0
       1.4328048 -0.29256648 -0.26258102 -2.6678748
0003b0 17 71 43 3f 5d 5e 5c bf 1d 05 0d 40 8a 58 df 3f
       0.76344436 -0.86081487 2.203437 1.7448895
0003c0 c5 b2 ba 3f aa 48 0b 3f 49 32 ca 3f d9 49 8a bf
       1.4585806 0.5440775 1.5796596 -1.0803787
0003d0 52 42 1d 40 3a 88 e5 3f 50 d9 c1 3b 7e f8 f7 3f
       2.4571729 1.7932198 0.0059157982 1.9372709
0003e0 d4 9f 51 3f 57 b2 9f bf 1b 29 12 c0 da 93 60 3f
       0.81884503 -1.24763 -2.2837589 0.87725604
0003f0 c9 47 82 3f cf 64 02 40 14 a8 fc be 05 c9 12 c0
       1.0178157 2.0374029 -0.49346983 -2.2935193

l0/b f4 [100]
000000 e4 ec a8 bd f7 d6 45 bf fb fb 70 be 17 f8 1d be
       -0.08248308 -0.77281135 -0.23533623 -0.1542667
000010 f8 aa c1 bd 46 8b e8 bd e0 d1 a8 3d 52 bd c2 bd
       -0.09456438 -0.11354689 0.082431555 -0.09508766
000020 b1 84 75 be 01 d7 02 3d 03 4b e8 bd 0a 51 90 bd
       -0.23976399 0.031943325 -0.11342432 -0.07046707
000030 07 ac 92 be f9 68 fc bd 18 38 f6 be 64 61 8a 3c
       -0.2864687 -0.123247094 -0.4808967 0.016892143
000040 42 93 85 bd 8d c8 ce be 46 ee 06 be 89 d0 72 be
       -0.06522228 -0.40387383 -0.13176832 -0.23712362
000050 78 b4 d9 bc 2d 42 fe 3d 7a d1 cc be 45 a1 7c be
       -0.026575312 0.12414966 -0.40003568 -0.24670894
000060 1f 98 b8 be de 09 f2 bd 8c d9 81 be 64 69 2a be
       -0.3605356 -0.11818288 -0.25361288 -0.16641766
000070 bd 4a 71 be e6 63 8c bd 1c 2e 1f bd 35 32 3e bd
       -0.23563667 -0.068549916 -0.038862333 -0.0464346
000080 1e da 34 be c7 ff a8 bd 88 c7 52 bd ae 97 92 bd
       -0.1766133 -0.08251911 -0.05145982 -0.07157837
000090 19 fd d2 bd 5d 15 3b be 65 44 fc bc 74 dc 03 be
       -0.10302181 -0.18269868 -0.030794332 -0.12877065
0000a0 2a 0b 09 be c2 f7 87 be 6f 86 5a be 02 60 50 be
       -0.13383165 -0.26556212 -0.21340345 -0.20349124
0000b0 d5 90 5c bd c6 09 5d be 84 93 e1 bd c3 ff 15 be
       -0.05384906 -0.2158576 -0.110144645 -0.14648347
0000c0 44 9a 51 be a1 9e 12 be 8e 05 69 be e8 c4 e1 bd
       -0.20469004 -0.14318325 -0.22756025 -0.11023885
0000d0 78 be 78 be 76 b9 15 be 24 32 25 be 71 94 35 be
       -0.24291408 -0.14621529 -0.16132408 -0.17732407
0000e0 e0 23 4f be 79 13 49 be 91 23 5d be 9c 01 3e 3b
       -0.20228529 -0.19636334 -0.21595599 0.0028992658
0000f0 5b a0 0c 3e 5f 1d 4f be f0 60 3d be 84 76 66 bb
       0.13733046 -0.20226048 -0.1849401 -0.0035165856
000100 61 00 59 3d 80 ce 5c be ee f8 54 bb 05 58 90 be
       0.052978877 -0.21563148 -0.0032497006 -0.28192154
000110 c6 54 17 be f1 8a 54 3e d4 78 03 be 59 7d 13 bb
       -0.14778432 0.20756127 -0.12839061 -0.0022505133
000120 36 56 b6 bd ed 1d 0d be 19 56 cd bd 87 b9 9b bd
       -0.08903162 -0.13780947 -0.100261874 -0.07603746
000130 74 b1 e9 bd 75 f4 62 be 47 1b 69 be 94 1d 2a be
       -0.114107996 -0.22163565 -0.22764312 -0.16612846
000140 3e a9 37 3e 32 36 35 be e2 4a 54 be 21 c4 0f be
       0.17935655 -0.17696455 -0.2073169 -0.14039661
000150 43 db 6c bd b7 2f 18 bc 9c 9c c7 bd 2e 5e 7d bb
       -0.05782629 -0.00928872 -0.09746668 -0.0038660872
000160 d6 e2 4d be 93 d0 82 be 22 10 82 be 00 a8 bc 3e
       -0.20106062 -0.25549755 -0.25402933 0.36846924
000170 22 e1 b5 3e 4d 3f 99 3e a5 6e 35 bd ce ea d6 bd
       0.35523325 0.29931107 -0.044294972 -0.10494004
000180 44 3b 14 3e cf a6 41 be 2e 08 fc bd c7 06 9b bd
       0.14475733 -0.18911289 -0.12306248 -0.07569652
