sample-agents/jam-rp/model.npz (npz, 38875 bytes, 8 tensors)

conv/W f4 [3, 1, 1, 6]
0	0x3ce09d32	0.027418707
1	0xbf11ca9a	-0.5694977
2	0x3f9a7e0a	1.2069714
3	0xbf464c4e	-0.7746018
4	0xbf0e5d9b	-0.5561158
5	0x3f27d54c	0.6555984
6	0xbfd7e7eb	-1.6867651
7	0xc00f3047	-2.2373216
8	0xbf4fb0f8	-0.8112941
9	0x402361f2	2.552853
10	0xc0221b47	-2.5329149
11	0xc01a18ec	-2.407771
12	0x3e2cc570	0.16872191
13	0xbfdb59c5	-1.713677
14	0xbfdc1b51	-1.7195836
15	0xbfdd2abc	-1.7278666
16	0xbfe91e5f	-1.8212394
17	0xbff55e81	-1.9169465

conv/b f4 [3]
0	0xbe85ce74	-0.26134074
1	0xbd05baec	-0.032648966
2	0x3eac0286	0.33595675

l0/b f4 [50]
0	0x3fb1ab5b	1.3880419
1	0x3db32b64	0.087485105
2	0x3f056326	0.52104414
3	0x3fab6ba6	1.3392227
4	0x3eba3493	0.36368236
5	0xbff188d9	-1.8869888
6	0xbf8fbb8b	-1.1229109
7	0xbd9faefe	-0.07797049
8	0x3f5a4f46	0.8527721
9	0x3fc87ee6	1.5663726
10	0xbfb880d5	-1.4414316
11	0x3f55a5bc	0.83456016
12	0x400f8c50	2.242939
13	0xbf1b304c	-0.6062057
14	0x3fd20a48	1.6409388
15	0xbf6fbc19	-0.9364639
16	0x3f90299b	1.1262697
17	0x3f4b0602	0.7930604
18	0xbea525c1	-0.32255366
19	0xbe9334c9	-0.2875121
20	0x3f389b23	0.7211172
21	0x3f85f2fc	1.0464778
22	0x3fa560fd	1.2920223
23	0x3e061e93	0.130976
24	0xc01d277f	-2.4555357
25	0x4042c169	3.0430548
26	0xbf7cc186	-0.98732793
27	0xbe2f08ce	-0.17093202
28	0xbb0ac4a0	-0.0021174327
29	0xbf53c7f8	-0.82727003
30	0xbf8c9c31	-1.0985166
31	0x3f8ceba4	1.1009412
32	0xbff2e118	-1.8974943
33	0xbca005ab	-0.019533953
34	0x3ed32751	0.41240934
35	0x4000d57c	2.01303
36	0x3f415816	0.75525033
37	0x3fcd3ae9	1.6033603
38	0x3eaa2718	0.3323295
39	0xbfbdbbd7	-1.4822949
40	0xbfdbb22f	-1.7163752
41	0xbf852d84	-1.0404515
42	0x3e88a138	0.266855
43	0x3fd43a46	1.6580284
44	0xbf8552fe	-1.0415952
45	0xc00c6949	-2.193926
46	0x3f8716b3	1.0553802
47	0xbf715223	-0.94265956
48	0x3e43f5f0	0.19136786
49	0x3f385796	0.72008646

l1/W f4 [20, 50]
0	0x3e754196	0.239508
1	0xbdcb0b46	-0.099142596
2	0xbd556f92	-0.052108355
3	0x3f0b2da7	0.54366535
4	0xbf25ca10	-0.6476145
5	0xbf1e82af	-0.6191816
6	0x3f8b71fc	1.089416
7	0xbdca42e4	-0.098760396
8	0xbe8e08bd	-0.27741042
9	0xbe1fe13d	-0.15613265
10	0x3f42c85b	0.7608697
11	0xbea9c386	-0.33156985
12	0xbeb84c91	-0.35995916
13	0x3ec417b3	0.3829933
14	0xbf36af6e	-0.71361434
15	0x3d05597d	0.032556046
16	0xbebaa80e	-0.3645634
17	0x3f0009ef	0.5001516
18	0x3c78bc90	0.015181676
19	0xbd02b782	-0.031913288
20	0xbf00a3bd	-0.50249845
21	0xbe77b28f	-0.24189208
22	0xbd3c5828	-0.04598251
23	0x3d7347de	0.05939471
24	0xbef46904	-0.4773637
25	0xbfafe226	-1.374089
26	0xbe87c2cb	-0.26515803
27	0x3c435e05	0.0119242715
28	0xbea75b9a	-0.32687074
29	0x3f49625f	0.7866573
30	0x3c8a64d3	0.01689378
31	0xbe0c710e	-0.13715002
32	0xbdbd12b4	-0.09232083
33	0xbec408f5	-0.38288084
34	0x3d631733	0.055442046
35	0xbedd8bc4	-0.43270695
36	0x3f37417f	0.71584314
37	0xbe3cbdb6	-0.18431744
38	0xbddcea6d	-0.10786901
39	0x3e1798fb	0.14804451
40	0xbe6baccc	-0.23015136
41	0xbe9567d3	-0.29180774
42	0x3e12964f	0.1431515
43	0x3dc128f5	0.0943164
44	0xbf266f9b	-0.65014046
45	0x3e8d7a9e	0.27632612
46	0x3ba23393	0.004949996
47	0xbea644d2	-0.3247438
48	0x3d80c391	0.06287301
49	0x3f964f8c	1.1743026
50	0xbeeeb6d4	-0.46623862
51	0xbec557d5	-0.38543573
52	0xbcb9b296	-0.022668164
53	0xbd2072b9	-0.039171908
54	0x3fe51698	1.789752
55	0x3e943d62	0.2895308
56	0xbeec4e11	-0.4615331
57	0xbd3e58c1	-0.04647136
58	0x3df36412	0.11884321
59	0x3ea9a736	0.33135384
60	0xbf89845d	-1.0743519
61	0x3e77b250	0.24189115
62	0xbf2a364d	-0.66489106
63	0xbe637366	-0.2221199
64	0x3fd7a645	1.6847616
65	0xbd02ae9d	-0.031904805
66	0x3fa330b2	1.2749236
67	0x3dc9ebf1	0.098594554
68	0xbc70304f	-0.014659955
69	0x3dc344c7	0.095346026
70	0x3f2f1274	0.6838753
71	0x3f353069	0.70776993
72	0x3f0749e6	0.52847135
73	0xbdca288d	-0.09871016
74	0x3e4dea0d	0.20108815
75	0x3f8c3e2e	1.0956476
76	0x3e2bd2d1	0.16779639
77	0xbefdc084	-0.4956094
78	0x3e57fceb	0.21092574
79	0xbf58bde7	-0.8466477
80	0xbebbb65c	-0.36662567
81	0x3f334ead	0.70041925
82	0xbdffb9d0	-0.12486613
83	0x3fc28e1e	1.5199621
84	0x3e1cb70b	0.153042
85	0x3f438bf0	0.763854
86	0xbf65a4ac	-0.89704394
87	0x3e8642a4	0.26222718
88	0xbf0056ac	-0.5013225
89	0xbefd46fa	-0.49468213
90	0xbf0faa25	-0.56118995
91	0xbebff74f	-0.3749337
92	0xbf0e87aa	-0.55675757
93	0x3f46f819	0.77722317
94	0x3ec935d0	0.39298868
95	0xbdacab3b	-0.08431097
96	0x3e0aca92	0.13553837
97	0x3e98ef32	0.29869992
98	0xbd85d28b	-0.065342985
99	0xbfb28c0f	-1.3948992
100	0xbf5119bb	-0.81679887
101	0x3e63981f	0.22225998
102	0x3d801121	0.06253267
103	0xbea29043	-0.31750688
104	0x3f93751d	1.1520115
105	0x3f8c1e50	1.0946751
106	0xbf540d35	-0.8283265
107	0x3a8be913	0.001067432
108	0x3d2d237f	0.04227018
109	0x3e89a67d	0.26884833
110	0xbedeebeb	-0.43539366
111	0x3c507b70	0.012724742
112	0xbe7ebb58	-0.24876153
113	0x3d49a642	0.04923082
114	0x3ea8f25b	0.32997403
115	0xbb2a0c9a	-0.0025947453
116	0xbdc7d1fa	-0.09756847
117	0xbf36be40	-0.7138405
118	0xbd5b124b	-0.053484242
119	0x3d31ffbd	0.04345678
120	0xbd92409f	-0.07141232
121	0x3df4508c	0.119294256
122	0xbc4d52a5	-0.012531911
123	0x3d3af4b0	0.04564351
124	0x3f2ff41d	0.6873186
125	0x3f6b7e14	0.91989255
126	0x3ec02799	0.3753021
127	0xb91090dc	-0.00013786874
128	0xbe8bccae	-0.27304596
129	0xbe8abe18	-0.27098155
130	0xbeb3fb0b	-0.35152468
131	0xbeb7ea1f	-0.35920808
132	0x3e1e23f3	0.15443401
133	0x3e3d9039	0.18512048
134	0xbe0fc212	-0.14038876
135	0x3dd84a98	0.10561103
136	0xbe6a62e3	-0.22889285
137	0x3e314d93	0.17314748
138	0xbdfa0dfe	-0.122097
139	0xbdd0b713	-0.10191169
140	0xbfb684a2	-1.4259226
141	0x3dca869d	0.09888957
142	0xbca5ee18	-0.020255134
143	0xbe6463a9	-0.22303642
144	0xbe85cd21	-0.26133063
145	0x3e5fee90	0.21868348
146	0x3cb5ef0f	0.022208719
147	0x3c8810ad	0.016609514
148	0x3bafb2cb	0.00536189
149	0xbf0409d7	-0.51577514
150	0x3e2588fd	0.16165538
151	0xbceb54b6	-0.028726917
152	0x3dcf8bc8	0.10134083
153	0x3e218a71	0.15775467
154	0x3eecf616	0.462815
155	0x3d1b5ce4	0.037930384
156	0xbe755fc2	-0.2396231
157	0xbe38290d	-0.1798441
158	0x3e4b6139	0.19861306
159	0x3e2c1935	0.1680649
160	0x3e5a2b39	0.2130555
161	0x3e1fcaa1	0.1560464
162	0xbeac3cad	-0.33640042
163	0xbe391f39	-0.18078317
164	0x3eaa5b18	0.33272624
165	0xbcf26394	-0.029588498
166	0xbdf3514a	-0.11880739
167	0x3ea5c07b	0.32373413
168	0x3d3b74e1	0.04576576
169	0x3dcd56ac	0.10026297
170	0x3d37fb37	0.04491731
171	0x3e10f84d	0.14157219
172	0x3d7b1a50	0.06130439
173	0xbcbe8cff	-0.023260592
174	0xbe55cc4f	-0.20878719
175	0xbeb3e460	-0.35135174
176	0xbfb2aaac	-1.3958335
177	0x3e007e66	0.12548217
178	0xbf3a7d6e	-0.7284764
179	0xbe640b5e	-0.22269961
180	0xbdb3dd3c	-0.087824315
181	0xbd58519f	-0.052812215
182	0x3ec5149b	0.38492283
183	0x3f6a0140	0.9140816
184	0xbd2d4f3d	-0.042311896
185	0x3ee5f6bf	0.44914815
186	0xbe44fc50	-0.19236875
187	0xbdfb504f	-0.12271177
188	0xbf9418b6	-1.1570041
189	0xbe705c98	-0.23472822
190	0xbf9620ef	-1.17288
191	0xbe4dd02a	-0.2009894
192	0xbec09dfe	-0.37620538
193	0x3df5434e	0.11975728
194	0xbe890557	-0.26761886
195	0xbea49268	-0.3214295
196	0x3d1f5858	0.03890261
197	0x3e9834f2	0.29727894
198	0xbd3874ba	-0.045033194
199	0xbde7af51	-0.11312736
200	0x3f095523	0.53645533
201	0xbf362054	-0.7114308
202	0x3cd93672	0.02651522
203	0x3eafcbe0	0.34335232
204	0xbfb344c2	-1.4005358
205	0xbef23fb8	-0.4731424
206	0x3f8ac7ad	1.0842186
207	0x3d1858b7	0.03719398
208	0xbda49222	-0.08035685
209	0xbe92b7bf	-0.28655812
210	0x3fd4b0c1	1.6616441
211	0xbe1600be	-0.1464872
212	0x3f0d805b	0.5527398
213	0x3e99b8f2	0.30023915
214	0xbfb7cbb0	-1.4359035
215	0x3d06269e	0.032751672
216	0xbf24af06	-0.64329565
217	0x3ec6eec2	0.38854033
218	0x3e14ea02	0.14542392
219	0xbd3daeb8	-0.046309203
220	0xbedd3bea	-0.43209773
221	0xbf2cc056	-0.6748098
222	0xbf0f8577	-0.56063026
223	0x3cb82d1d	0.02248245
224	0xbed443cb	-0.41457972
225	0xbf9321cd	-1.149469
226	0xbebb5433	-0.36587676
227	0x3f3152c1	0.692669
228	0xbfa58baf	-1.2933253
229	0x3f04b259	0.51834637
230	0x3ea5b31a	0.32363206
231	0xbf00af8e	-0.50267875
232	0xbdf5999d	-0.1199219
233	0xbf87f8ab	-1.0622762
234	0xbe4f2bba	-0.20231524
235	0xbf03b36d	-0.51445657
236	0x3f32e778	0.69884443
237	0xbed1b227	-0.40956232
238	0xbe114b06	-0.14188775
239	0x3e82172a	0.25408298
240	0x3e28945c	0.16462845
241	0x3e0b7504	0.13618857
242	0x3e9a0482	0.30081564
243	0xbd3062dc	-0.04306303
244	0xbef5288d	-0.478825
245	0xbe30e79b	-0.1727585
246	0xbd3d8071	-0.04626507
247	0xbeacfd15	-0.33786836
248	0xbd8b619d	-0.06805728
249	0x3fb86c69	1.4408084
250	0xbfa6d93a	-1.3035042
251	0xbe837f79	-0.2568319
252	0xbed2c288	-0.4116404
253	0xbef57079	-0.47937372
254	0x3fddef50	1.7338657
255	0x3eb3e7c8	0.35137773

l1/b f4 [20]
0	0xbe51d97a	-0.20493117
1	0x3f24ab5a	0.6432396
2	0xbec415e5	-0.38297954
3	0x3fa31019	1.2739288
4	0xbe290e20	-0.16509295
5	0x3e1c8976	0.15286812
6	0xbf33602c	-0.7006862
7	0xbe30c3e0	-0.1726222
8	0xbdc87fd5	-0.09790007
9	0xbe90f260	-0.28309917
10	0x3f0a241b	0.5396134
11	0xbeee639e	-0.46560377
12	0xbf1fee87	-0.6247334
13	0x3dd98d9c	0.10622713
14	0xbf0a5085	-0.54029113
15	0xbf474b48	-0.77849245
16	0x3c153d21	0.009108813
17	0xbd95795a	-0.072985366
18	0x3f04a12e	0.5180844
19	0xbd03b8d6	-0.032158695

l0/W f4 [50, 171]
0	0x3f3beffa	0.7341305
1	0x3c339696	0.010961195
2	0x3e6acf62	0.22930673
3	0x3e81950f	0.25309035
4	0xbf021b28	-0.5082269
5	0xbeac61f7	-0.3366849
6	0xbe40d418	-0.18830907
7	0x3d85939d	0.065222956
8	0xbccf1c0e	-0.025281932
9	0x3ef069c5	0.46955696
10	0xbd529a26	-0.05141654
11	0xbe5f55db	-0.21810095
12	0xbe29c14d	-0.16577645
13	0x3f2d70d8	0.6775031
14	0x3f13370f	0.5750589
15	0x3dce6e7f	0.10079669
16	0x3d999c71	0.07500542
17	0x3f10730e	0.5642556
18	0x3ee04c58	0.43808246
19	0x3e9aaf92	0.30212075
20	0x3f22a0fc	0.6352689
21	0x3f25fe71	0.6484137
22	0x3e91e5dd	0.28495684
23	0x3c966e92	0.01836327
24	0x3ea8be62	0.3295775
25	0xbdef60e6	-0.11688404
26	0xbd9dec3d	-0.077110745
27	0x3e13a138	0.14416969
28	0x3c579057	0.013156972
29	0x3f0d0617	0.5508742
30	0x3eb59ced	0.35471287
31	0x3d070a07	0.032968547
32	0x3e904d69	0.2818406
33	0x3e3d9c9a	0.1851677
34	0xbdfa141e	-0.12210868
35	0x3f4c2b48	0.7975354
36	0x3f0037ac	0.5008495
37	0x3e7b6367	0.24549638
38	0x3ebf0109	0.37305477
39	0x3e150035	0.1455086
40	0x3e70c6ee	0.23513386
41	0xbcb18fa7	-0.021674944
42	0x3f2533a0	0.645319
43	0x3f0d50df	0.55201524
44	0x3ed1e77b	0.40996918
45	0x3d2b60bb	0.041840296
46	0x3e9fc902	0.31208044
47	0x3e19e2ef	0.15027975
48	0x3ec79ac3	0.3898526
49	0xbe7d6c74	-0.24748403
50	0x3ec6d3a8	0.38833356
51	0x3ef7c532	0.48392636
52	0x3eef4051	0.46728757
53	0x3f255d65	0.64595634
54	0x3f35fb76	0.71086824
55	0x3f436833	0.7633087
56	0x3f20d8e3	0.6283094
57	0x3e90cd16	0.28281468
58	0x3ea3d679	0.31999567
59	0xbdcf007a	-0.10107513
60	0x3e90b6d9	0.28264502
61	0xbd822c5d	-0.06356118
62	0xbda69e3c	-0.081356496
63	0x3dcb6003	0.09930422
64	0xbf0c473b	-0.5479619
65	0xbf29492b	-0.6612727
66	0xbe9f5ab7	-0.31123897
67	0xbf7aa1d1	-0.9790316
68	0xbea61a32	-0.3244186
69	0xbd1ab011	-0.037765566
70	0x3eae5ed9	0.34056738
71	0xbed94633	-0.4243637
72	0xbe9464f7	-0.2898328
73	0xbdac0fee	-0.08401476
74	0x3e8698a4	0.2628833
75	0x3eaa12af	0.3321738
76	0x3f16677b	0.5875165
77	0x3f024547	0.5088696
78	0x3efbba60	0.4916563
79	0x3ebc8d4c	0.3682655
80	0x3e0d4b75	0.13798316
81	0x3d6d364d	0.057913113
82	0xbd368a3a	-0.044565417
83	0x3eadb58b	0.3392757
84	0x3e7c0043	0.24609475
85	0x3e3f7813	0.18698148
86	0xbde3a4d0	-0.1111542
87	0x3df8a402	0.12140657
88	0x3e118f2a	0.14214769
89	0x3ac9d613	0.0015398882
90	0xbe010bfc	-0.12602228
91	0xbed14af4	-0.40877497
92	0x3e76e8c8	0.24112236
93	0x3e2d2070	0.16906905
94	0xbe26b54b	-0.16280095
95	0x3ec57643	0.3856679
96	0x3eaa0f5b	0.3321484
97	0x3eb3772d	0.3505186
98	0x3e354542	0.17702201
99	0x3e606203	0.21912389
100	0x3bfffe45	0.0078122937
101	0xbea384d9	-0.31937292
102	0x3e04865b	0.12941878
103	0x3dae1ee1	0.085019834
104	0xbe04681a	-0.12930337
105	0x3e05ad26	0.13054332
106	0x3f331a55	0.69962054
107	0x3f0dc7ec	0.5538318
108	0x3efec681	0.4976082
109	0x3f027c68	0.5097108
110	0x3f159e8e	0.5844506
111	0x3f1cfe1d	0.61325246
112	0x3f7180b3	0.94337004
113	0x3f327a59	0.6971794
114	0x3f231bfe	0.6371459
115	0x3ef1039a	0.4707306
116	0x3f248354	0.6426289
117	0x3ea05af6	0.31319398
118	0x3f4a4d14	0.7902386
119	0xbd98406b	-0.07434162
120	0x3ecb549a	0.39712983
121	0xbf06e8f9	-0.5269924
122	0x3e9cf495	0.3065535
123	0x3ee45849	0.44598606
124	0xbf054ea9	-0.5207315
125	0xbe2ca42e	-0.16859505
126	0xbd2d82ba	-0.042361
127	0xbe667767	-0.22506486
128	0x3ca3cd39	0.019995319
129	0xbdc8e3c2	-0.09809066
130	0xbadcbe5d	-0.0016841401
131	0xbeb6115e	-0.35560125
132	0xbed9e70c	-0.42559087
133	0xbe3fc384	-0.18726927
134	0xbe16852b	-0.14699237
135	0xbdfa1248	-0.12210518
136	0x3dbf27ad	0.093337394
137	0x3e145c36	0.144883
138	0xbef8019b	-0.48438725
139	0xbf1af6a9	-0.60532624
140	0x3ee33613	0.44377193
141	0x3bccd4b2	0.006250941
142	0xbe61f4e7	-0.22066079
143	0x3dd0bb7d	0.101920106
144	0xbe99e4ef	-0.30057475
145	0x3deb6365	0.114935674
146	0x3d88a4c4	0.066720515
147	0xbf622d7c	-0.88350654
148	0x3eb783ec	0.35842836
149	0xbdeade01	-0.11468125
150	0xbe48b03b	-0.19598477
151	0x3d230ace	0.039805226
152	0x3ee21f01	0.4416428
153	0x3d192b1b	0.037394624
154	0xbe8b8362	-0.27248675
155	0x3de0c28a	0.109746054
156	0xbe5b56f9	-0.21419896
157	0xbbe21f6f	-0.00690072
158	0x3ebcb637	0.3685777
159	0x3d5872ed	0.052843977
160	0xbe80c837	-0.25152752
161	0xbd9519cc	-0.07280311
162	0x3cb959ac	0.022625767
163	0xbea0445c	-0.31302154
164	0x3df7f348	0.12106949
165	0xbd2939ca	-0.041314878
166	0xbe058774	-0.13039953
167	0x3f441106	0.76588476
168	0x3ff53f47	1.9159936
169	0xbd4654a5	-0.048420567
170	0xc0128ca4	-2.289834
171	0x3ef0664f	0.46953055
172	0x3ecad24b	0.39613566
173	0x3f578430	0.8418608
174	0x3f8fbedc	1.1230121
175	0x3e20e4d9	0.15712298
176	0x3ec83b8f	0.3910794
177	0x3f27ac3e	0.65497196
178	0xbd9b862d	-0.075939514
179	0x3e9aa5e8	0.302047
180	0x3ef76f1b	0.48326954
181	0x3daa4f13	0.083158635
182	0x3e92be86	0.28660983
183	0x3e63055c	0.22170013
184	0x3ec0800f	0.375977
185	0x3ecad59b	0.39616093
186	0x3ed215d3	0.41032276
187	0x3f267c97	0.6503386
188	0x3e22f53e	0.15913865
189	0x3ef2732f	0.47353503
190	0x3e6f9a01	0.23398592
191	0x3b7f33c4	0.0038940767
192	0xbeed8390	-0.46389437
193	0xbec5e5a8	-0.38651776
194	0x3e173983	0.14768033
195	0x3dbb8268	0.091557324
196	0xbe48b0fe	-0.19598767
197	0x3ef9984c	0.48749006
198	0x3eeb79d4	0.45991385
199	0x3de36bc7	0.11104541
200	0x3f7ecef5	0.9953454
201	0x3f2f0b81	0.6837693
202	0x3f73afc3	0.95190066
203	0x3f65f5d0	0.89828205
204	0x3f409b5b	0.75237054
205	0x3f53b9a0	0.82705116
206	0x3f918f45	1.1371847
207	0x3f70d8c4	0.9408076
208	0x3fa14ef1	1.2602216
209	0x3e6398b1	0.22226216
210	0x3f32abd0	0.69793415
211	0x3f1da5e9	0.61581284
212	0xbd31a90f	-0.043374117
213	0x3e734eac	0.2376048
214	0x3ec8056a	0.3906663
215	0x3eedbd5e	0.46433538
216	0x3f0aabc3	0.5416834
217	0x3ee70515	0.45121065
218	0x3f02c152	0.51076233
219	0x3ee7480c	0.45172155
220	0x3de23e51	0.11047042
221	0x3e9b107c	0.30286014
222	0x3e25d1a5	0.16193254
223	0x3e274c70	0.16337752
224	0xbcefd2d0	-0.029275328
225	0xbc9b63a0	-0.018968403
226	0x3d927e1c	0.0715296
227	0x3dc87f97	0.09789961
228	0x3e17b421	0.14814807
229	0x3d15db7a	0.036586262
230	0x3cd94c25	0.026525566
231	0x3e66a01d	0.22522016
232	0x3e40f281	0.18842508
233	0x3d7ff368	0.06248799
234	0x3df6f400	0.12058258
235	0x3c8bd42f	0.01706895
236	0xbe1c3705	-0.15255363
237	0x3dab2666	0.08356933
238	0x3e814f1a	0.25255662
239	0x3e97b7fa	0.2963255
240	0x3eee555e	0.46549505
241	0x3eee78a6	0.46576422
242	0xbdf1c521	-0.118051775
243	0xbe95783d	-0.29193297
244	0x3e8b3617	0.27189705
245	0xbe41c2f6	-0.18922028
246	0xbea4fe06	-0.32225055
247	0xbe69d990	-0.228369
248	0xbf152c44	-0.5827067
249	0xbe87f777	-0.26555988
250	0xbe86745e	-0.26260656
251	0xbe31be67	-0.17357789
252	0xbec379b3	-0.38178787
253	0xbdd80eda	-0.10549708
254	0xbed5d99f	-0.41767594
255	0xbea0086e	-0.3125643

l2/b f4 [15]
0	0x3fd54746	1.6662376
1	0x3fefc2a0	1.873127
2	0x3f8ff44c	1.1246428
3	0x3fda3783	1.7048191
4	0xbfcae8b4	-1.5852265
5	0x3ffd5df1	1.9794294
6	0x3f1a85de	0.60360515
7	0x400e9924	2.228097
8	0x3ff9d6d0	1.951868
9	0xc01a530b	-2.4113185
10	0x3f4765b9	0.7788959
11	0x3ed6037f	0.41799542
12	0x3fd85ffe	1.6904294
13	0x3fb332e0	1.3999901
14	0x3f6b1686	0.91831243

l2/W f4 [15, 20]
0	0xbf9060bb	-1.127952
1	0xbeb0c4a6	-0.3452503
2	0x3fd95618	1.6979399
3	0xbfb5347e	-1.4156644
4	0xbfbc0bfe	-1.469116
5	0xbfb84d07	-1.4398507
6	0x3fea6ad9	1.8313857
7	0xc009a368	-2.1505985
8	0xbf022a2a	-0.5084559
9	0xbf889c88	-1.067277
10	0xc011f3d8	-2.280508
11	0xc0010e87	-2.0165117
12	0x3f4391ba	0.76394236
13	0x3fdb89fd	1.7151486
14	0x3fdd6d06	1.7298896
15	0x3f39d649	0.725926
16	0xbfc33e01	-1.5253297
17	0x3f0f898f	0.5606927
18	0xbf300d16	-0.6876997
19	0xc01b4d4f	-2.4265935
20	0xbf87e36a	-1.0616276
21	0xbf1c39f5	-0.61025935
22	0x3febda23	1.8425945
23	0xbff96b04	-1.9485784
24	0xbfadb79d	-1.3571659
25	0xbfbb5e5a	-1.4638169
26	0x3ff09f79	1.8798667
27	0xbff22332	-1.8916991
28	0x3d60a1ca	0.054841794
29	0xbf0f7077	-0.5603098
30	0xc021cecc	-2.5282469
31	0xc001b802	-2.026856
32	0x3f8452eb	1.0337805
33	0x3f92fc6f	1.1483287
34	0x3fc954f4	1.5729051
35	0x3fad1c5a	1.3524277
36	0xbfb949b1	-1.4475614
37	0x3eb86237	0.36012432
38	0xbe10ea00	-0.14151764
39	0xc002186a	-2.03274
40	0xbf90e304	-1.131928
41	0xbf3ff882	-0.7498857
42	0x3ff0cfd0	1.8813419
43	0xc010735f	-2.2570417
44	0xbf9988bc	-1.1994853
45	0xbfb96336	-1.4483402
46	0x3ff36b7f	1.901718
47	0xbfd4aa12	-1.6614401
48	0x3ebeb6a8	0.3724873
49	0xbf1873a9	-0.59551483
50	0xc06c1150	-3.6885567
51	0xbfe9df04	-1.8271184
52	0x3f93d9b4	1.1550813
53	0x3f69dbf3	0.9135124
54	0x3fc0bf6a	1.5058415
55	0x3ff3921b	1.9028963
56	0xbfa83643	-1.3141559
57	0x3e6b3abe	0.22971627
58	0xbe95e4a9	-0.29276016
59	0xbfe3c85e	-1.7795522
60	0xbf914cd0	-1.1351566
61	0xbf120f24	-0.5705435
62	0x3ffa2faa	1.9545796
63	0xc01cbee8	-2.449152
64	0xbf457e95	-0.77146274
65	0xbfd2c347	-1.6465844
66	0x3fee7a33	1.8631042
67	0xbfb7ca65	-1.4358641
68	0x3f0ff04b	0.5622603
69	0xbe705f9f	-0.23473977
70	0xc01d820a	-2.461062
71	0xbfeb907c	-1.8403468
72	0x3f99cbd6	1.2015331
73	0x3f300fd2	0.6877414
74	0x3fbb2f37	1.4623784
75	0x40099cff	2.1502073
76	0xbf975ade	-1.1824605
77	0x3dbd8532	0.092539206
78	0x3f6fa343	0.9360849
79	0xbfca4758	-1.5803022
80	0xbf8a05f2	-1.0783064
81	0xbe82b6f8	-0.2553022
82	0x3fff9bea	1.9969456
83	0xc038cafe	-2.8873897
84	0x3d37bf2a	0.044860043
85	0xbfeab7b2	-1.8337309
86	0x3fe5ba7f	1.7947539
87	0xbf1fc72e	-0.624133
88	0x3f40d907	0.7533116
89	0xc000b7b9	-2.0112135
90	0xc08de822	-4.4345865
91	0xbfc87c86	-1.5663002
92	0x3fb1e834	1.3898988
93	0x3ec2b1cb	0.3802627
94	0x3fc3a968	1.5286074
95	0x4043d2c7	3.0597398
96	0xbf045f83	-0.5170824
97	0xbe614745	-0.21999843
98	0x3fa6741d	1.3004185
99	0xbf82671e	-1.0187719
100	0xbf9a4d14	-1.2054772
101	0x3f61b1d9	0.88162
102	0x3fb9714d	1.4487702
103	0xbfdfb541	-1.7477189
104	0xbf8cd102	-1.1001284
105	0xbfbd504b	-1.4790128
106	0x3fca2a8c	1.5794234
107	0xc00f4b65	-2.2389767
108	0x3f316f8f	0.6931085
109	0xbf9c73c5	-1.222283
110	0xc002d558	-2.0442715
111	0xbfd0ab8e	-1.6302354
112	0x3f81d3dd	1.014278
113	0x3ffc67d7	1.971919
114	0x3fc83c61	1.5643426
115	0x3e8ca725	0.2747127
116	0xbfe7a177	-1.809615
117	0x3f5d3b2f	0.8641843
118	0xbf818745	-1.0119406
119	0xbff1a0fa	-1.8877251
120	0xbf91ea41	-1.1399614
121	0x3e9450f0	0.28968
122	0x3fc8501b	1.5649446
123	0xc011053c	-2.2659445
124	0xbfade20f	-1.3584613
125	0xbfd03304	-1.6265569
126	0x3fd05767	1.6276673
127	0xbfe43f69	-1.7831851
128	0x3f813062	1.009289
129	0xc035f3cb	-2.843005
130	0xbfdc41a1	-1.7207528
131	0xbfdb4f7f	-1.7133635
132	0x3f9ea15f	1.2392997
133	0x3fb877ed	1.4411598
134	0x3fc217ac	1.5163474
135	0x3f6737c5	0.9031947
136	0xbfaf21c7	-1.3682183
137	0x3f34d8b6	0.70643175
138	0xbeb5aac0	-0.35481834
139	0xbfd41b70	-1.6570873
140	0xbf8baf57	-1.0912884
141	0xbc29a69e	-0.010354666
142	0x3fcbc473	1.5919327
143	0xc01eca12	-2.4810834
144	0xbfb582f9	-1.4180595
145	0xbfd83821	-1.6892129
146	0x3fd1ff0f	1.6405963
147	0xbfb520d4	-1.4150643
148	0x3f83fc45	1.0311362
149	0xbf2e9b07	-0.682053
150	0xbfb6b1ca	-1.4273007
151	0xbfdc32ad	-1.7202965
152	0x3faa717a	1.331588
153	0x3f9d86b8	1.2306738
154	0x3fc442c5	1.5332876
155	0x3fab1140	1.3364639
156	0xbf80b636	-1.0055606
157	0x3f0dc5b0	0.5537977
158	0x3f622620	0.88339424
159	0xbfbd3d8f	-1.4784411
160	0xbf86e18f	-1.0537585
161	0xbe87a0b2	-0.26489788
162	0x3fd48023	1.6601604
163	0xc02be8b5	-2.6860783
164	0xbfb9dcb1	-1.4520475
165	0xbfeb601d	-1.8388706
166	0x3fd085a2	1.6290781
167	0xbf882218	-1.0635405
168	0x3f86c779	1.0529624
169	0xbf1ebefa	-0.6201016
170	0xbfc3f259	-1.5308334
171	0xbfca1232	-1.5786803
172	0x3fb538a4	1.415791
173	0x3f85ab23	1.0442852
174	0x3fcd5d86	1.6044166
175	0x3fd0ef4b	1.6323026
176	0xbf25186c	-0.6449039
177	0x3ef84d4d	0.48496476
178	0x3fc9e626	1.5773361
179	0xbfb2ca40	-1.3967972
180	0xbf7b9b98	-0.9828429
181	0xbf2ad7c3	-0.66735476
182	0x3fdc1595	1.7194086
183	0xc04159e9	-3.0211127
184	0xbfb0efcd	-1.3823181
185	0xbfd8c4f0	-1.69351
186	0x3fcfe257	1.6240948
187	0xbeb1f42a	-0.34756595
188	0x3f8fdcd4	1.1239266
189	0xc09564bc	-4.6685467
190	0xbfcd6f94	-1.6049676
191	0xbfb34d83	-1.400803
192	0x3fd36c2c	1.6517386
193	0x3f0e2d45	0.55537826
194	0x3fe4d1b1	1.7876493
195	0x408d9798	4.424755
196	0x3dd74dd9	0.10512895
197	0x3ee395e2	0.4445029
198	0x3f5344bb	0.8252675
199	0xbf954dba	-1.1664345
200	0xbf986efe	-1.1908872
201	0x3fef0cfd	1.8675839
202	0x3f8f15bf	1.1178511
203	0xbfea754d	-1.8317047
204	0xbf411ddb	-0.7543618
205	0xbfdc75e4	-1.7223477
206	0x3f982c8b	1.1888593
207	0xbffbc41a	-1.966922
208	0x3fb07bd8	1.3787794
209	0xc04a6e6c	-3.1629896
210	0xbfc7f49d	-1.5621525
211	0xbfa1707e	-1.2612455
212	0x3f97ff5f	1.1874808
213	0x401107d2	2.2661023
214	0x3fe09b0c	1.7547317
215	0xbe6b2ac1	-0.22965528
216	0xbfbfd40d	-1.4986588
217	0x3f9abc70	1.2088757
218	0xbf8f59f1	-1.1199323
219	0xbfc24978	-1.5178671
220	0xbf9927ee	-1.196531
221	0x3fa87caf	1.316305
222	0x3f95bf6d	1.1699044
223	0xc01b7768	-2.429163
224	0xbf7deee6	-0.99192655
225	0xbfe78c16	-1.8089626
226	0x3f9f1123	1.2427105
227	0xbf9e4bfd	-1.236694
228	0x3fb34345	1.4004904
229	0xc07ce364	-3.9513788
230	0xbfaa666f	-1.331251
231	0xbfaf9be8	-1.3719454
232	0x3fb263f7	1.3936757
233	0x3fdfeec0	1.7494736
234	0x3fdd26d4	1.7277474
235	0x3ea7a7e7	0.32745287
236	0xbf47b9cb	-0.7801787
237	0x3f6ca2dc	0.92436004
238	0xbe849e6b	-0.25902113
239	0xbfb2118f	-1.3911608
240	0xbf9644dd	-1.1739765
241	0x3f7e2ccf	0.9928712
242	0x3f92ce0b	1.1469129
243	0xc0298649	-2.648821
244	0xbf94e0f6	-1.1631153
245	0xbfe56a2c	-1.7923026
246	0x3fa7d07b	1.3110498
247	0xbf6a5147	-0.9153027
248	0x3faae554	1.3351235
249	0xbfdad309	-1.7095653
250	0xbf6779a7	-0.9042
251	0xbfb3aba1	-1.4036752
252	0x3fbee479	1.4913474
253	0x3fbe3c7e	1.4862211
254	0x3fea2002	1.8291018
255	0x3f8e3eec	1.1112952
