sample-agents/jam-rp/target_model.npz (npz, 38891 bytes, 8 tensors)

conv/W f4 [3, 1, 1, 6]
000000 ef 05 e1 3c 19 c8 11 bf ac 7e 9a 3f 1a 4b 46 bf
       0.02746865 -0.5694595 1.2069907 -0.77458346
000010 45 5d 0e bf f8 d7 27 3f 80 e7 d7 bf b9 30 0f c0
       -0.5561107 0.6556392 -1.6867523 -2.2373488
000020 7e b1 4f bf 60 62 23 40 24 1b 22 c0 e1 18 1a c0
       -0.81130207 2.5528793 -2.5329065 -2.4077685
000030 56 d2 2c 3e c5 59 db bf 51 1b dc bf bc 2a dd bf
       0.16877112 -1.713677 -1.7195836 -1.7278666
000040 5f 1e e9 bf 81 5e f5 bf
       -1.8212394 -1.9169465

conv/b f4 [3]
000000 e6 ce 85 be 87 85 05 bd 00 14 ac 3e
       -0.26134413 -0.032598045 0.3360901

l0/b f4 [50]
000000 5c ab b1 3f 90 28 b3 3d ac 64 05 3f fd 6a ab 3f
       1.388042 0.08747971 0.5210674 1.3392025
000010 88 3c ba 3e 8c 88 f1 bf a4 bb 8f bf 21 be 9f bd
       0.36374307 -1.8869796 -1.1229138 -0.07799936
000020 c7 4e 5a 3f 7c 7f c8 3f d1 80 b8 bf 2e a9 55 3f
       0.85276455 1.5663905 -1.4414312 0.8346127
000030 50 8c 0f 40 01 2e 1b bf 43 0a d2 3f 07 bc 6f bf
       2.242939 -0.6061707 1.6409382 -0.9364628
000040 d3 2b 90 3f 85 07 4b 3f 6a 25 a5 be b4 2f 93 be
       1.1263374 0.7930835 -0.32255107 -0.28747332
000050 7a 9c 38 3f 7f f4 85 3f f1 5f a5 3f d1 21 06 3e
       0.72113764 1.0465239 1.2919904 0.13098837
000060 09 27 1d c0 6b c2 42 40 ae bd 7c bf 6b 0b 2f be
       -2.4555075 3.0431163 -0.9872693 -0.170942
000070 8e 42 0b bb 07 c9 53 bf c9 9d 8c bf ef ea 8c 3f
       -0.0021249386 -0.8272862 -1.0985652 1.1009196
000080 19 e1 f2 bf 29 0d a0 bc 66 28 d3 3e 3d d6 00 40
       -1.8974944 -0.019537525 0.4124176 2.013076
000090 7b 55 41 3f 85 3d cd 3f 0b 23 aa 3e b3 bc bd bf
       0.7552106 1.6034399 0.3322986 -1.4823211
0000a0 2f b2 db bf 15 2d 85 bf 32 a2 88 3e 4c 3a d4 3f
       -1.7163752 -1.0404383 0.26686245 1.6580291
0000b0 50 53 85 bf d9 69 0c c0 2e 17 87 3f 89 52 71 bf
       -1.041605 -2.1939604 1.0553949 -0.94266564
0000c0 56 fb 43 3e 0b 57 38 3f
       0.19138846 0.7200782

l1/W f4 [20, 50]
000000 47 2e 75 3e 79 32 cb bd b0 59 55 bd e8 28 0b 3f
       0.23943435 -0.09921736 -0.052087486 0.54359293
000010 17 cc 25 bf eb 7d 1e bf 65 74 8b 3f 8d 68 ca bd
       -0.6476454 -0.61910886 1.0894896 -0.09883223
000020 a7 ff 8d be b8 f0 1f be 2f cd 42 3f 3a c8 a9 be
       -0.2773411 -0.1561917 0.76094335 -0.33160573
000030 39 56 b8 be 9f 16 c4 3e 42 b4 36 bf f9 8e 05 3d
       -0.36003283 0.3829851 -0.713688 0.032607052
000040 fe a4 ba be 61 05 00 3f 4a b3 78 3c de e6 02 bd
       -0.36454004 0.5000821 0.015179465 -0.031958453
000050 eb a5 00 bf fc c4 77 be 7d a4 3c bd 3e 82 73 3d
       -0.5025317 -0.24196237 -0.046055306 0.05945038
000060 5e 5f f4 be 8b e4 af bf 62 c8 87 be 58 37 42 3c
       -0.4772901 -1.3741621 -0.26520067 0.011854015
000070 4d 53 a7 be 61 5e 49 3f 97 a3 8a 3c 3f 84 0c be
       -0.3268074 0.78659636 0.016923709 -0.13722323
000080 16 ec bc bd ff 07 c4 be 93 08 63 3d 1f 91 dd be
       -0.09224717 -0.3828735 0.0554281 -0.4327478
000090 de 43 37 3f c6 b2 3c be 1e 11 dd bd 71 ac 17 3e
       0.7158793 -0.18427572 -0.107942805 0.14811875
0000a0 7d 99 6b be b8 5e 95 be 57 83 12 3e 56 02 c1 3d
       -0.2300777 -0.29173827 0.14307915 0.09424274
0000b0 d3 6a 26 bf 11 81 8d 3e 1c 24 a1 3b 51 3c a6 be
       -0.6500675 0.27637532 0.0049176347 -0.32467893
0000c0 06 c4 80 3d cd 4d 96 3f 24 b7 ee be 1f 58 c5 be
       0.062873885 1.1742493 -0.466241 -0.38543794
0000d0 99 b2 b9 bc 16 75 20 bd 4c 16 e5 3f b3 3d 94 3e
       -0.02266817 -0.03917416 1.789743 0.28953323
0000e0 c1 4d ec be 03 60 3e bd 1d 6a f3 3d ea a6 a9 3e
       -0.46153072 -0.046478283 0.11885474 0.33135158
0000f0 49 84 89 bf 71 ad 77 3e 75 36 2a bf 08 76 63 be
       -1.0743495 0.24187256 -0.66489345 -0.22212994
000100 2f a6 d7 3f b1 b5 02 bd d8 30 a3 3f 70 ea c9 3d
       1.684759 -0.031911556 1.2749281 0.098591685
000110 32 6a 70 bc 6c 45 c3 3d cb 12 2f 3f 57 30 35 3f
       -0.014673756 0.095347255 0.6838805 0.70776886
000120 e0 49 07 3f ff 24 ca bd ae ea 4d 3e 71 3e 8c 3f
       0.528471 -0.09870338 0.20109054 1.0956556
000130 7a cc 2b 3e d2 c0 fd be 9f fd 57 3e ed bd 58 bf
       0.1677722 -0.49561173 0.21092843 -0.84664804
000140 c1 b8 bb be 7e 4e 33 3f 8f b8 ff bd e1 8d c2 3f
       -0.36664394 0.70041645 -0.12486374 1.5199548
000150 ea af 1c 3e f5 8c 43 3f 4d a5 65 bf cc 42 86 3e
       0.15301481 0.7638696 -0.89705354 0.26222837
000160 dd 56 00 bf df 46 fd be fd a9 0f bf e3 f6 bf be
       -0.5013254 -0.49468133 -0.56118757 -0.37493047
000170 01 88 0e bf f1 f7 46 3f 20 36 c9 3e 94 a5 ac bd
       -0.55676275 0.7772208 0.39299107 -0.08430019
000180 f7 ce 0a 3e 47 ef 98 3e 30 da 85 bd 26 8c b2 bf
       0.13555513 0.29870054 -0.065357566 -1.394902
000190 5b 10 51 bf dc bd 63 3e 64 16 80 3d e8 82 a2 be
       -0.8166558 0.22240394 0.06254271 -0.317405
0001a0 93 76 93 3f 1c 1a 8c 3f 6d 16 54 bf 32 0b 9c 3a
       1.1520561 1.0945468 -0.8284672 0.0011905192
0001b0 3e c5 2c 3d b9 b2 89 3e b0 fe de be 52 51 52 3c
       0.042180292 0.26894167 -0.43553686 0.012836771
0001c0 da 95 7e be c6 0b 4a 3d 1b 05 a9 3e 0b 35 2e bb
       -0.24861851 0.049327634 0.33011708 -0.002658191
0001d0 2c ce c7 bd a2 b7 36 bf 16 3a 5b bd 7d 3d 32 3d
       -0.09756121 -0.7137395 -0.053522192 0.04351567
0001e0 03 27 92 bd 59 98 f4 3d 03 0d 4b bc 75 7a 3a 3d
       -0.07136347 0.119431205 -0.012393239 0.04552694
0001f0 d3 ea 2f 3f 25 87 6b 3f 1b 2c c0 3e fe 19 85 b8
       0.6871769 0.9200309 0.3753365 -6.3467756e-05
000200 d2 d6 8b be 0a b3 8a be 49 03 b4 be 56 d8 b7 be
       -0.27312332 -0.2708972 -0.35158756 -0.3590724
000210 76 fe 1d 3e 1e 8d 3d 3e 9d a7 0f be 0d 68 d8 3d
       0.154291 0.18510863 -0.14028783 0.10566721
000220 7d 6a 6a be fc 4f 31 3e cc c2 f9 bd 22 f2 d0 bd
       -0.22892185 0.17315668 -0.12195358 -0.10202433
000230 52 89 b6 bf 74 42 ca 3d 10 c4 a4 bc 32 3e 64 be
       -1.4260657 0.09875956 -0.020113021 -0.2228935
000240 c6 dc 85 be 13 cb 5f 3e 76 8b b6 3c 89 34 87 3c
       -0.26145 0.2185481 0.022283297 0.016504543
000250 a9 6f ae 3b ba 02 04 bf 24 89 25 3e 18 54 eb bc
       0.0053233695 -0.5156666 0.16165596 -0.028726622
000260 fb 87 cf 3d 9d 91 21 3e 11 f2 ec 3e 01 46 1b 3d
       0.10133358 0.15778203 0.46278432 0.037908558
000270 ee 5c 75 be ba 23 38 be 0d 59 4b 3e 6a ff 2b 3e
       -0.23961231 -0.17982379 0.19858189 0.16796651
000280 16 2b 5a 3e f1 dc 1f 3e 9a 3c ac be 05 2f 39 be
       0.21305498 0.15611626 -0.33639985 -0.18084343
000290 e2 5a aa 3e 46 61 f2 bc 35 6f f3 bd 9a c7 a5 3e
       0.33272463 -0.0295874 -0.118864454 0.32378846
0002a0 93 bd 3b 3d 48 2e cd 3d 71 27 38 3d 01 f2 10 3e
       0.04583509 0.10018593 0.04495949 0.14154817
0002b0 ca 1f 7b 3d e5 79 be bc 6a c9 55 be 8b ed b3 be
       0.061309613 -0.023251483 -0.20877615 -0.35142168
0002c0 c2 a8 b2 bf d1 79 00 3e 78 81 3a bf 13 0e 64 be
       -1.3957751 0.1254647 -0.72853804 -0.22270994
0002d0 d2 be b3 bd 85 46 58 bd 88 14 c5 3e bb ff 69 3f
       -0.087766305 -0.052801628 0.38492227 0.9140584
0002e0 07 09 2d bd ce eb e5 3e a7 dd 44 be 31 5f fb bd
       -0.042244937 0.44906467 -0.19225179 -0.12274016
0002f0 dc 18 94 bf d8 4e 70 be f3 20 96 bf ed d0 4d be
       -1.1570086 -0.23467577 -1.1728805 -0.2009923
000300 44 9e c0 be a5 43 f5 3d 2b 08 89 be 65 9d a4 be
       -0.37620747 0.11975793 -0.26764044 -0.32151332
000310 30 ee 1e 3d 5d 33 98 3e f7 4f 38 bd 04 a7 e7 bd
       0.038801372 0.29726687 -0.044998135 -0.113111526
000320 44 53 09 3f 39 22 36 bf 03 69 d9 3c 25 c8 af 3e
       0.5364268 -0.7114597 0.026539331 0.34332386
000330 8f 44 b3 bf 03 3c f2 be 9c c8 8a 3f f3 45 18 3d
       -1.4005297 -0.4731141 1.0842471 0.037176084
000340 a9 95 a4 bd 41 bc 92 be b0 b1 d4 3f eb 01 16 be
       -0.08036358 -0.2865925 1.6616726 -0.14649169
000350 7c 7e 0d 3f 09 b8 99 3e a0 cc b7 bf 87 03 06 3d
       0.55271125 0.3002322 -1.4359322 0.032718208
000360 7e ae 24 bf 1b eb c6 3e f8 e8 14 3e e8 9b 3d bd
       -0.64328754 0.38851246 0.14541996 -0.046291262
000370 b3 3f dd be 42 c2 2c bf 54 87 0f bf 29 5f b8 3c
       -0.4321266 -0.67483914 -0.5606587 0.022506313
000380 0e 40 d4 be b3 22 93 bf 12 52 bb be e3 50 31 3f
       -0.4145512 -1.1494964 -0.36586052 0.6926405
000390 cb 8a a5 bf fb b0 04 3f 71 b5 a5 3e 67 b1 00 bf
       -1.2932981 0.5183255 0.3236499 -0.50270694
0003a0 a4 8a f5 bd f6 f7 87 bf 49 2a 4f be 79 b4 03 bf
       -0.11989334 -1.0622547 -0.20230974 -0.51447254
0003b0 35 e8 32 3f c6 af d1 be 9d 52 11 be 75 19 82 3e
       0.6988557 -0.40954417 -0.1419167 0.25410047
0003c0 d7 9b 28 3e 59 7c 0b 3e 1e 01 9a 3e cb 80 30 bd
       0.16465698 0.13621654 0.30078977 -0.043091577
0003d0 df 24 f5 be 82 e5 30 be 43 98 3d bd 80 f9 ac be
       -0.47879693 -0.1727505 -0.046287786 -0.33784103
0003e0 36 64 8b bd 9b 6b b8 3f f6 db a6 bf 98 8a 83 be
       -0.06806223 1.4407839 -1.3035877 -0.25691676
0003f0 c8 be d2 be ef 73 f5 be e6 ec dd 3f 7c e9 b3 3e
       -0.4116118 -0.47940013 1.7337921 0.35139072

l1/b f4 [20]
000000 c9 ec 51 be 32 ab 24 3f 26 03 c4 be 1e 10 a3 3f
       -0.20500483 0.64323723 -0.38283652 1.2739294
000010 9b 15 29 be 96 73 1c 3e 7b 5d 33 bf ea ba 30 be
       -0.16512148 0.15278468 -0.70064515 -0.17258802
000020 0b 72 c8 bd e0 f1 90 be 4c 23 0a 3f 51 68 ee be
       -0.09787377 -0.28309536 0.5396011 -0.46563962
000030 89 ea 1f bf 0c be d9 3d 8d 4a 0a bf 0b 49 47 bf
       -0.6246725 0.10631952 -0.54020005 -0.7784583
000040 8f 84 14 3c fb 69 95 bd 8f a0 04 3f 42 bd 03 bd
       0.009064808 -0.07295605 0.5180749 -0.032162912

l0/W f4 [50, 171]
000000 fa ef 3b 3f bb 96 33 3c 64 cf 6a 3e 10 95 81 3e
       0.7341305 0.01096123 0.22930676 0.25309038
000010 27 1b 02 bf f5 61 ac be 14 d4 40 be a4 93 85 3d
       -0.5082268 -0.33668485 -0.18830901 0.06522301
000020 f3 1b cf bc c7 69 f0 3e 18 9a 52 bd da 55 5f be
       -0.025281882 0.46955702 -0.051416487 -0.21810094
000030 4c c1 29 be d8 70 2d 3f 0f 37 13 3f 80 6e ce 3d
       -0.16577643 0.6775031 0.5750589 0.1007967
000040 72 9c 99 3d 0e 73 10 3f 58 4c e0 3e 92 af 9a 3e
       0.07500543 0.5642556 0.43808246 0.30212075
000050 fc a0 22 3f 71 fe 25 3f dd e5 91 3e 91 6e 96 3c
       0.6352689 0.6484137 0.28495684 0.018363269
000060 62 be a8 3e e6 60 ef bd 3d ec 9d bd 38 a1 13 3e
       0.3295775 -0.11688404 -0.077110745 0.14416969
000070 56 90 57 3c 17 06 0d 3f ed 9c b5 3e 06 0a 07 3d
       0.013156971 0.5508742 0.35471287 0.032968543
000080 69 4d 90 3e 9a 9c 3d 3e 1f 14 fa bd 48 2b 4c 3f
       0.2818406 0.1851677 -0.12210869 0.7975354
000090 ac 37 00 3f 67 63 7b 3e 09 01 bf 3e 35 00 15 3e
       0.5008495 0.24549638 0.37305477 0.1455086
0000a0 ee c6 70 3e aa 8f b1 bc a0 33 25 3f df 50 0d 3f
       0.23513386 -0.02167495 0.645319 0.55201524
0000b0 7b e7 d1 3e bc 60 2b 3d 02 c9 9f 3e ef e2 19 3e
       0.40996918 0.0418403 0.31208044 0.15027975
0000c0 c3 9a c7 3e 74 6c 7d be a8 d3 c6 3e 32 c5 f7 3e
       0.3898526 -0.24748403 0.38833356 0.48392636
0000d0 51 40 ef 3e 65 5d 25 3f 76 fb 35 3f 33 68 43 3f
       0.46728757 0.64595634 0.71086824 0.7633087
0000e0 e3 d8 20 3f 16 cd 90 3e 79 d6 a3 3e 7a 00 cf bd
       0.6283094 0.28281468 0.31999567 -0.10107513
0000f0 d9 b6 90 3e 5d 2c 82 bd 3c 9e a6 bd 03 60 cb 3d
       0.28264502 -0.06356118 -0.081356496 0.09930422
000100 3b 47 0c bf 2b 49 29 bf b7 5a 9f be d1 a1 7a bf
       -0.5479619 -0.6612727 -0.31123897 -0.9790316
000110 32 1a a6 be 11 b0 1a bd d9 5e ae 3e 33 46 d9 be
       -0.3244186 -0.037765566 0.34056738 -0.4243637
000120 f7 64 94 be ee 0f ac bd a4 98 86 3e af 12 aa 3e
       -0.2898328 -0.08401476 0.2628833 0.3321738
000130 7b 67 16 3f 47 45 02 3f 60 ba fb 3e 4c 8d bc 3e
       0.5875165 0.5088696 0.4916563 0.3682655
000140 75 4b 0d 3e 4e 36 6d 3d 39 8a 36 bd 8b b5 ad 3e
       0.13798316 0.057913117 -0.044565413 0.3392757
000150 43 00 7c 3e 13 78 3f 3e d0 a4 e3 bd 02 a4 f8 3d
       0.24609475 0.18698148 -0.1111542 0.12140657
000160 2a 8f 11 3e 30 d6 c9 3a f9 0b 01 be f3 4a d1 be
       0.14214769 0.0015398916 -0.12602223 -0.40877494
000170 c7 e8 76 3e 70 20 2d 3e 4b b5 26 be 43 76 c5 3e
       0.24112235 0.16906905 -0.16280095 0.3856679
000180 5b 0f aa 3e 2d 77 b3 3e 41 45 35 3e 02 62 60 3e
       0.3321484 0.3505186 0.177022 0.21912387
000190 81 fe ff 3b d8 84 a3 be 5d 86 04 3e e4 1e ae 3d
       0.0078123217 -0.3193729 0.1294188 0.08501986
0001a0 18 68 04 be 28 ad 05 3e 55 1a 33 3f ec c7 0d 3f
       -0.12930334 0.13054335 0.69962054 0.5538318
0001b0 82 c6 fe 3e 69 7c 02 3f 8f 9e 15 3f 1e fe 1c 3f
       0.49760824 0.50971085 0.58445066 0.6132525
0001c0 b4 80 71 3f 5a 7a 32 3f ff 1b 23 3f 9b 03 f1 3e
       0.9433701 0.69717944 0.63714594 0.47073063
0001d0 55 83 24 3f f7 5a a0 3e 15 4d 4a 3f 67 40 98 bd
       0.64262897 0.313194 0.7902387 -0.07434159
0001e0 9b 54 cb 3e f8 e8 06 bf 96 f4 9c 3e 4a 58 e4 3e
       0.39712986 -0.5269923 0.30655354 0.4459861
0001f0 a8 4e 05 bf 2b a4 2c be b0 82 2d bd 65 77 66 be
       -0.52073145 -0.168595 -0.04236096 -0.22506483
000200 49 cd a3 3c be e3 c8 bd 5a bd dc ba 5d 11 b6 be
       0.019995349 -0.098090634 -0.0016841099 -0.35560122
000210 0b e7 d9 be 81 c3 3f be 28 85 16 be 45 12 fa bd
       -0.42559084 -0.18726923 -0.14699233 -0.12210516
000220 bc 27 bf 3d 28 5c 14 3e 9b 01 f8 be a8 f6 1a bf
       0.093337506 0.1448828 -0.48438725 -0.6053262
000230 12 36 e3 3e 15 d5 cc 3b e7 f4 61 be 7c bb d0 3d
       0.4437719 0.0062509873 -0.22066079 0.1019201
000240 ed e4 99 be 4a 63 eb 3d c4 a4 88 3d 7a 2d 62 bf
       -0.3005747 0.11493547 0.066720515 -0.8835064
000250 eb 83 b7 3e ff dd ea bd 3b b0 48 be ea 0a 23 3d
       0.35842833 -0.11468124 -0.19598477 0.03980533
000260 06 1f e2 3e 23 2b 19 3d 62 83 8b be 98 c2 e0 3d
       0.44164294 0.037394654 -0.27248675 0.10974616
000270 ed 56 5b be 59 1e e2 bb 37 b6 bc 3e 12 73 58 3d
       -0.21419878 -0.0069005904 0.3685777 0.052844115
000280 32 c8 80 be af 19 95 bd ad 59 b9 3c 54 44 a0 be
       -0.25152737 -0.072802894 0.022625769 -0.3130213
000290 50 f3 f7 3d 01 3a 29 bd 74 87 05 be 08 11 44 3f
       0.12106955 -0.041315082 -0.13039953 0.7658849
0002a0 48 3f f5 3f 95 54 46 bd a4 8c 12 c0 2f 66 f0 3e
       1.9159937 -0.048420507 -2.289834 0.4695296
0002b0 33 d2 ca 3e 2b 84 57 3f db be 8f 3f d1 e4 20 3e
       0.39613494 0.8418605 1.123012 0.15712287
0002c0 8e 3b c8 3e 3b ac 27 3f 32 86 9b bd e7 a5 9a 3e
       0.39107937 0.6549718 -0.07593955 0.30204698
0002d0 18 6f f7 3e 12 4f aa 3d 86 be 92 3e 5e 05 63 3e
       0.48326945 0.08315863 0.28660983 0.22170016
0002e0 06 80 c0 3e 93 d5 ca 3e d1 15 d2 3e 92 7c 26 3f
       0.37597674 0.3961607 0.4103227 0.6503383
0002f0 25 f5 22 3e 2d 73 f2 3e ff 99 6f 3e f0 30 7f 3b
       0.15913828 0.47353497 0.23398589 0.003893908
000300 97 83 ed be e8 e5 c5 be 92 39 17 3e 10 82 bb 3d
       -0.46389458 -0.38651967 0.14768055 0.09155667
000310 04 b1 48 be 13 98 f9 3e 95 79 eb 3e c5 6a e3 3d
       -0.19598776 0.48748836 0.45991197 0.11104349
000320 ea ce 7e 3f 7e 0b 2f 3f c4 af 73 3f d0 f5 65 3f
       0.99534476 0.6837691 0.9519007 0.89828205
000330 4c 9b 40 3f 9d b9 53 3f 38 8f 91 3f a7 d8 70 3f
       0.75236964 0.827051 1.1371832 0.94080585
000340 ed 4e a1 3f 36 98 63 3e c7 ab 32 3f e4 a5 1d 3f
       1.2602211 0.22226033 0.6979336 0.61581254
000350 62 aa 31 bd 72 4e 73 3e 61 05 c8 3e 4b bd ed 3e
       -0.04337538 0.23760393 0.39066604 0.46433482
000360 bf ab 0a 3f 0c 05 e7 3e 51 c1 02 3f 0a 48 e7 3e
       0.54168314 0.45121038 0.5107623 0.4517215
000370 4d 3e e2 3d 7c 10 9b 3e a5 d1 25 3e 70 4c 27 3e
       0.11047039 0.30286014 0.16193254 0.16337752
000380 d6 d2 ef bc a3 63 9b bc 19 7e 92 3d 94 7f c8 3d
       -0.02927534 -0.018968409 0.071529575 0.097899586
000390 20 b4 17 3e 76 db 15 3d 1a 4c d9 3c 1b a0 66 3e
       0.14814806 0.036586247 0.026525546 0.22522013
0003a0 7f f2 40 3e 64 f3 7f 3d 01 f4 f6 3d 05 d4 8b 3c
       0.18842505 0.062487975 0.12058259 0.017068872
0003b0 0f 37 1c be 55 26 ab 3d 15 4f 81 3e f4 b7 97 3e
       -0.15255378 0.08356921 0.25255647 0.29632533
0003c0 5b 55 ee 3e a1 78 ee 3e 45 c5 f1 bd 62 78 95 be
       0.46549496 0.46576408 -0.11805204 -0.29193407
0003d0 9e 35 8b 3e f0 c3 41 be 85 fe a4 be 86 da 69 be
       0.27189344 -0.189224 -0.32225433 -0.22837266
0003e0 7f 2c 15 bf f0 f7 87 be cf 74 86 be 49 bf 31 be
       -0.5827102 -0.2655635 -0.26260993 -0.17358126
0003f0 de 79 c3 be 75 0f d8 bd b2 d9 d5 be 71 08 a0 be
       -0.38178915 -0.10549823 -0.4176765 -0.3125644

l2/b f4 [15]
000000 f5 46 d5 3f dd c2 ef 3f 34 f3 8f 3f 49 38 da 3f
       1.6662279 1.8731343 1.1246095 1.7048427
000010 17 e8 ca bf 89 5e fd 3f 06 89 1a 3f 14 99 0e 40
       -1.5852078 1.9794475 0.6036533 2.2280931
000020 64 d6 f9 3f 3f 52 1a c0 38 67 47 3f b9 08 d6 3e
       1.9518552 -2.41127 0.77891874 0.4180353
000030 31 60 d8 3f 66 33 b3 3f b0 17 6b 3f
       1.6904355 1.400006 0.9183302

l2/W f4 [15, 20]
000000 ac 60 90 bf a7 c5 b0 be e4 55 d9 3f fb 34 b5 bf
       -1.1279502 -0.34525797 1.6979337 -1.4156793
000010 d0 0b bc bf c9 4c b8 bf de 6a ea 3f b4 a3 09 c0
       -1.4691105 -1.4398433 1.8313863 -2.1506166
000020 4b 2d 02 bf 37 9c 88 bf 9f f3 11 c0 56 0e 01 c0
       -0.5085036 -1.0672673 -2.2804945 -2.0165
000030 8a 92 43 3f 43 89 db 3f 38 6c dd 3f a5 d5 39 3f
       0.76395476 1.7151264 1.7298651 0.7259162
000040 7d 3d c3 bf 6f 8b 0f 3f d8 0d 30 bf e7 4c 1b c0
       -1.525314 0.56072134 -0.68771124 -2.4265687
000050 c2 e3 87 bf e8 38 1c bf 24 da eb 3f 44 6a f9 bf
       -1.0616381 -0.6102433 1.8425946 -1.9485555
000060 15 b8 ad bf 47 5e bb bf b6 a0 f0 3f c7 22 f2 bf
       -1.3571802 -1.4638146 1.8799045 -1.8916863
000070 84 b5 60 3d f2 70 0f bf f4 ce 21 c0 71 b7 01 c0
       0.054860607 -0.56031716 -2.5282564 -2.0268214
000080 ea 51 84 3f 34 fd 92 3f 76 55 c9 3f 73 1c ad 3f
       1.0337498 1.1483521 1.5729206 1.3524307
000090 05 4b b9 bf 8b 60 b8 3e 34 e8 10 be 76 18 02 c0
       -1.4476019 0.36011156 -0.14151078 -2.032743
0000a0 2e e1 90 bf b1 fa 3f bf 29 ce f0 3f 85 73 10 c0
       -1.1318719 -0.749919 1.8812915 -2.2570508
0000b0 7d 87 99 bf 9d 61 b9 bf 37 6b f3 3f 6c a9 d4 bf
       -1.1994473 -1.4482914 1.9017094 -1.6614203
0000c0 c5 b7 be 3e 79 71 18 bf bb 10 6c c0 9b dd e9 bf
       0.3724958 -0.59548146 -3.6885211 -1.8270754
0000d0 7c d8 93 3f bf da 69 3f 56 bf c0 3f f4 90 f3 3f
       1.1550441 0.91349405 1.5058391 1.9028611
0000e0 9f 35 a8 bf 62 30 6b 3e ec e8 95 be 2b c8 e3 bf
       -1.3141364 0.22967675 -0.29279268 -1.7795461
0000f0 bc 4d 91 bf 4b 0d 12 bf ab 30 fa 3f b3 be 1c c0
       -1.1351848 -0.57051533 1.9546102 -2.4491394
000100 71 80 45 bf 21 c4 d2 bf 3e 7a ee 3f 4e ca b7 bf
       -0.7714911 -1.6466104 1.8631055 -1.4358613
000110 da f1 0f 3f d0 65 70 be 67 82 1d c0 48 91 eb bf
       0.5622841 -0.23476338 -2.4610841 -1.8403711
000120 ed cc 99 3f 05 11 30 3f 34 2f bb 3f 63 9d 09 40
       1.2015663 0.6877597 1.462378 2.1502311
000130 29 5b 97 bf 67 85 bd 3d cd a4 6f 3f ea 47 ca bf
       -1.1824695 0.0925396 0.9361084 -1.5803196
000140 0c 06 8a bf 0c b5 82 be b4 9b ff 3f ea ca 38 c0
       -1.0783095 -0.25528753 1.9969392 -2.887385
000150 c0 b6 37 3d f0 b8 ea bf e5 b9 e5 3f bf c6 1f bf
       0.04485202 -1.8337688 1.7947356 -0.6241264
000160 d9 d9 40 3f 08 b8 00 c0 48 e8 8d c0 41 7d c8 bf
       0.7533241 -2.0112324 -4.4346046 -1.5663224
000170 5c e9 b1 3f e4 b4 c2 3e 90 a8 c3 3f 19 d3 43 40
       1.3899341 0.38028634 1.5285816 3.0597594
000180 86 5f 04 bf 9d 43 61 be b3 74 a6 3f b9 67 82 bf
       -0.5170826 -0.21998449 1.3004364 -1.0187904
000190 30 4d 9a bf 41 b3 61 3f 87 71 b9 3f db b4 df bf
       -1.2054806 0.88164145 1.4487771 -1.7477068
0001a0 b0 d1 8c bf 1d 50 bd bf 2b 2a ca 3f 65 4b 0f c0
       -1.1001492 -1.4790074 1.5794119 -2.2389767
0001b0 9f 6e 31 3f 5d 74 9c bf a5 d5 02 c0 35 ac d0 bf
       0.6930942 -1.2223011 -2.0442898 -1.6302553
0001c0 0d d3 81 3f cc 67 fc 3f 45 3c c8 3f 51 a9 8c 3e
       1.0142533 1.9719176 1.5643393 0.27472928
0001d0 fc a1 e7 bf 36 3b 5d 3f bf 86 81 bf f7 a0 f1 bf
       -1.8096309 0.86418474 -1.0119246 -1.8877248
0001e0 6c eb 91 bf 27 57 94 3e 79 50 c8 3f 75 04 11 c0
       -1.139997 0.28972742 1.5649558 -2.265897
0001f0 9a e3 ad bf 45 34 d0 bf 5d 57 d0 3f f2 3f e4 bf
       -1.3585083 -1.6265951 1.6276661 -1.7832015
000200 5a 31 81 3f 99 f4 35 c0 34 43 dc bf 04 51 db bf
       1.0093186 -2.843054 -1.7208009 -1.7134099
000210 91 a1 9e 3f ef 78 b8 3f 8d 17 c2 3f ea 3a 67 3f
       1.2393056 1.4411906 1.5163437 0.9032427
000220 32 22 af bf e8 d8 34 3f ab a4 b5 be 4d 1c d4 bf
       -1.368231 0.7064347 -0.35477194 -1.6571137
000230 17 b1 8b bf 3b 2d 29 bc b4 c6 cb 3f 74 ca 1e c0
       -1.0913419 -0.010325725 1.5920014 -2.4811068
000240 03 84 b5 bf 34 38 d8 bf 6a fe d1 3f 9e 21 b5 bf
       -1.4180912 -1.6892152 1.6405766 -1.4150884
000250 47 f9 83 3f c8 9a 2e bf ac b1 b6 bf 5f 32 dc bf
       1.0310448 -0.6820493 -1.4272971 -1.7202872
000260 d2 70 aa 3f bc 84 9d 3f 32 41 c4 3f 26 11 ab 3f
       1.331568 1.2306132 1.5332396 1.3364608
000270 57 b5 80 bf 75 ca 0d 3f d8 25 62 3f 5c 3b bd bf
       -1.005534 0.5538705 0.88338995 -1.478374
000280 5e e3 86 bf 02 9c 87 be 92 80 d4 3f ad e8 2b c0
       -1.0538137 -0.26486212 1.6601737 -2.6860764
000290 fa dd b9 bf 95 60 eb bf 67 86 d0 3f ad 22 88 bf
       -1.4520867 -1.838885 1.6291016 -1.0635582
0002a0 22 c6 86 3f 23 be 1e bf f4 f1 c3 bf 85 11 ca bf
       1.0529215 -0.62008876 -1.5308213 -1.5786597
0002b0 57 39 b5 3f 05 aa 85 3f a0 5d cd 3f dc ee d0 3f
       1.4158124 1.0442511 1.6044197 1.6322894
0002c0 ed 17 25 bf 83 4f f8 3e bc e5 c9 3f e2 c8 b2 bf
       -0.6448963 0.48498163 1.5773234 -1.3967555
0002d0 a5 9f 7b bf af d2 2a bf 5c 16 dc 3f a6 58 41 c0
       -0.98290473 -0.6672773 1.7194324 -3.0210357
0002e0 b7 f2 b0 bf 92 c5 d8 bf 94 e1 cf 3f 17 f2 b1 be
       -1.3824071 -1.6935294 1.6240716 -0.34755012
0002f0 41 de 8f 3f 22 65 95 c0 54 71 cd bf 94 4e b3 bf
       1.1239702 -4.6685953 -1.605021 -1.4008355
000300 ca 6b d3 3f cb 2e 0e 3f 48 d2 e4 3f fb 97 8d 40
       1.651727 0.5554015 1.7876673 4.4248023
000310 9e 38 d7 3d 2a 96 e3 3e 1f 48 53 3f bc 4e 95 bf
       0.10508846 0.44450504 0.82531923 -1.1664653
000320 97 6f 98 bf b5 0d ef 3f a6 16 8f 3f d1 74 ea bf
       -1.1909055 1.8676058 1.1178787 -1.83169
000330 d1 1e 41 bf 6a 76 dc bf 13 2d 98 3f de c4 fb bf
       -0.7543765 -1.7223637 1.1888756 -1.9669454
000340 af 7b b0 3f cc 6e 4a c0 66 f5 c7 bf 1b 71 a1 bf
       1.3787745 -3.1630125 -1.5621765 -1.2612642
000350 76 ff 97 3f d7 07 11 40 08 9b e0 3f c2 24 6b be
       1.1874835 2.2661035 1.7547312 -0.2296324
000360 1a d4 bf bf 27 bc 9a 3f 29 59 8f bf db 49 c2 bf
       -1.4986603 1.208867 -1.1199085 -1.5178789
000370 b5 29 99 bf 65 7e a8 3f 8b c0 95 3f af 76 1b c0
       -1.1965853 1.3163573 1.1699384 -2.4291189
000380 8c f2 7d bf ed 8c e7 bf 9f 11 9f 3f c6 4d 9e bf
       -0.9919822 -1.8089882 1.2427253 -1.2367485
000390 b0 42 b3 3f 0b e4 7c c0 a2 67 aa bf ca 9c af bf
       1.4004726 -3.9514186 -1.3312876 -1.3719723
0003a0 82 64 b2 3f 3c ef df 3f df 27 dd 3f a4 ac a7 3e
       1.3936923 1.7494884 1.7277793 0.32748902
0003b0 ad ba 47 bf e9 a0 6c 3f 86 99 84 be 58 12 b2 bf
       -0.7801922 0.9243303 -0.2589838 -1.3911848
0003c0 f6 44 96 bf 03 2d 7e 3f 8b cd 92 3f eb 85 29 c0
       -1.1739795 0.9928743 1.1468977 -2.6487987
0003d0 1f e1 94 bf 73 6a e5 bf ec ce a7 3f 1c 51 6a bf
       -1.1631202 -1.7923111 1.3110023 -0.91530013
0003e0 22 e5 aa 3f 3c d3 da bf f0 79 67 bf d1 ab b3 bf
       1.3351176 -1.7095714 -0.90420437 -1.4036809
0003f0 51 e4 be 3f 46 3c be 3f 1c 1f ea 3f 20 3f 8e 3f
       1.4913427 1.4862144 1.8290744 1.1113014
