sample-agents/circuit-dqn-lmd0/model.npz (npz, 32759 bytes, 8 tensors)

l2/b f4 [15]
00000000: fd54 a740 d865 b240 3077 c040 b711 d040
00000010: 7a9d fe40 84cb aa40 3eaa ab40 dfd6 b240
00000020: 2be1 d240 2e2e 0241 e3ca dd40 9c84 e240
00000030: ff54 0141 3d87 0441 a5ae 1c41
5.2291245 5.574932 6.0145493 6.5021625 7.956723 5.337343 5.3645315 5.5887294
6.5899863 8.136274 6.9310164 7.0786877 8.083251 8.283017 9.792638

l1/W f4 [20, 50]
00000000: bab5 cbbf 4bc5 bc3f ea2f b7bf 219f dd3f
00000010: 9139 03c0 7e7a 3cc0 cfc2 043f 5ee4 2c3f
00000020: 73f7 e33f c3ba 5c40 99fa 84bf b09e 463e
00000030: 5c3d 0bbf aa5d 99bf 3866 ca3f 925a bb3e
00000040: b4a1 da3e e169 1140 7e72 64be 7b6c 8f3f
00000050: d364 783d 13b8 7abe c8bd 60be 044c 983d
00000060: 8212 6440 bb8f dc3f 63ff 80be 96d4 ecbf
00000070: 02bd 94bf 6f5f 0cbf ba81 1ec0 dd1f 2140
00000080: d44c f2bf cb1d 963f 020e 34c0 fea4 3fbe
00000090: ae33 95bf b2f6 35bf 5d76 283f e207 953d
000000a0: 8d01 15bf 30d1 58bf 5cc6 93bc 2992 df3e
000000b0: bf28 a13e 78ae 41bd 408d 933d 08d1 6e3f
000000c0: f3b7 dd3e 3737 a4be 4559 99bf 70ab b8be
000000d0: 878f ec3f 5567 91bf f7d2 ad3e 7477 55bf
000000e0: 9d5e ad3e a027 0dbf e8c7 6c40 c126 783f
000000f0: b6ba ebbe 8042 10bf 0ce5 bdbf 2602 10bf
00000100: 9a07 903e 7fe5 c5be 8c37 24bf 3245 a2bf
00000110: 88a0 cbbd 47c4 d73c 8fb0 39be 2d35 7c3f
00000120: 9a17 8a3f 5a48 b73f 2693 5d3e 96c7 263f
00000130: f3c3 503f 83e8 25bf f938 81be 898c 00bf
00000140: 4ac6 aa3f d0fc 1a3d 14ce 43bf 27c5 e5bf
00000150: a3c0 05c0 0b01 183e d12c 0440 a772 bfbf
00000160: fe10 a0bf 80ba 4c3f 8912 31bf bc73 833f
00000170: 98df 26bf 9985 dbbf 2f97 e3bf 17e9 d03f
00000180: f6a6 683f a654 ad3f 0a87 c1bf 2e27 e4be
00000190: 1fd7 14bc d9da bfbe 4274 25bf a751 293f
000001a0: ffd7 a6bd 586f 77bd 5b59 1f3f 6418 1b3e
000001b0: c840 f5bc 76c1 1dbe b7fa 52be 443d a5ba
000001c0: 08b6 703d 8a3e 573e 62db f3be 18a0 f7bd
000001d0: 972b 8dbd c5a7 c0be 6cbd 103f d9a2 98bf
000001e0: 34f7 313f 8114 18be d2b0 92bd 3cec b63e
000001f0: f204 4bbf d3b3 a1be 3fdb 473e c477 f7bd
00000200: 301f dabe 1916 093f 44aa 4b3e c2fc 293e
00000210: 51df 4d3d 9dc4 613f 8850 cebe 5d5c 23be
00000220: 3878 a93f e91a d9bd 654b 1e3f 921f a1be
00000230: 4703 e93d aa1f f6bd 5cb8 8abe 9e3a 4fbf
00000240: 247c 30bd c6b3 d23c 7c6a 043f 3d49 1e3e
00000250: b281 6f3d 9c41 e33b 6e35 80be 618f 8ebc
00000260: 3d80 663f 7c73 9b3f ba7c c7bd 72e4 433f
00000270: 50aa 55bf 585c cf3e a25c e0bf 782c d23e
00000280: 14a0 3e3f db3b a83e 13e5 87bf 4830 a73e
00000290: 8c58 0f3f 9750 613f f971 273f 425a 503e
000002a0: 5415 cdbe e584 c23f a03a 00be 2fb8 31bf
000002b0: 120a d5bf d059 24bf 1b61 f93f 3584 8c3e
000002c0: 0ac7 82be 913d 65bd f288 c3bb 15f5 24bf
000002d0: c61b c4bf 4db8 c13d 1f17 dcbd 5786 dd3f
000002e0: c4a5 ab3f 8cc7 96be ac67 01bf 5461 2cbb
000002f0: 9456 53bf cf43 13bf f206 ee3d 3ad3 f23e
00000300: a972 7b3f ec0f 9b3f b765 be3f 4193 a7bf
00000310: 45b7 e9be 6623 9abf 3cc3 1abf 44f2 2c3f
00000320: a98c 473f 0941 0e3f bd66 c0bf 1705 3640
00000330: adc7 953e 598a 293f c0e5 3dbf 601b 953e
00000340: c744 95c0 1740 18bf 58cd 003f bede 423f
00000350: ee05 3d3f c3f1 033e 96ae 47bf a2ae e43c
00000360: 6303 40be cc07 823f f844 bd3e 6ec3 633d
00000370: 39e9 2fbd a55f 3bbf 3b5c b3bf 2852 52bf
00000380: 09ba e83e b5cf 39bf 144e 39bf e6d8 a53d
00000390: 57d3 803e 9119 ac3f 16ee b1bf 6a30 083f
000003a0: a175 86be eb28 e93f cbb1 30bf 29a1 e93d
000003b0: 8fe8 ab3d 624e 053d be29 9bbe ced1 50bf
000003c0: 09cb 113f d6de 60bf 2fdb fb3e b887 08bf
000003d0: e017 bd3f c746 34bf d42a 4cbf 2269 923f
000003e0: 580c 5240 a8e4 663e bb49 45bf e028 0abf
000003f0: 3606 c33f 4cec a5bf 8c4f 103f 0bd1 74bf
-1.5914834 1.4747709 -1.4311497 1.7314187 -2.0503886 -2.9449763 0.51859754 0.6753596
1.780989 3.448899 -1.0388976 0.19396472 -0.543905 -1.1981709 1.5812445 0.36592537
0.42701495 2.2720873 -0.223093 1.1204981 0.06064303 -0.24484281 -0.21947396 0.07436374
3.5636296 1.7231363 -0.25194845 -1.8502376 -1.1620181 -0.5483312 -2.476668 2.5175698
-1.8929696 1.1727842 -2.813355 -0.18715283 -1.1656396 -0.7107955 0.6580561 0.07276894
-0.5820549 -0.84694195 -0.018038921 0.436662 0.314764 -0.047285527 0.07204676 0.93287706
0.43304405 -0.32073376 -1.1980368 -0.36068296 1.8481301 -1.135966 0.33950016 -0.83385396
0.33861247 -0.5513859 3.6997013 0.96934134 -0.46040887 -0.5635147 -1.4835525 -0.5625328
0.281308 -0.38651654 -0.6414726 -1.2677367 -0.09942728 0.02633871 -0.18133758 0.9851864
1.0788453 1.4318955 0.21638164 0.65148294 0.81548995 -0.6480791 -0.2523878 -0.5021444
1.3341763 0.037838757 -0.76486325 -1.7950791 -2.0898826 0.14844148 2.0652354 -1.4956864
-1.2505186 0.79972076 -0.6916891 1.0269694 -0.65184927 -1.7150146 -1.7780513 1.6321133
0.9087976 1.3541458 -1.5119336 -0.44561142 -0.009084492 -0.37471655 -0.6463052 0.66140217
-0.08146667 -0.06040892 0.6224572 0.15146023 -0.029938117 -0.1540583 -0.20603453 -0.001260676
0.05876735 0.2101995 -0.47628313 -0.12091082 -0.0689308 -0.37627998 0.56539035 -1.1924697
0.6951783 -0.14851572 -0.07162632 0.35727108 -0.7930442 -0.31582507 0.1951723 -0.1208339
-0.4260192 0.53549343 0.1988917 0.16600326 0.0502618 0.88190633 -0.40295815 -0.15953203
1.3239813 -0.10600836 0.6183379 -0.314694 0.11377578 -0.12017758 -0.2709378 -0.8094882
-0.04308714 0.025720488 0.5172498 0.15457626 0.058473296 0.0069353115 -0.25040764 -0.017402353
0.90039426 1.2144618 -0.097405866 0.76520455 -0.83463 0.4050014 -1.7528269 0.41049552
0.7446301 0.32858166 -1.0616783 0.32654023 0.55994487 0.88013595 0.65408283 0.2034693
-0.40055335 1.5196806 -0.12522364 -0.69421667 -1.6643698 -0.64199543 1.9482759 0.27444616
-0.2554248 -0.055966917 -0.005967253 -0.64436466 -1.5320976 0.09458981 -0.107465975 1.7306622
1.3409963 -0.29449117 -0.50548816 -0.002630313 -0.8255398 -0.5752534 0.116224185 0.47426778
0.9822183 1.2114234 1.4874791 -1.3091813 -0.45647636 -1.2042053 -0.60454154 0.6755717
0.77949005 0.55567986 -1.5031353 2.8440607 0.29253903 0.66226727 -0.74178696 0.29122448
-4.6646457 -0.59472793 0.5031333 0.7612113 0.73837173 0.12885194 -0.7800077 0.027915303
-0.18751292 1.015863 0.3696668 0.0556063 -0.042947028 -0.73192817 -1.4012522 -0.8215661
0.45454434 -0.7258256 -0.7238476 0.08098011 0.2516124 1.3445302 -1.3900783 0.53198874
-0.2626162 1.8215612 -0.6902129 0.11407692 0.083939664 0.032545455 -0.30305284 -0.81570137
0.5695043 -0.8784002 0.4919066 -0.5333209 1.4772911 -0.704205 -0.7975285 1.1438334
3.2820034 0.22548163 -0.7706563 -0.5396862 1.523627 -1.2962737 0.5637138 -0.95631474

l0/b f4 [50]
00000000: df16 0740 c7e9 e8bf 66e2 293f f5ab 9abe
00000010: 0fdb 92be 3aef e93e 08c2 2640 175f 9a3e
00000020: 9dc3 0ebf f1ef 893f bc89 0ebf a69f f5be
00000030: c44c f93f ffa2 1cbe 74c0 a6bf 6955 bb3f
00000040: f666 81bf ec99 723e 5804 37be bcbc cdbe
00000050: 52b5 1c40 5661 533f 68ef 133f 16aa 3dbf
00000060: 1bc1 d03d ca41 2b40 6f29 23bf 6ae9 52bf
00000070: fc0e 8f3f 6b8e d0bf 88b6 31bf dc9d 153f
00000080: fba5 a7bf 831c c2bf 0236 75bd 8c76 e93f
00000090: 3b30 0140 11a9 943f 0391 e93f 276a 0cc0
000000a0: 8393 f8be e9a1 2a40 c01c 00bf 2ed4 afbf
000000b0: 1230 db3f c884 25bf e8cc 87bf cfde b23f
000000c0: 6626 96bf 68f3 c2bd
2.110771 -1.8196343 0.6636108 -0.30209318 -0.28682753 0.45690328 2.6055927 0.30150673
-0.5576723 1.0776349 -0.55678916 -0.47973365 1.9476552 -0.15296553 -1.3027482 1.463544
-1.0109546 0.23691529 -0.17872751 -0.40183055 2.448567 0.825704 0.5778718 -0.74087656
0.10193082 2.6758904 -0.637351 -0.8238741 1.1176448 -1.6293463 -0.69419146 0.58444
-1.3097528 -1.5164951 -0.05986596 1.8239303 2.0185688 1.1614095 1.8247379 -2.193979
-0.48550043 2.6661322 -0.5004387 -1.3736627 1.7124045 -0.64655733 -1.0609407 1.3974246
-1.1730468 -0.09519082

conv/b f4 [3]
00000000: 7cb3 9dbc 612a 4abe 1318 0dbf
-0.019250624 -0.19742729 -0.5511486

l1/b f4 [20]
00000000: 57f3 97bf 09a5 953e ea0a 79bf ee99 a83f
00000010: f2fa 9abf 4934 973e 9cf3 88bd cac3 c53f
00000020: 2eb9 1740 0402 0340 0690 11c0 8ecc 81bf
00000030: 1527 5cbf d0ea 83be 1d1d e2bf 789c 20bf
00000040: 048e 93bf cb69 be3e 7014 5c3f 09ef 8a3d
-1.1871136 0.29227474 -0.9728228 1.3171976 -1.2107832 0.29532078 -0.0668709 1.5450375
2.3706775 2.046998 -2.2744155 -1.014055 -0.85997134 -0.25765085 -1.7665135 -0.6273875
-1.1527715 0.3719009 0.85968685 0.067838736

l2/W f4 [15, 20]
00000000: f91f 0ec0 3554 9fbe 1662 0fc1 1137 9cc0
00000010: 8c34 22c1 13cd 9ebf 9e9e 09c1 cf50 05c1
00000020: b8d6 17c1 19e1 0140 7784 9bc0 a169 a1c0
00000030: 2f39 9c40 35c3 e83f 2900 5f41 574d b0c0
00000040: 2368 a0c0 3e28 87c1 0cc3 93c0 8bea 4441
00000050: 7ae5 1bc0 4b72 9240 0064 17c1 80ed bcc0
00000060: 3160 17c1 77d3 3140 5190 18c1 0b15 e3c0
00000070: 0944 53c1 90ab 2e3f e9ab 8bc0 0436 d8c0
00000080: a9a3 be40 67ab 393e 50b3 4041 3d1b 9ec0
00000090: 2d82 bcc0 ca95 60c1 c031 853f d0ab 5741
000000a0: 2f69 27c0 4cfe b340 7c41 1bc1 aedd c5c0
000000b0: 7560 01c1 2fa1 e740 9174 1cc1 4b86 dcc0
000000c0: 5597 71c1 1f3e 183f cd58 87c0 9701 f4c0
000000d0: a103 cb40 0f88 45be 0216 2c41 a2f1 a4c0
000000e0: ceb9 cfc0 d4bc 21c1 15e0 1440 ff92 4f41
000000f0: c22b 2fc0 e1ff 9f40 52a6 1fc1 0e30 d0c0
00000100: 63f6 c9c0 7201 4141 18cd 22c1 d107 d2c0
00000110: 508f 86c1 82e0 413f 011a 80c0 89ad f5c0
00000120: 81ba c340 2a15 5d3e ebc8 1641 9531 adc0
00000130: 0ca2 d4c0 15e8 c3c0 52eb 1c40 9097 5941
00000140: e464 6ec0 e465 f1bf 1617 2fc1 9ba9 c4c0
00000150: f8ae 2fc0 8fd7 9841 1946 21c1 cf2f bdc0
00000160: 3c23 9dc1 abf4 4a3f 9803 8bc0 381b 11c1
00000170: fa34 8840 c70b ca40 1457 d340 528a a5c0
00000180: 85f4 bfc0 cbf1 893e 6599 50bf 6046 4b41
00000190: f4b6 6ac0 4c31 a9bf 39f3 15c1 0f4e 34c0
000001a0: 7c4d 0ec1 19d4 93be 3bdc 9fc0 e153 14c1
000001b0: da8d 13c1 3067 0041 169c ecc0 abc7 11c1
000001c0: c50d c740 bee7 3f3f 8a28 5a41 84e2 8dc0
000001d0: 40b2 7ac0 c005 0ac1 77af 75c1 450c 8940
000001e0: 6c73 37c0 c9a1 2941 b308 26c1 3252 59c0
000001f0: 5a7e dfc0 cc63 83bf 0c28 b9c0 98ac 03c1
00000200: 10cb 4ac1 6f26 e940 2610 f0c0 1986 32c1
00000210: 0a83 e040 df33 b13e e0d4 3d41 5464 b5c0
00000220: 674f acc0 5995 1cc1 ab4a 49c0 eb62 7440
00000230: 90a9 62c0 40e8 6b41 5be2 28c1 c968 7cc0
00000240: 8575 a4c0 8c64 5040 4115 c7c0 121c fdc0
00000250: 80ce 6bc1 1402 c440 a3cc efc0 2bad 3bc1
00000260: 814f f340 353a d73d bedf 2341 3d00 bdc0
00000270: e723 cdc0 ee2d e0c0 c654 1340 8c6b 6940
00000280: 88c4 59c0 01b2 3841 30d2 2ec1 2e6d 5dc0
00000290: ed25 19c0 5730 e940 50ab d2c0 17c6 ebc0
000002a0: 68f2 82c1 c7be de40 e189 f2c0 7069 3fc1
000002b0: 3eea e540 d448 6840 6d5d 0b41 d67e ccc0
000002c0: d5e0 e0c0 b155 6cc0 6e5e 0b40 0a9d 5540
000002d0: 9a16 8bc0 91db 19c0 ed0b 33c1 ea92 83c0
000002e0: 0f60 89bc a567 1f41 3ec6 e0c0 3c8c cfc0
000002f0: 053c 9ec1 ac77 cb40 b66a fcc0 4275 4ac1
00000300: 0443 a240 84a3 8a41 7473 b640 e71c cac0
00000310: ef1b cfc0 06a8 21bf c267 603d 022d 6640
00000320: 249c 39c1 a9ee 2fc0 89b6 17c1 8afa 82c0
00000330: 5b0b 28c1 9b05 e23e fd53 1ac0 0623 1ac1
00000340: a44e 43c1 fc3a 3441 44c4 e0c0 1136 c0bf
00000350: 84a9 0441 ebe2 1fbe 73d6 6d41 11e5 a4c0
00000360: 866f c3c0 eca2 0240 24ae c4c1 ea75 2a3f
00000370: 3371 41c1 89fe 4241 fa4a 2ac1 eb27 88c0
00000380: 2c4f c4c0 bc81 c6bf 60b5 4dc0 6a8f 0bc1
00000390: 3275 55c1 8be2 3341 71fb ddc0 f4b0 2cc0
000003a0: 1c3e 2041 ac1b 8b3e 7009 4041 2481 c8c0
000003b0: 8240 c9c0 eb0e a63f 61f8 1dc1 6feb 4fbc
000003c0: e2d3 39c1 05f1 9c41 5ee8 2fc1 31bf 91c0
000003d0: c6fd 99c0 2ed2 47bf d4e6 65c0 a8e1 04c1
000003e0: 638c 79c1 7b89 3241 77a5 dfc0 1c71 0fc0
000003f0: 4dcc 2841 b610 d23e 277d 2841 daff d2c0
-2.2207015 -0.31118932 -8.961447 -4.881722 -10.137829 -1.2406334 -8.601225 -8.332229
-9.489922 2.0293639 -4.85992 -5.044144 4.8819804 1.8184572 13.937539 -5.509441
-5.012712 -16.89465 -4.6175594 12.307261 -2.4358811 4.576452 -9.461914 -5.9039917
-9.460984 2.7785318 -9.5352335 -7.0963187 -13.20411 0.68230534 -4.364735 -6.7565937
5.957478 0.18131791 12.043777 -4.940825 -5.8908906 -14.03657 1.0405807 13.479446
-2.615795 5.624792 -9.703487 -6.1833105 -8.086049 7.2384257 -9.778459 -6.891393
-15.099446 0.5946979 -4.22959 -7.625194 6.344193 -0.19290183 10.755373 -5.154496
-6.491431 -10.108601 2.326177 12.973388 -2.7370458 4.999985 -9.978106 -6.505866
-6.3113265 12.062853 -10.175072 -6.563454 -16.819977 0.75733197 -4.0031743 -7.6774335
6.1165166 0.21590105 9.424052 -5.4123025 -6.644781 -6.1220803 2.4518628 13.599503
-3.7249079 -1.885922 -10.943136 -6.145704 -2.7450542 19.105253 -10.079614 -5.912086
-19.642204 0.79279584 -4.3441887 -9.069145 4.256467 6.3139377 6.6043797 -5.173135
-5.9985986 0.26942286 -0.8148406 12.704681 -3.6674166 -1.3218169 -9.371881 -2.8172643
-8.893917 -0.28872755 -4.9956336 -9.270478 -9.222132 8.025192 -7.3940535 -9.111247
6.220431 0.74962986 13.634897 -4.433901 -3.9171295 -8.626404 -15.355338 4.2827477
-2.8664198 10.601998 -10.377124 -3.3956418 -6.984174 -1.026483 -5.7861385 -8.229637
-12.674576 7.2859416 -7.5019712 -11.157739 7.015996 0.34609887 11.864471 -5.668497
-5.3846927 -9.786462 -3.1451824 3.8185375 -3.5415993 14.744202 -10.555263 -3.9438956
-5.1393456 3.256137 -6.2213445 -7.9096766 -14.737915 6.1252537 -7.49373 -11.729777
7.603455 0.10509149 10.242125 -5.906279 -6.4106326 -7.0056067 2.3020492 3.6471891
-3.4026203 11.543458 -10.926315 -3.4597888 -2.3929398 7.287151 -6.583412 -7.367931
-16.368362 6.9607882 -7.579331 -11.963242 7.184844 3.629445 8.710309 -6.390483
-7.0274453 -3.6927302 2.1776385 3.33771 -4.346509 -2.4040263 -11.190412 -4.111684
-0.016769437 9.962804 -7.0241995 -6.4858685 -19.779306 6.3583584 -7.888026 -12.653627
5.0706806 17.329842 5.7015934 -6.316028 -6.47216 -0.6314701 0.05478645 3.596497
-11.60062 -2.7489417 -9.482064 -4.0930834 -10.502772 0.44144902 -2.4113762 -9.633551
-12.206699 11.2644005 -7.023958 -1.50165 8.291386 -0.15613906 14.864856 -5.152962
-6.1073637 2.041194 -24.58503 0.6658617 -12.090137 12.187142 -10.643305 -4.254873
-6.1346645 -1.5508342 -3.2141953 -8.722513 -13.341112 11.242808 -6.9369435 -2.6983004
10.015163 0.2716955 12.002304 -6.265764 -6.2891245 1.2973303 -9.873139 -0.012690409
-11.614229 19.617685 -10.99423 -4.554589 -4.812228 -0.78055084 -3.5922136 -8.305092
-15.596774 11.158565 -6.9889483 -2.2412786 10.549878 0.41028374 10.530555 -6.593732

conv/W f4 [3, 1, 1, 6]
00000000: 29bf 443d 51da 643d a4d3 213e 0671 2bbc
00000010: daee b33d a5e9 593d 5122 89be 4049 05bf
00000020: 6bd0 19c1 36aa f73f 9b6b 57c1 3588 b7be
00000030: 2f1a c73d 882d a13d e77f 143f 91f7 9abb
00000040: 2888 223e 882d ca3d
0.048033867 0.055872265 0.1580339 -0.010463959 0.08785792 0.053201336 -0.26783994 -0.52064896
-9.613383 1.9348819 -13.463771 -0.35846105 0.09721791 0.078700125 0.58007663 -0.0047292192
0.15872252 0.09871966

l0/W f4 [50, 139]
00000000: 3ba5 223e 8ebc b03e 395c ee3e ff54 8abc
00000010: a328 5abe eb9d d9be 58de 713b cfa7 7d3f
00000020: 180d ab3f bc1e c13f b984 c53f 89da 1940
00000030: 8fa7 153f 53d8 21be 2617 6ebf 1918 32be
00000040: 3867 933e 396f 473f 88e0 493f f750 3f3f
00000050: 2e7c d83d e9dd 3f3f 1c98 fc3f bf43 c13e
00000060: f7b6 bfbf f961 2abf 7df3 69bf 0455 bdbf
00000070: b4ae 98bf 48b1 51bf b869 603e 8547 a53f
00000080: 6ecb 0340 4f6f 303f 1a41 323f b2c4 30bd
00000090: 7f99 59be f148 783f 36de 533f 72c9 5c3f
000000a0: bf4a c9be 9e08 06be 7ea7 5fbf a3b5 443e
000000b0: 7b1c d0be 1b5c 5cbf 0d01 69be 175d 80bf
000000c0: 72d2 b6be faf8 1fbe 9b89 ee3e d681 5fbd
000000d0: 132a f9be 4c2c a8be cd18 afbe 0ac1 9fbf
000000e0: 448b aebe 5b31 d6be d44a 31bf 02b8 81be
000000f0: e85e f2bd 3ccd 113e 6def 1c3e 319e 1340
00000100: c504 4040 59fe a940 8693 a740 47ce 8340
00000110: ed86 a73f f033 ec3e e3bc 763e 4c14 ad3e
00000120: f156 16bf 8805 3cbf 122f 81bf 01b2 c2bf
00000130: 0240 a6bf 3d21 9abf fc4d 0cbf 18bc 7dbf
00000140: 88f7 99be 31b8 04be 8fbe ae3e 5b90 513e
00000150: 2419 acbd edc6 bebe 21d8 3dbf 7f3a 84be
00000160: cd2f 2bbf 7620 2a3f cb68 4abf 2c19 24bf
00000170: d7ce 81be 0583 67bf 9829 74bf 7f46 80bf
00000180: 841b 9fbe 6c3d 93bf be72 20c0 5512 53c0
00000190: 2196 5dc0 a111 39c0 5df9 7abf e4cc b33f
000001a0: 5a20 0140 d47c 0140 cc3c 3f3f 80b9 98be
000001b0: 77fb 70bf 2b44 acbe ae31 53bf fe71 c2bf
000001c0: d6a3 933e 695c 94bf f7b7 f13f 4224 0b40
000001d0: 2e73 1240 2d5e c93f fb2c 483f de02 7dbd
000001e0: b41f 1ebf 6cf0 a2bf 9030 9bbf ca31 20c0
000001f0: 87f1 96bf f747 ecbe 95c2 95be 83d0 acbe
00000200: a3c0 d0be f149 8dbe 2a37 5c3e 9207 20be
00000210: a47c 693f c3c1 00bf f885 ac3e 6798 d8bd
00000220: 2c40 fa3d 3e1f fabf 8085 5bc0 a4d9 153f
00000230: bc4f bdbd 7842 e93d d76c 9a3e a0b6 fc3d
00000240: a2ae 3e3e 4c94 a9bd 4fa0 f1be 0b22 4abf
00000250: ec4e 8abf 4ca5 53bf 5726 17bf 45bf 1fbf
00000260: af27 a2be 7ee8 43bf d395 8ebf 15bf 86bf
00000270: 29a9 6cbf 2cc6 f5be b37f 3dbf 608a 30bf
00000280: 1885 a73b f0c6 123e f43b 873d 32f1 03be
00000290: bf43 4e3b 8468 253f ddb3 9b3f c458 753f
000002a0: 3402 0b3f 6b8f 043f 6686 ee3e ffa1 4dbf
000002b0: 4917 1cbf 6533 33bf 6ea9 16bf 11b2 4ebf
000002c0: 60fe 07be f217 e3bb cb23 d2be a4ed 013f
000002d0: 7259 91be 5fa1 f63e 9adf ad3e f52d 8b3f
000002e0: 9128 283f 30c1 143f 7dae 1c3f d3d7 133f
000002f0: aa36 083f 8fbe ee3e 2606 5f3e 242b b83e
00000300: 3fa6 573e af57 813d ddff 58bc 538b b03e
00000310: d33c 9a3e ede6 fc3e 2f39 c23e ee18 e03e
00000320: d874 333f 220d 123f 213b 903e 28f3 5b3e
00000330: 0f05 80bd fb15 303d 1544 d03e d7e0 da3e
00000340: df64 afbe a833 84be cc5a e4be 486e 87be
00000350: 125f f6be 1005 12bf bb6a 40bf 27a4 58bf
00000360: 0b41 46bf 6c44 a5be 627d e0bc 7b91 c5bc
00000370: 07c1 f13d 362f 1b3e 7d27 21bd f32f 2a3d
00000380: 09df 913e 67d9 fd3e fdea 9c3e d686 3c3e
00000390: 93c9 9d3e 4658 ac3c 6189 933e f621 81bd
000003a0: cc45 94be f605 893e 5f65 3ebe 7d55 5abe
000003b0: fce7 6e3e 4d3e f93e 326f c43d eeb5 a5bf
000003c0: fce5 bebf 533b cebe ebb2 54be 2603 083e
000003d0: cf28 333e 4f7b c93e de24 8a3e 773b 093e
000003e0: 14ef 94be 7d73 d5be 0667 53be df28 6bbe
000003f0: 9ffc 82bd 3dec 05be 71d0 9c3e 1b14 b7bd
0.15883343 0.34518856 0.46554735 -0.016886232 -0.21304564 -0.42503294 0.003690621 0.9908418
1.3363371 1.5087504 1.5431129 2.4039633 0.584588 -0.15805177 -0.9300407 -0.17392005
0.28789687 0.7790409 0.7885823 0.7473292 0.105705604 0.74947983 1.973392 0.37747
-1.4977711 -0.66555744 -0.9138716 -1.479157 -1.1928315 -0.81911135 0.21915329 1.2912451
2.0592914 0.68919843 0.6963059 -0.043156333 -0.2124996 0.969863 0.8276094 0.8624488
-0.3931484 -0.13089225 -0.8736495 0.19209914 -0.4064673 -0.8607804 -0.22754307 -1.0028409
-0.35707432 -0.15622321 0.4658936 -0.05456718 -0.48664913 -0.32846296 -0.3419861 -1.2480786
-0.34090626 -0.4183453 -0.69254804 -0.253357 -0.11834508 0.14238447 0.15325709 2.3065302
3.000291 5.3122983 5.236758 4.1189303 1.3088051 0.46133375 0.24095492 0.33804548
-0.5872641 -0.7344594 -1.009249 -1.5210572 -1.2988284 -1.2041394 -0.54806495 -0.99115133
-0.30071664 -0.12960888 0.3412976 0.20465223 -0.08403233 -0.37261143 -0.7415791 -0.2582588
-0.66869813 0.6645578 -0.7906615 -0.6410091 -0.2535312 -0.90434295 -0.9537597 -1.0021514
-0.3107568 -1.150312 -2.5070033 -3.297994 -3.4622881 -2.891701 -0.9803675 1.4046903
2.0175996 2.023244 0.74702144 -0.29829025 -0.94133705 -0.33645758 -0.8249768 -1.5191038
0.28835934 -1.1590701 1.8884267 2.174088 2.28828 1.5731865 0.78193635 -0.061770312
-0.61767125 -1.2729621 -1.2124195 -2.503039 -1.1792458 -0.46148655 -0.29250017 -0.33752832
-0.4077197 -0.27595475 0.21505418 -0.15627888 0.9120581 -0.50295657 0.3369596 -0.105759434
0.12219271 -1.9540784 -3.4300232 0.5853522 -0.09243724 0.11389631 0.30161163 0.123395205
0.18621305 -0.082802385 -0.47192618 -0.78958195 -1.0805335 -0.826741 -0.59042877 -0.6240123
-0.316709 -0.7652663 -1.1139473 -1.0527064 -0.9244562 -0.48002756 -0.7402298 -0.68961143
0.0051123016 0.14333701 0.06603232 -0.12884977 0.0031473485 0.64612603 1.2164265 0.9583857
0.54300237 0.5178134 0.46586913 -0.8032531 -0.6097303 -0.70000297 -0.5885228 -0.8074046
-0.1328063 -0.0069303447 -0.41042933 0.50753236 -0.28388554 0.4816999 0.33959657 1.08734
0.656869 0.5810728 0.6120375 0.57751197 0.5320841 0.4662976 0.21779689 0.35970414
0.21059512 0.063155524 -0.013244596 0.34481296 0.3012453 0.49394932 0.37934253 0.4376902
0.70100164 0.5705129 0.28170112 0.21479475 -0.06250965 0.042989712 0.40676942 0.42749664
-0.34256646 -0.2582066 -0.44600523 -0.26451325 -0.48119408 -0.57038975 -0.7516286 -0.84625477
-0.77443 -0.32278764 -0.027403537 -0.024117222 0.11804395 0.15154728 -0.0393443 0.041549634
0.28490475 0.49579927 0.30648032 0.18410811 0.3081785 0.021038186 0.2881575 -0.06305306
-0.289595 0.2676236 -0.18593358 -0.21321674 0.23330683 0.48680344 0.09591521 -1.2946146
-1.4913936 -0.40279636 -0.20771377 0.13282451 0.17496036 0.3935189 0.26981252 0.1340159
-0.29088652 -0.41689673 -0.20644769 -0.2296481 -0.0639584 -0.13078399 0.30627778 -0.08939382
