sample-agents/circuit-dqn-lmd0/target_model.npz (npz, 32750 bytes, 8 tensors)

l2/b f4 [15]
00000000: 0156 a740 5665 b240 fc7d c040 7413 d040
00000010: b59c fe40 3eca aa40 dfa9 ab40 e8d6 b240
00000020: bfe0 d240 342f 0241 43cb dd40 9e84 e240
00000030: 8154 0141 a687 0441 9eaf 1c41
5.2292485 5.57487 6.015379 6.5023746 7.9566293 5.337188 5.364486 5.5887337
6.589935 8.136524 6.931062 7.0786886 8.083131 8.283117 9.792875

l1/W f4 [20, 50]
00000000: afb5 cbbf 40c5 bc3f df2f b7bf 179f dd3f
00000010: 9639 03c0 797a 3cc0 e4c2 043f 70e4 2c3f
00000020: 7df7 e33f c8ba 5c40 a4fa 84bf f39e 463e
00000030: 473d 0bbf b45d 99bf 2d66 ca3f bc5a bb3e
00000040: d8a1 da3e dc69 1140 2972 64be 836c 8f3f
00000050: f065 783d 48b8 7abe 1dbe 60be 5b4b 983d
00000060: 7d12 6440 c08f dc3f 40ff 80be a1d4 ecbf
00000070: 09bd 94bf 675f 0cbf be81 1ec0 e21f 2140
00000080: df4c f2bf c01d 963f fe0d 34c0 53a5 3fbe
00000090: a333 95bf 9df6 35bf 7276 283f df07 953d
000000a0: a201 15bf 1bd1 58bf 87c4 93bc ff91 df3e
000000b0: e928 a13e 25ad 41bd 988c 933d 1dd1 6e3f
000000c0: c9b7 dd3e 0d37 a4be 2a55 99bf ef8d b8be
000000d0: 9a93 ec3f 036b 91bf cee8 ad3e 816e 55bf
000000e0: fd5f ad3e bd2f 0dbf 39c6 6c40 fe22 783f
000000f0: 17e1 ebbe a639 10bf d3e0 bdbf 8c01 10bf
00000100: 481c 903e 04dd c5be 1e36 24bf 7c48 a2bf
00000110: 7ca6 cbbd 2326 d73c 83af 39be a93a 7c3f
00000120: 191a 8a3f e744 b73f 8878 5d3e 9ec5 263f
00000130: f6be 503f d0e9 25bf 4221 81be 1d89 00bf
00000140: adc9 aa3f a37e 1a3d f8d1 43bf 0dc7 e5bf
00000150: cabe 05c0 0524 183e cf2e 0440 c370 bfbf
00000160: 9e12 a0bf 43b7 4c3f 1a0e 31bf 9976 833f
00000170: f4df 26bf fc87 dbbf 8993 e3bf 72e9 d03f
00000180: f0aa 683f 3358 ad3f 548b c1bf 3e20 e4be
00000190: f348 19bc 2bf4 bfbe 847c 25bf e359 293f
000001a0: 11f9 a7bd d83c 78bd 9259 1f3f 9c2d 1b3e
000001b0: 991b f4bc f5aa 1dbe 52e5 52be 9764 d0ba
000001c0: fc17 703d 2533 573e fff4 f3be 764f f7bd
000001d0: 786f 8cbd 4693 c0be 6acb 103f 5b9e 98bf
000001e0: 79e7 313f d12e 18be 9391 93bd 3701 b73e
000001f0: dafc 4abf 01c2 a1be 0d5d 483e dd80 f7bd
00000200: ff44 dabe 621f 093f 9d7f 4b3e 551d 2a3e
00000210: f75d 4e3d c1ca 613f 1658 cebe 158e 23be
00000220: 1b74 a93f d3f2 d8bd 764c 1e3f 9305 a1be
00000230: 1178 e83d ff5d f6bd 8d9b 8abe 5b32 4fbf
00000240: 0942 31bd db45 d33c 525a 043f c723 1e3e
00000250: 201b 703d 43f3 e83b 952b 80be ceff 90bc
00000260: b286 663f fa6f 9b3f bec0 c7bd dbe7 433f
00000270: f398 55bf 4043 cf3e cc60 e0bf 4417 d23e
00000280: ab93 3e3f b947 a83e c2e1 87bf 9d40 a73e
00000290: 8d4a 0f3f f054 613f cf74 273f 8930 503e
000002a0: ad00 cdbe 978b c23f 3513 00be 4ab1 31bf
000002b0: e907 d5bf fe60 24bf 7e5d f93f 4e96 8c3e
000002c0: 43b0 82be de8e 65bd 7072 cabb 11fc 24bf
000002d0: f319 c4bf 70c9 c13d 5125 dcbd 9b82 dd3f
000002e0: 3bab ab3f dede 96be ab5e 01bf a096 29bb
000002f0: 5b4c 53bf 433c 13bf 6e3a ee3d 32e0 f23e
00000300: fb79 7b3f 320c 9b3f 4969 be3f 5396 a7bf
00000310: 3fd1 e9be b821 9abf 3fc9 1abf 1df9 2c3f
00000320: 7164 473f 843e 0e3f dd7b c0bf ef0e 3640
00000330: 21dd 953e c866 293f bcef 3dbf c669 953e
00000340: 893f 95c0 4711 18bf acf7 003f 43b1 423f
00000350: f5de 3c3f f161 043e d6b0 47bf cdab e53c
00000360: a624 40be 661b 823f ff1b bd3e 164e 663d
00000370: 4c82 2ebd 3d5f 3bbf 2752 b3bf fe27 52bf
00000380: 7508 e93e d8c7 39bf 2031 39bf cb0a a73d
00000390: 17ab 803e e312 ac3f bc01 b2bf 604e 083f
000003a0: 772c 86be e937 e93f 58d9 30bf 6e70 e83d
000003b0: deae aa3d a1da 023d 153f 9bbe 00ef 50bf
000003c0: 68e8 113f 6508 61bf b486 fb3e 8260 08bf
000003d0: 8c04 bd3f 2f6e 34bf 8bff 4bbf 8755 923f
000003e0: 3e16 5240 5348 663e fc47 45bf 010f 0abf
000003f0: 3f07 c33f ebec a5bf fa5a 103f ffcd 74bf
-1.591482 1.4747696 -1.4311484 1.7314175 -2.0503898 -2.9449751 0.5185988 0.6753607
1.7809902 3.4489002 -1.038899 0.19396572 -0.54390377 -1.1981721 1.5812432 0.36592662
0.42701602 2.2720861 -0.22309174 1.120499 0.06064409 -0.2448436 -0.21947522 0.07436248
3.5636284 1.7231369 -0.2519474 -1.8502389 -1.1620189 -0.5483307 -2.4766688 2.517571
-1.8929709 1.1727829 -2.813354 -0.1871541 -1.1656383 -0.71079427 0.65805733 0.07276892
-0.58205616 -0.8469407 -0.018038047 0.43666074 0.31476524 -0.047284264 0.072045505 0.9328783
0.4330428 -0.3207325 -1.1979115 -0.36045787 1.8482544 -1.1360782 0.33966678 -0.8337174
0.33862296 -0.5515097 3.6995986 0.96928394 -0.46070167 -0.56337965 -1.4834236 -0.5625236
0.28146577 -0.38645184 -0.64145076 -1.267837 -0.09943864 0.026263302 -0.18133359 0.9852701
1.0789214 1.4317902 0.2162801 0.6514529 0.81541383 -0.64809895 -0.25220686 -0.5020922
1.3342797 0.037718426 -0.7649226 -1.795137 -2.0897698 0.1485749 2.065357 -1.4956287
-1.2505682 0.79967135 -0.6916214 1.0270568 -0.65185475 -1.7150874 -1.7779399 1.6321242
0.9088583 1.3542541 -1.5120645 -0.4455585 -0.009355771 -0.37490973 -0.6464312 0.6615278
-0.082018025 -0.0606049 0.6224605 0.15154117 -0.029798316 -0.15397246 -0.20595291 -0.0015899119
0.058616623 0.21015604 -0.47647855 -0.12075703 -0.068571985 -0.3761236 0.56560385 -1.1923326
0.69493824 -0.14861609 -0.072055005 0.35743114 -0.7929207 -0.31593326 0.19566746 -0.120851256
-0.42630765 0.5356351 0.198729 0.16612752 0.05038258 0.882 -0.4030158 -0.15972169
1.3238558 -0.1059319 0.6183542 -0.31449565 0.11351026 -0.12029647 -0.270718 -0.8093621
-0.043275867 0.025790146 0.5170032 0.15443335 0.05861962 0.007109077 -0.2503325 -0.017700102
0.9004928 1.2143548 -0.097535595 0.7652566 -0.83436507 0.40480995 -1.752954 0.41033375
0.74444073 0.3286722 -1.0615771 0.32666484 0.5597313 0.8802023 0.6541261 0.20331015
-0.40039578 1.519885 -0.12507327 -0.69411147 -1.6643039 -0.642105 1.9481657 0.27458423
-0.25525102 -0.056044452 -0.006178193 -0.6444712 -1.5320419 0.09462249 -0.10749305 1.7305483
1.341163 -0.2946691 -0.50535077 -0.0025877133 -0.82538384 -0.5751383 0.11632238 0.47436672
0.98233 1.2113097 1.487588 -1.309275 -0.45667455 -1.204154 -0.6046333 0.67567617
0.77887636 0.5556414 -1.50378 2.8446615 0.2927027 0.66172457 -0.7419393 0.2918226
-4.6640058 -0.59401363 0.5037792 0.7605173 0.73777705 0.12927987 -0.78004205 0.028036023
-0.1876398 1.0164611 0.36935422 0.056226812 -0.04260473 -0.731922 -1.4009446 -0.82092273
0.45514265 -0.7257056 -0.72340584 0.081563555 0.2513053 1.3443264 -1.3906779 0.5324459
-0.262058 1.8220187 -0.6908164 0.11349569 0.083341345 0.031946782 -0.30321565 -0.81614685
0.5699525 -0.87903434 0.49126208 -0.5327226 1.4767013 -0.70480627 -0.796868 1.1432351
3.2826076 0.22488527 -0.77062964 -0.53929144 1.5236586 -1.2962927 0.5638882 -0.95626825

l0/b f4 [50]
00000000: 5815 0740 f5ed e8bf 26e8 293f f2c3 9abe
00000010: b0ea 92be d7f7 e93e bbc4 2640 665b 9a3e
00000020: 12c7 0ebf 4def 893f 9086 0ebf c491 f5be
00000030: b54c f93f fad6 1cbe b1b7 a6bf 7a57 bb3f
00000040: f667 81bf 88d4 723e 0197 37be dec1 cdbe
00000050: f1b3 1c40 4984 533f 6913 143f 61aa 3dbf
00000060: 85c0 d03d ff42 2b40 3a23 23bf 08e5 52bf
00000070: 860f 8f3f 9494 d0bf 52c8 31bf e2a9 153f
00000080: d1a4 a7bf ea29 c2bf e44d 75bd 447f e93f
00000090: 732f 0140 e0b6 943f 3183 e93f 2466 0cc0
000000a0: 43af f8be 91a4 2a40 0a1c 00bf 1bd4 afbf
000000b0: 972f db3f 7189 25bf e6ca 87bf 8cdc b23f
000000c0: 382b 96bf ef79 c2bd
2.1106777 -1.8197619 0.66369855 -0.3022762 -0.28694677 0.456969 2.6057575 0.30147856
-0.5577251 1.0776154 -0.55674076 -0.47962773 1.9476534 -0.15316382 -1.3024808 1.4636071
-1.0109851 0.23713887 -0.17928697 -0.4018697 2.4484828 0.82623726 0.5784212 -0.740881
0.1019297 2.675964 -0.63725626 -0.82380724 1.1176612 -1.6295342 -0.6944629 0.58462346
-1.3097173 -1.5169041 -0.059888735 1.8241963 2.018521 1.1618309 1.8243161 -2.1937342
-0.48571214 2.6662943 -0.50042784 -1.3736604 1.7123898 -0.64662844 -1.0608795 1.3973556
-1.1731939 -0.09495913

conv/b f4 [3]
00000000: 4329 9cbc 1028 4abe 952d 0dbf
-0.019062644 -0.19741845 -0.5514768

l1/b f4 [20]
00000000: 4cf3 97bf 58b2 953e ff12 79bf 819d a83f
00000010: 8d0e 9bbf bf36 973e 996b 89bd 0dbb c53f
00000020: ceb2 1740 0402 0340 9891 11c0 87cc 81bf
00000030: 891e 5cbf 4cf9 83be d71b e2bf 4998 20bf
00000040: 4d8d 93bf 7151 be3e 3314 5c3f 52f5 8a3d
-1.1871123 0.29237628 -0.9729461 1.3173066 -1.2113816 0.29533955 -0.06709976 1.5447708
2.3702884 2.046998 -2.2745113 -1.0140542 -0.8598409 -0.25776136 -1.7664746 -0.6273237
-1.1527497 0.3717151 0.8596832 0.067850724

l2/W f4 [15, 20]
00000000: 0222 0ec0 f74e 9fbe 0d62 0fc1 5038 9cc0
00000010: e934 22c1 96cb 9ebf 0f9f 09c1 db50 05c1
00000020: 41d6 17c1 22e3 0140 5b85 9bc0 a56a a1c0
00000030: a538 9c40 70c4 e83f fdff 5e41 624e b0c0
00000040: 2969 a0c0 6a28 87c1 77c3 93c0 0deb 4441
00000050: 77e4 1bc0 0a72 9240 2e64 17c1 feec bcc0
00000060: ef5f 17c1 14d3 3140 2d90 18c1 2915 e3c0
00000070: 4b44 53c1 83a7 2e3f 66ab 8bc0 8235 d8c0
00000080: 52a3 be40 3ca9 393e 88b3 4041 bc1a 9ec0
00000090: aa81 bcc0 8795 60c1 6933 853f 8fab 5741
000000a0: c976 27c0 1f05 b440 e644 1bc1 d6e4 c5c0
000000b0: 6d63 01c1 25a7 e740 0e78 1cc1 558d dcc0
000000c0: 3c9a 71c1 8274 183f 9b5f 87c0 6408 f4c0
000000d0: ea0a cb40 30a0 44be 3619 2c41 76f8 a4c0
000000e0: dcc0 cfc0 51c0 21c1 b6d4 1440 6596 4f41
000000f0: 3b2f 2fc0 1aff 9f40 20a6 1fc1 cf31 d0c0
00000100: 18f8 c9c0 3001 4141 d9cd 22c1 0108 d2c0
00000110: e58e 86c1 68ee 413f c01b 80c0 46af f5c0
00000120: 6aba c340 5001 5d3e 0ec8 1641 5533 adc0
00000130: cca3 d4c0 25e9 c3c0 b3ea 1c40 6e98 5941
00000140: 5b63 6ec0 f964 f1bf ef16 2fc1 2ba9 c4c0
00000150: 6bad 2fc0 4bd7 9841 a845 21c1 5130 bdc0
00000160: 5d23 9dc1 85ee 4a3f d302 8bc0 d61a 11c1
00000170: 0035 8840 f20a ca40 cd57 d340 8789 a5c0
00000180: 8ef3 bfc0 4feb 893e 869e 50bf fe45 4b41
00000190: 68b4 6ac0 af35 a9bf adf3 15c1 8a4b 34c0
000001a0: cb4c 0ec1 d4e8 93be 89db 9fc0 8353 14c1
000001b0: 798e 13c1 8d66 0041 ce9a ecc0 08c7 11c1
000001c0: fd0d c740 39e3 3f3f bf28 5a41 3ce1 8dc0
000001d0: b4af 7ac0 1505 0ac1 c0ae 75c1 ff0a 8940
000001e0: ae72 37c0 5ba1 2941 f508 26c1 ef4f 59c0
000001f0: f87d dfc0 6d64 83bf 8a27 b9c0 48ac 03c1
00000200: 22cb 4ac1 1026 e940 c60f f0c0 e985 32c1
00000210: 4f82 e040 032e b13e ffd4 3d41 f463 b5c0
00000220: 094f acc0 d694 1cc1 8348 49c0 2d62 7440
00000230: a2a9 62c0 3fe8 6b41 58e2 28c1 dd68 7cc0
00000240: 8d75 a4c0 8364 5040 1215 c7c0 1c1c fdc0
00000250: 7bce 6bc1 1d02 c440 9dcc efc0 30ad 3bc1
00000260: a14f f340 8033 d73d b0df 2341 4600 bdc0
00000270: f023 cdc0 f82d e0c0 b154 1340 956b 6940
00000280: afc3 59c0 d4b1 3841 14d2 2ec1 506c 5dc0
00000290: 1325 19c0 f12f e940 ddaa d2c0 17c6 ebc0
000002a0: 6ef2 82c1 5bbe de40 7489 f2c0 3a69 3fc1
000002b0: 3bea e540 3d48 6840 8d5d 0b41 697e ccc0
000002c0: 68e0 e0c0 ce54 6cc0 285f 0b40 319c 5540
000002d0: a518 8bc0 18d4 19c0 210d 33c1 8c95 83c0
000002e0: 326b 8bbc d468 1f41 59c8 e0c0 138d cfc0
000002f0: 9b3b 9ec1 b779 cb40 df6c fcc0 4876 4ac1
00000300: 7a45 a240 2ba4 8a41 6771 b640 f31e cac0
00000310: 111e cfc0 dbc9 21bf 3f78 5e3d 1a31 6640
00000320: 549c 39c1 61f1 2fc0 cfb5 17c1 07fb 82c0
00000330: 200b 28c1 f8f2 e13e 3d55 1ac0 2023 1ac1
00000340: 714e 43c1 2c3b 3441 9ec4 e0c0 9037 c0bf
00000350: 18a9 0441 1501 20be 6bd6 6d41 73e5 a4c0
00000360: e76f c3c0 09a3 0240 09ae c4c1 e878 2a3f
00000370: 3471 41c1 5efe 4241 c44a 2ac1 ee27 88c0
00000380: 2b4f c4c0 c181 c6bf 52b4 4dc0 488f 0bc1
00000390: 1875 55c1 8ce2 3341 69fb ddc0 f8b0 2cc0
000003a0: e93d 2041 2d17 8b3e 4f09 4041 2781 c8c0
000003b0: 8440 c9c0 cd0e a63f 3df8 1dc1 89e7 4fbc
000003c0: 64d3 39c1 d5f0 9c41 92e8 2fc1 44be 91c0
000003d0: cdfc 99c0 fad9 47bf 38e5 65c0 95e1 04c1
000003e0: db8c 79c1 fd88 3241 79a4 dfc0 226f 0fc0
000003f0: cdcb 2841 f001 d23e 8f7d 2841 defe d2c0
-2.2208257 -0.31114933 -8.961438 -4.881874 -10.1379175 -1.240588 -8.601333 -8.33224
-9.489808 2.029488 -4.8600287 -5.044268 4.8819146 1.8184948 13.937497 -5.509568
-5.012837 -16.894733 -4.6176105 12.307385 -2.4358194 4.576421 -9.461958 -5.9039297
-9.460921 2.7785082 -9.535199 -7.096333 -13.204173 0.6822435 -4.3646727 -6.7565317
5.9574366 0.18130964 12.043831 -4.9407635 -5.890828 -14.036506 1.0406314 13.479384
-2.616625 5.625625 -9.704321 -6.184184 -8.086774 7.2391534 -9.77931 -6.8922524
-15.100155 0.59552777 -4.2304206 -7.6260242 6.3450823 -0.19201732 10.756155 -5.1553297
-6.4922924 -10.109452 2.3254828 12.974217 -2.7372577 4.9998903 -9.978058 -6.50608
-6.311535 12.06279 -10.175256 -6.563477 -16.819773 0.75754404 -4.0033875 -7.6776457
6.1165056 0.21582532 9.423841 -5.412516 -6.6449947 -6.12221 2.451825 13.599714
-3.7248142 -1.885894 -10.943099 -6.1456504 -2.7449596 19.105124 -10.079506 -5.912148
-19.642267 0.792702 -4.3440948 -9.069052 4.2564697 6.313836 6.604468 -5.173038
-5.998481 0.2693734 -0.8149189 12.704588 -3.6672611 -1.3219508 -9.371991 -2.8171105
-8.893748 -0.2888857 -4.9955487 -9.270389 -9.222283 8.025037 -7.393897 -9.111092
6.2204576 0.7495609 13.634948 -4.4337444 -3.916974 -8.626241 -15.355164 4.2825923
-2.8663745 10.601893 -10.377187 -3.3955038 -6.984127 -1.0265023 -5.7860765 -8.229561
-12.674593 7.2858963 -7.5019255 -11.157693 7.015907 0.34605417 11.864501 -5.6684513
-5.384648 -9.786337 -3.1450508 3.8184922 -3.5416036 14.744201 -10.55526 -3.9439003
-5.1393495 3.2561347 -6.221322 -7.9096813 -14.73791 6.125258 -7.493727 -11.729782
7.6034703 0.1050787 10.242111 -5.9062834 -6.410637 -7.0056114 2.3020442 3.6471913
-3.4025686 11.543415 -10.926289 -3.4597359 -2.3928878 7.287102 -6.5833573 -7.367931
-16.368374 6.9607368 -7.579279 -11.96319 7.1848426 3.629409 8.71034 -6.390431
-7.0273933 -3.692676 2.1776829 3.3376582 -4.3467584 -2.4035702 -11.190705 -4.112005
-0.017018888 9.963093 -7.0244565 -6.485971 -19.779104 6.358608 -7.88829 -12.653877
5.070981 17.33016 5.701343 -6.316278 -6.47242 -0.6319863 0.054313894 3.596747
-11.600666 -2.7491076 -9.481887 -4.093143 -10.502716 0.44130683 -2.4114525 -9.633575
-12.206651 11.264446 -7.024001 -1.5016956 8.291283 -0.15625413 14.864848 -5.153009
-6.10741 2.0412009 -24.584978 0.6659074 -12.0901375 12.187101 -10.643253 -4.254874
-6.134664 -1.5508348 -3.2141309 -8.722481 -13.341087 11.242809 -6.9369397 -2.6983013
10.015115 0.2716612 12.002273 -6.2657657 -6.2891254 1.2973267 -9.873105 -0.01268948
-11.614109 19.617594 -10.99428 -4.554476 -4.8121095 -0.7806698 -3.5921154 -8.305074
-15.596889 11.158444 -6.988827 -2.241158 10.549756 0.41017103 10.530654 -6.5936117

conv/W f4 [3, 1, 1, 6]
00000000: d37e 443d 3e9c 643d fecb 213e 9400 29bc
00000010: 8eb0 b33d 47db 593d 7b1d 89be c554 05bf
00000020: 6bd0 19c1 31aa f73f 9b6b 57c1 c186 b7be
00000030: d980 c63d 3cbd a03d 3f71 143f a412 a7bb
00000040: 5341 223e 4b95 c93d
0.04797251 0.055813067 0.15800473 -0.010315079 0.087739095 0.053187635 -0.26780304 -0.52082473
-9.613383 1.9348813 -13.463771 -0.35844997 0.096925445 0.078485936 0.579853 -0.0050986577
0.15845232 0.098429285

l0/W f4 [50, 139]
00000000: a5a2 223e 45be b03e e35b ee3e 5d3b 8abc
00000010: 0f45 5abe 70ac d9be 9eee 6b3b 38a4 7d3f
00000020: 670b ab3f e11c c13f c782 c53f 79d9 1940
00000030: f6a3 153f 31ec 21be de1a 6ebf 4e25 32be
00000040: 2d60 933e 916a 473f ebdb 493f 694d 3f3f
00000050: c071 d83d ffdc 3f3f 4195 fc3f 5239 c13e
00000060: a3b8 bfbf 9163 2abf 65f3 69bf 6d54 bdbf
00000070: 18ae 98bf 6fb2 51bf 0b62 603e a146 a53f
00000080: ebca 0340 006e 303f cb3f 323f 2dd4 30bd
00000090: 169d 59be 6147 783f 5dde 533f 8cca 5c3f
000000a0: f949 c9be c00f 06be d8ac 5fbf 6aa0 443e
000000b0: b52d d0be 075c 5cbf f9fc 68be 9d5c 80bf
000000c0: fcd0 b6be 39f8 1fbe 0885 ee3e d0ce 5fbd
000000d0: 8032 f9be de35 a8be 5b25 afbe f1c3 9fbf
000000e0: c396 aebe 8041 d6be 2653 31bf 7acb 81be
000000f0: e696 f2bd fcaf 113e 6bef 1c3e 5c9e 1340
00000100: 9c04 4040 5efe a940 8393 a740 46ce 8340
00000110: d686 a73f d035 ec3e 0eb3 763e 2c0d ad3e
00000120: f558 16bf 2807 3cbf b42f 81bf 4cb1 c2bf
00000130: ca3f a6bf ca20 9abf 3b4c 0cbf 9ebc 7dbf
00000140: 62fb 99be 3bc9 04be 49b9 ae3e 7d87 513e
00000150: b347 acbd 71d4 bebe 1eda 3dbf 0d3a 84be
00000160: 672f 2bbf 7320 2a3f 4568 4abf 7117 24bf
00000170: 79ce 81be 9181 67bf a72f 74bf 7849 80bf
00000180: a022 9fbe e63c 93bf 7772 20c0 0612 53c0
00000190: f595 5dc0 af11 39c0 a3f9 7abf a4cc b33f
000001a0: c820 0140 c47c 0140 243a 3f3f 9fc3 98be
000001b0: b0ff 70bf 1c4c acbe d332 53bf 3272 c2bf
000001c0: f19b 933e 9f5e 94bf 97b7 f13f 9824 0b40
000001d0: 6673 1240 c75e c93f d72d 483f 2a26 7dbd
000001e0: 0423 1ebf c1f1 a2bf ec31 9bbf f531 20c0
000001f0: f4f1 96bf b448 ecbe 3cc2 95be 13d5 acbe
00000200: fabf d0be 7349 8dbe be3b 5c3e 9805 20be
00000210: 2579 693f 90c8 00bf 9370 ac3e 6583 d8bd
00000220: 19ff f93d a720 fabf 8386 5bc0 9ad3 153f
00000230: ab8b bdbd 0bfc e83d 575e 9a3e 11a2 fc3d
00000240: e7b5 3e3e 61a6 a9bd afae f1be 6d2c 4abf
00000250: 5f55 8abf 50b3 53bf 0636 17bf 7aca 1fbf
00000260: 9040 a2be 02f2 43bf 809b 8ebf aec6 86bf
00000270: 5eb4 6cbf d5dc f5be 2788 3dbf 718f 30bf
00000280: 3a20 a83b 35cc 123e 6233 873d dc03 04be
00000290: a3f8 433b cd5c 253f b3b3 9b3f 1255 753f
000002a0: c6fe 0a3f 778f 043f d086 ee3e 399b 4dbf
000002b0: fe11 1cbf 9133 33bf f5ac 16bf 6ab8 4ebf
000002c0: d720 08be 3d5b e8bb ea2a d2be 0ee9 013f
000002d0: 1f60 91be c2a2 f63e c6e0 ad3e cf2c 8b3f
000002e0: b025 283f 3fbc 143f 37ab 1c3f d5d3 133f
000002f0: 733c 083f eea5 ee3e 80f0 5e3e bf25 b83e
00000300: 0488 573e 425c 813d b58f 59bc 948d b03e
00000310: 183d 9a3e 1ced fc3e 5340 c23e 7335 e03e
00000320: ee84 333f c21a 123f 8041 903e 4105 5c3e
00000330: 101b 80bd 74e1 313d 313c d03e 25d6 da3e
00000340: 9f6d afbe 0c3c 84be 8167 e4be e97f 87be
00000350: 2963 f6be f504 12bf 7770 40bf 63a3 58bf
00000360: 9d3e 46bf fd3e a5be 90f8 dfbc e7d7 c5bc
00000370: 5e9f f13d 7229 1b3e b1a8 21bd 4635 2a3d
00000380: c5da 913e 3dce fd3e 48f0 9c3e 9c89 3c3e
00000390: 31c7 9d3e 797e ab3c df79 933e 1890 81bd
000003a0: 4b5b 94be 1ef6 883e fd5c 3ebe 414f 5abe
000003b0: 63d9 6e3e df3b f93e 043f c43d 3ebc a5bf
000003c0: 30ea bebf ca41 cebe b3cb 54be c2eb 073e
000003d0: 7cfe 323e 3253 c93e 1009 8a3e 06fa 083e
000003e0: 2808 95be a17c d5be b65b 53be 2e0e 6bbe
000003f0: e3ba 82bd 66d9 05be 52c3 9c3e 8a52 b7bd
0.15882356 0.34520164 0.4655448 -0.01687401 -0.21315406 -0.42514372 0.0036000381 0.990787
1.3362855 1.5086938 1.5430535 2.4038985 0.5845331 -0.15812756 -0.93009746 -0.17397043
0.28784314 0.7789698 0.78851193 0.74727494 0.10568571 0.7494659 1.9733049 0.37739044
-1.4978222 -0.66558176 -0.91387016 -1.479139 -1.1928129 -0.81912893 0.219124 1.2912179
2.0592601 0.68917847 0.6962859 -0.043171097 -0.2125133 0.96983916 0.82761174 0.8624656
-0.3931425 -0.13091946 -0.87373114 0.19201818 -0.40659872 -0.8607792 -0.22752751 -1.0028263
-0.35706317 -0.15622033 0.4658587 -0.05464059 -0.4867134 -0.32853597 -0.34208187 -1.2481672
-0.34099397 -0.41846848 -0.692675 -0.25350553 -0.11845188 0.14227289 0.15325706 2.3065405
3.0002813 5.3123007 5.236757 4.11893 1.3088024 0.46134806 0.24091741 0.33799112
-0.5872949 -0.7344842 -1.0092683 -1.5210357 -1.2988217 -1.2041256 -0.5480382 -0.9911593
-0.30074602 -0.12967388 0.34125736 0.20461841 -0.08412113 -0.37271455 -0.74160945 -0.2582554
-0.66869205 0.66455764 -0.7906535 -0.6409827 -0.2535284 -0.9043208 -0.9538521 -1.0022421
-0.31081104 -1.150296 -2.5069864 -3.297975 -3.4622777 -2.8917043 -0.98037165 1.4046826
2.0176258 2.02324 0.7469809 -0.29836747 -0.9414015 -0.33651817 -0.82499427 -1.51911
0.2882991 -1.1591376 1.8884152 2.1741085 2.2882934 1.5732049 0.78194946 -0.061803974
-0.6177218 -1.2730027 -1.212461 -2.5030491 -1.1792588 -0.46149218 -0.29249752 -0.33756313
-0.40771466 -0.275951 0.21507165 -0.15627134 0.91200477 -0.50306034 0.33679637 -0.105719365
0.12206859 -1.9541215 -3.430085 0.58526003 -0.09255155 0.113761984 0.301501 0.12335599
0.18624078 -0.082836874 -0.47203586 -0.7897404 -1.0807303 -0.82695484 -0.5906681 -0.6241833
-0.31689882 -0.7654115 -1.1141205 -1.0529382 -0.9246272 -0.48020044 -0.74035877 -0.68968874
0.005130795 0.14335711 0.06601597 -0.12892097 0.0029902838 0.6459473 1.2164215 0.9583293
0.54295003 0.5178141 0.4658723 -0.80314976 -0.60964954 -0.7000056 -0.5885766 -0.80750144
-0.13293777 -0.0070909546 -0.41048366 0.5074624 -0.28393647 0.4817105 0.3396055 1.087305
0.65682507 0.5809974 0.61198753 0.57745105 0.5321724 0.4661097 0.21771431 0.35966298
0.2104798 0.06316425 -0.013278891 0.34483016 0.30124736 0.4939965 0.379397 0.4379078
0.7012471 0.5707208 0.28174973 0.21486379 -0.06255162 0.0434279 0.40670922 0.42741504
-0.34263322 -0.25827062 -0.44610217 -0.26464775 -0.48122528 -0.57038814 -0.7517161 -0.8462431
-0.7743929 -0.3227462 -0.027340204 -0.024150802 0.11797975 0.15152529 -0.039467517 0.04155471
0.2848722 0.4957141 0.3065207 0.18411869 0.30816033 0.02093433 0.28803918 -0.06326312
-0.289759 0.26750273 -0.1859016 -0.21319295 0.23325114 0.4867849 0.09582332 -1.2948072
-1.4915218 -0.40284568 -0.2078083 0.13273528 0.1747989 0.39321285 0.2696004 0.13376626
-0.29107785 -0.41696647 -0.20640454 -0.22954628 -0.06383302 -0.13071212 0.30617768 -0.0895129
