sample-agents/jam-dqn-lmd5/model.npz (npz, 38919 bytes, 8 tensors)

conv/b f4 [3]
0	0xbcce22b1	-0.025163027
1	0xbc1cfa52	-0.009581165
2	0xbdde0b0a	-0.10841949

conv/W f4 [3, 1, 1, 6]
0	0xbf0ea950	-0.557271
1	0xbf3cf155	-0.73805743
2	0x3fcd8b49	1.6058131
3	0xc003f015	-2.0615284
4	0xbf37c3b2	-0.7178298
5	0xbefa5b82	-0.4889794
6	0x3f064a91	0.5245753
7	0xbf160d71	-0.5861426
8	0xbf292d02	-0.660843
9	0xbf2e37fd	-0.6805418
10	0xbf2fc5f5	-0.68661433
11	0xbf323e6c	-0.696265
12	0xbe5e1488	-0.2168752
13	0x3f135769	0.5755525
14	0xbe902514	-0.28153288
15	0x3d9b30a8	0.0757764
16	0xbca818df	-0.020519672
17	0xbdac5ead	-0.084164955

l0/W f4 [50, 171]
0	0x3e1705b3	0.14748268
1	0xbddf9ed8	-0.10918969
2	0xbdaa002d	-0.08300815
3	0x3aa98615	0.0012933636
4	0x3d8d4768	0.06898385
5	0x3e57b06f	0.21063398
6	0x3d8f89a0	0.07008672
7	0x3da801c4	0.08203462
8	0x3dcd78dd	0.100328185
9	0x3d90a053	0.070618294
10	0x3dcb32be	0.09921788
11	0xbdf52869	-0.11970598
12	0x3d06a85f	0.032875415
13	0x3e09f6b8	0.13473022
14	0x3e22218b	0.15833108
15	0x3dd080cc	0.10180816
16	0x3e2c7b30	0.16843867
17	0x3de6bf52	0.1126696
18	0x3dea66e5	0.11445407
19	0x3ebbd8c1	0.36688808
20	0x3eac3584	0.3363458
21	0x3eb37e2d	0.35057202
22	0x3d5f446b	0.054508608
23	0xbd51e02f	-0.05123919
24	0xbd556950	-0.052102387
25	0xbe9c7b98	-0.30563045
26	0xbeb6f5fa	-0.3573454
27	0xbd95c73a	-0.0731339
28	0xbd5613e8	-0.052265078
29	0x3db01ae4	0.08598879
30	0x3e25f99e	0.16208503
31	0xbdc60657	-0.09669178
32	0x3be39471	0.006945186
33	0xbd76a4c0	-0.06021571
34	0xbe22f92a	-0.15915361
35	0x3d7aa079	0.061188195
36	0xbde3b884	-0.11119178
37	0x3cce86de	0.025210794
38	0x3e761085	0.24029739
39	0xbdabd5f5	-0.083904184
40	0x3eb06a94	0.34456313
41	0xbbf66efe	-0.0075205555
42	0xbcaf7fa5	-0.02142317
43	0xbdee4522	-0.1163428
44	0xbc7fc10f	-0.015609994
45	0xbe1f55dd	-0.15560098
46	0xbe01e7a9	-0.12686028
47	0xbd6179ad	-0.05504768
48	0x3de07e58	0.10961598
49	0x3d788b31	0.06067962
50	0xbdd10b33	-0.10207214
51	0xbd231a82	-0.0398202
52	0x3d4a88e1	0.049446944
53	0x3dd3d90e	0.10344134
54	0x3e6b78e1	0.2299533
55	0x3e857d4e	0.26072162
56	0x3ec5d661	0.3864012
57	0x3e484157	0.19556175
58	0xbb180664	-0.0023197168
59	0x3e8809e5	0.2657005
60	0x3e852971	0.2600818
61	0x3d866df6	0.06563942
62	0xbd3fdbbe	-0.04684042
63	0x3e3225ad	0.17397185
64	0xbda09d50	-0.07842505
65	0xbd8d3d00	-0.068964005
66	0xbd0b0b41	-0.03394628
67	0xbc0f49bf	-0.00874561
68	0x3eaec1a3	0.34132108
69	0x3aa48810	0.0012552757
70	0x3f13becc	0.5771301
71	0x3e88bbb6	0.26705712
72	0x3e0585a0	0.13039255
73	0x3d473971	0.048638765
74	0x3d5740a8	0.052551895
75	0xbde19706	-0.110151336
76	0x3d0a6737	0.03378984
77	0x3d75219f	0.059846517
78	0x3d2febf5	0.042949636
79	0x3dbc5b13	0.091970585
80	0xbdef004b	-0.11669978
81	0xb8a9001e	-8.05857e-05
82	0xbda8f3e2	-0.08249642
83	0xbe42aa23	-0.19010215
84	0xbdd0635a	-0.101752
85	0xbe8d7b17	-0.27632973
86	0x3dcadfdd	0.0990598
87	0x3d4ea84a	0.05045346
88	0x3e766487	0.24061786
89	0x3cde1080	0.027107477
90	0xbd8ff475	-0.07029048
91	0x3be621f8	0.0070230924
92	0x3ce61042	0.028083924
93	0xbe134e88	-0.14385426
94	0xbd20a8c9	-0.039223466
95	0xbd18139e	-0.037128083
96	0x3b814ee9	0.0039461744
97	0xbd939acd	-0.0720726
98	0xbcbd37bf	-0.02309787
99	0xbd14e84b	-0.036354344
100	0x3e1c37b1	0.1525562
101	0xbccbfbcf	-0.024900345
102	0x3df10712	0.11768927
103	0x3e299f9b	0.16564791
104	0xbcd746b5	-0.026278833
105	0xbc5d496d	-0.013506276
106	0x3d93715c	0.07199356
107	0xbe029f71	-0.12756135
108	0x3ccb3964	0.02480764
109	0xbe88d6fb	-0.26726517
110	0xbb917cf6	-0.0044399453
111	0xbe0dfcf5	-0.13866027
112	0xbdba48ae	-0.09095894
113	0xbec4c30c	-0.3843006
114	0xbddd66d2	-0.10810627
115	0xbec949bd	-0.3931407
116	0x3e914b60	0.2837782
117	0x3e1801df	0.14844464
118	0xbbfd2a49	-0.007725988
119	0x3d2e2d7a	0.04252384
120	0xbd42fbb4	-0.047603324
121	0x3d2d741a	0.04234705
122	0xbd8a1921	-0.06743074
123	0xbd11b401	-0.035572056
124	0xbe30164a	-0.17196003
125	0x3bcdfb27	0.006286043
126	0xbe23a628	-0.15981352
127	0x3dfa9fc8	0.12237507
128	0x3c23883d	0.009981212
129	0xbd394950	-0.045235932
130	0x3d78601b	0.06063853
131	0x3e20d2f7	0.15705477
132	0xbde96950	-0.1139704
133	0xbd976dc1	-0.07393981
134	0xbd89a74a	-0.06721361
135	0x3d5152d6	0.05110439
136	0xbdf55c29	-0.11980469
137	0x3c5ea4ab	0.013589065
138	0xbe28f8cc	-0.16501158
139	0xc01c88a1	-2.4458392
140	0xc0c1550c	-6.0416317
141	0xbdc878b1	-0.09788645
142	0xc050aabb	-3.2604206
143	0xbd5e2f7a	-0.054244496
144	0xbd3fd265	-0.046831507
145	0xbc848db5	-0.016180852
146	0xbeeaf5b4	-0.45890582
147	0xbccf9cf1	-0.02534339
148	0x3c44a535	0.012002279
149	0xbc0974a4	-0.008389626
150	0xbe4819a2	-0.19541028
151	0xbc8e865c	-0.017398052
152	0x3c2e05a2	0.01062146
153	0xbbde16f2	-0.0067776376
154	0x3dff2f51	0.12460197
155	0x3cbf068e	0.023318555
156	0x3bc0c944	0.0058833677
157	0x3c6f2f08	0.0145986155
158	0xbd98b100	-0.07455635
159	0x3c04ad9d	0.008098033
160	0xbd247363	-0.040149104
161	0x3bf2438a	0.007393305
162	0xbca30676	-0.019900542
163	0x3a71088a	0.0009194693
164	0x3ccfcaf5	0.025365332
165	0x3c54fb62	0.012999387
166	0x3e290113	0.16504316
167	0x3e4fec74	0.20305043
168	0xbeb1b6d7	-0.34709808
169	0xbf218219	-0.6308914
170	0xbfca1e10	-1.5790424
171	0xbe971353	-0.2950693
172	0xbddf36e4	-0.108991414
173	0xbe3b4cf1	-0.1829107
174	0x3ddfd34b	0.10928973
175	0xbd28d177	-0.041215386
176	0x3e66d4fd	0.22542186
177	0xbe3ec016	-0.18627962
178	0xbea1dd89	-0.3161433
179	0xbe137be3	-0.14402728
180	0xbeaf70ab	-0.34265646
181	0xbd6d184f	-0.05788451
182	0x3e87a463	0.26492605
183	0x3c53e964	0.012934063
184	0x3dd0a597	0.10187834
185	0x3e192a7f	0.14957617
186	0x3d4453b0	0.047931373
187	0x3e93ccd3	0.28867206
188	0x3e6b1338	0.2295655
189	0x3e4bb9a4	0.19895035
190	0x3da2e551	0.07953895
191	0xbd20cfc9	-0.03926066
192	0x3be781e1	0.0070650433
193	0x3ccd3b29	0.025052624
194	0x3d58abd5	0.052898247
195	0x3d736adf	0.059428092
196	0x3e494f5a	0.19659176
197	0x3e28f909	0.1650125
198	0x3d488243	0.048952352
199	0x3d0fb7bb	0.03508733
200	0x3de2752e	0.110575065
201	0xbe58ecab	-0.21184032
202	0xbebcea5d	-0.36897555
203	0xbe29f237	-0.16596304
204	0xbf0a86a8	-0.5411172
205	0xbe88cac8	-0.2671721
206	0xbf1004f4	-0.5625756
207	0xbec6b281	-0.38808063
208	0xbe929dbe	-0.28635973
209	0xbe9021cd	-0.28150788
210	0xbe8c8a15	-0.27449098
211	0xbe5edfc7	-0.21765052
212	0xbeed8009	-0.46386746
213	0xbf1934cd	-0.5984619
214	0xbf099af9	-0.53752095
215	0xbf0082b8	-0.5019946
216	0xbd72309f	-0.0591284
217	0xbe427af4	-0.18992215
218	0xbd44f930	-0.048089206
219	0x3df87e0e	0.12133418
220	0x3e034c28	0.1282202
221	0x3cff5f71	0.03117344
222	0xbdb99379	-0.09061331
223	0x3e5f2de5	0.21794851
224	0xbdfdd07a	-0.123932794
225	0x3dead11a	0.11465664
226	0xbd8547ef	-0.06507861
227	0xbc6809cb	-0.014162491
228	0x3d5ec484	0.05438663
229	0x3e2ac986	0.16678438
230	0xb9043ab1	-0.00012610365
231	0x3d123a26	0.035699986
232	0xbe829f08	-0.25511956
233	0xbe5ab6af	-0.21358751
234	0xbece624b	-0.40309367
235	0xbeb402e3	-0.35158452
236	0xbe9e5f37	-0.30932018
237	0xbe109bad	-0.14121886
238	0xbeb2671e	-0.34844297
239	0xbebf10e4	-0.37317574
240	0xbf1228a7	-0.5709328
241	0xbf23fb29	-0.64055115
242	0xbea2c189	-0.3178828
243	0x3c20bf8a	0.0098112915
244	0x3cccbb8d	0.024991775
245	0x3e8051d9	0.25062445
246	0x3e42457f	0.18971823
247	0x3c0faed4	0.00876971
248	0x3c90fb6e	0.017698016
249	0xbe196999	-0.14981689
250	0xbe323f47	-0.17406951
251	0xbe041f38	-0.12902534
252	0xbe8f1241	-0.27943614
253	0xbd98b613	-0.07456603
254	0xbdd09199	-0.101840205
255	0xbd1c80e4	-0.038208857

l2/b f4 [15]
0	0xbf8c5c4b	-1.0965666
1	0xbfaaef7b	-1.3354334
2	0xbfcc54b4	-1.5963349
3	0xbff49570	-1.9108105
4	0xc014f762	-2.327599
5	0xc0043b7e	-2.066131
6	0xc032a3d0	-2.7912483
7	0xc03eb467	-2.979761
8	0xc05766c5	-3.3656476
9	0xc0867677	-4.201961
10	0xc062319c	-3.534278
11	0xc08025f2	-4.004632
12	0xc0838c8e	-4.1109076
13	0xc0a0489e	-5.0088644
14	0xc0cbda58	-6.3704033

l0/b f4 [50]
0	0x3db0aaca	0.086263254
1	0xc04df310	-3.2179604
2	0x40137ff2	2.3046842
3	0x3e012d48	0.1261493
4	0xbcb244b7	-0.021761281
5	0xbf222f13	-0.6335308
6	0x3fc9fe0d	1.5780655
7	0xc02639dd	-2.5972817
8	0xbfa19102	-1.2622378
9	0xbc377113	-0.011196393
10	0xbdb7dd93	-0.08977809
11	0xbe270cd3	-0.16313486
12	0xc0279bff	-2.6188962
13	0xc0009a0d	-2.0094025
14	0xbfd412c8	-1.6568232
15	0xbfadb3f1	-1.3570539
16	0xbcbbf5cb	-0.022944352
17	0x402f594a	2.7398248
18	0xbe535ca7	-0.20640813
19	0x4087a410	4.238777
20	0x40020c56	2.032003
21	0xc0934fd0	-4.6034927
22	0x40190cb6	2.3914008
23	0xbfc0865a	-1.5041001
24	0xbfa01ee4	-1.2509427
25	0xc0090c88	-2.1413898
26	0x402ba9bd	2.682235
27	0xbfa3dd4f	-1.2801913
28	0xbdab3dd3	-0.083614014
29	0xbfe67164	-1.8003354
30	0x3faeecf9	1.3666068
31	0xbfae3209	-1.360902
32	0x3ed97c94	0.42477858
33	0x3f90079b	1.1252321
34	0x40356b13	2.8346603
35	0x3ea1f0f8	0.31629157
36	0x3ee6e728	0.45098233
37	0x3e9677de	0.29388326
38	0x3fbd2033	1.4775451
39	0x3e08e7a6	0.13369617
40	0x3f80a4b9	1.0050269
41	0xbfe7b09a	-1.810077
42	0x3fb03e5c	1.376903
43	0x3fea9c55	1.8328959
44	0x409a7670	4.8269577
45	0x3fe650e8	1.7993441
46	0x3fe1f505	1.7652899
47	0x400cf590	2.202488
48	0x3ede086d	0.43365803
49	0xbe20e838	-0.15713584

l1/b f4 [20]
0	0x40056887	2.0845048
1	0x3ec12bd1	0.37728742
2	0x3fb3d592	1.4049551
3	0xbef7cfce	-0.4840073
4	0x3ef3d327	0.47622034
5	0x3f8bf5df	1.0934409
6	0xbf5f0d70	-0.8712988
7	0x3f8778de	1.0583761
8	0x3fdcd5c0	1.7252731
9	0x3f3628c9	0.71155983
10	0x402d2ea4	2.7059717
11	0x40010636	2.016004
12	0xbf886c5b	-1.0658067
13	0xbdd06969	-0.101763554
14	0x3fd6b844	1.6774983
15	0x3e7eeea8	0.24895728
16	0xbfb03f2f	-1.3769282
17	0xbde97124	-0.11398533
18	0xc06e4983	-3.7232368
19	0xbe9be1c5	-0.30445686

l1/W f4 [20, 50]
0	0x3ef0cb85	0.47030273
1	0x3fe59e14	1.7938867
2	0x3c9ca833	0.019123172
3	0xbd8ea2ad	-0.06964622
4	0xbfa2be69	-1.2714359
5	0xbeb2c157	-0.34913132
6	0xbf002125	-0.50050575
7	0xbf8ba8a7	-1.0910844
8	0xbbe1c894	-0.006890366
9	0xbf195d8d	-0.5990837
10	0xbf961ee2	-1.1728175
11	0x3e5f3ac6	0.21799764
12	0x3ca70ba0	0.020391285
13	0x3ead65e0	0.33866787
14	0xbd1fb826	-0.038993977
15	0xbf15b26b	-0.5847537
16	0x3e942e32	0.28941494
17	0xbf1743fd	-0.59088117
18	0x3f014695	0.50498325
19	0xbf0ca56f	-0.5493993
20	0xbebbdcde	-0.36691946
21	0x3ebbdf7c	0.36693943
22	0xbf441aee	-0.7660359
23	0x3efa1564	0.48844445
24	0xbe146da0	-0.14494944
25	0x3f4561fb	0.7710263
26	0x3e196b81	0.14982416
27	0xbffa510f	-1.9555987
28	0xbdf5728c	-0.11984739
29	0xbddd59cd	-0.10808144
30	0xbf1c74a3	-0.61115474
31	0xbe33f6a4	-0.17574555
32	0xbfcd09ac	-1.6018577
33	0xbf91277e	-1.1340177
34	0x3eb92d8c	0.36167562
35	0x3f1c2c8d	0.6100548
36	0x3e6f0125	0.2334028
37	0xbfaad44e	-1.334604
38	0x3e8f5dfe	0.28001398
39	0x3e6de02e	0.23230049
40	0x3fb512d2	1.4146369
41	0x3d8cd655	0.06876818
42	0x3f20fcff	0.6288604
43	0x3f08d1a0	0.5344486
44	0xbf69a772	-0.91271126
45	0xbcec0284	-0.028809793
46	0x3de54c92	0.11196245
47	0x3fb45ec3	1.4091419
48	0xbeaf4a62	-0.34236437
49	0xbf8a0143	-1.0781635
50	0xbe0d0ec6	-0.13775167
51	0xbe3c88c5	-0.18411548
52	0xc009e71b	-2.1547306
53	0x3ef62084	0.48071682
54	0x3f1e3978	0.6180644
55	0x3f8eff40	1.1171646
56	0x3de45e65	0.11150817
57	0xbedce257	-0.43141434
58	0x3f356b0d	0.7086647
59	0x3d873687	0.06602197
60	0xbe8a4470	-0.2700534
61	0xbff3be73	-1.9042495
62	0xbf91129a	-1.1333802
63	0xbcb13c44	-0.021635182
64	0x3f32df80	0.69872284
65	0x3e1d8d55	0.15385945
66	0xbffae3ed	-1.9600807
67	0x3e4bb6cc	0.1989395
68	0xbc066e88	-0.008205064
69	0xbea01871	-0.31268647
70	0xbfabe589	-1.3429424
71	0xbf06b9ba	-0.52627146
72	0xbe4a7c9b	-0.19774096
73	0xbdfb8930	-0.12282026
74	0xbcce7eae	-0.02520689
75	0x3d1b7f5e	0.037963264
76	0x3ff45e31	1.9091245
77	0x3f08b907	0.5340733
78	0xbfd09498	-1.6295347
79	0x3fff87a0	1.9963264
80	0x3e77bc18	0.24192846
81	0x3fdc975b	1.723369
82	0x400fb7f2	2.2456021
83	0xbd3fe446	-0.046848558
84	0xbed9655d	-0.42460147
85	0xbe55df21	-0.20885898
86	0xbe000de1	-0.12505294
87	0x3ec5bbee	0.3861994
88	0x3ed91ee3	0.42406377
89	0x3d47d105	0.04878332
90	0x3e858223	0.2607585
91	0x401a61c8	2.412218
92	0x3e1c92ae	0.15290329
93	0xc01c18d9	-2.4390166
94	0xbe6250cc	-0.22101134
95	0xbf89ef46	-1.0776145
96	0xbcbc2328	-0.022965983
97	0x3e28b81a	0.16476479
98	0x404dd9b1	3.2164118
99	0x3d0b4d9a	0.034009553
100	0xbd8e3614	-0.06943908
101	0x3ed0c9a3	0.40778837
102	0x3da43958	0.0801875
103	0x3ee2bae6	0.44283217
104	0x3e2236c5	0.15841205
105	0x3de8d607	0.113689475
106	0x3d63c6b5	0.055609424
107	0xbff05e05	-1.8778692
108	0x3d30e4c3	0.043186914
109	0xbc01980a	-0.007909784
110	0x3d87c4f6	0.06629364
111	0xbeda26f9	-0.4260786
112	0x3f6a8008	0.9160161
113	0xbd6eb0f5	-0.058274228
114	0x3d8d1bf1	0.06890095
115	0x3dfbda7d	0.12297533
116	0x3d166cff	0.03672504
117	0xbda79c77	-0.0818414
118	0x3d154f70	0.03645271
119	0x3db48365	0.08814124
120	0xbd6b9337	-0.057513442
121	0x3e920850	0.28521967
122	0x3cf9cafc	0.030492298
123	0x3d90b7ec	0.0706633
124	0x3cf4912c	0.02985438
125	0x3da8e573	0.08246889
126	0xbcdf6b65	-0.02727289
127	0xc00f6b69	-2.2409308
128	0xbcf924e4	-0.030413099
129	0x3d00ef76	0.031478368
130	0xbda7e7d2	-0.08198513
131	0xbc6154e2	-0.013753148
132	0x3e11191e	0.14169738
133	0x3d14782d	0.03624742
134	0x3d750728	0.059821278
135	0x3d60bef8	0.054869622
136	0x3b4d40e4	0.0031319195
137	0xbc92147a	-0.01783203
138	0x3dc584b3	0.09644451
139	0x3d89b146	0.06723265
140	0xbf83b9eb	-1.0291113
141	0x3db2dac8	0.087331355
142	0xbdd8d30e	-0.105871305
143	0x3da0ed24	0.07857731
144	0x3d2844a7	0.041081097
145	0x3d0da950	0.034585297
146	0xbdc0b3af	-0.09409272
147	0x3be09848	0.006854091
148	0xbdbd6a08	-0.092487395
149	0xbc1a3cee	-0.009413941
150	0xbecca974	-0.39973032
151	0xbf51640f	-0.817933
152	0x3dd35ddc	0.10320637
153	0x3e0d4961	0.13797523
154	0x3e49ca43	0.19706063
155	0xbf3a3b52	-0.72746766
156	0x3ed42166	0.4143173
157	0x400a38e9	2.1597235
158	0xbce9a0a4	-0.028518982
159	0x3db08d30	0.086206794
160	0x3e5f6d59	0.21819057
161	0xbde046ec	-0.10951027
162	0xbf2de70b	-0.6793067
163	0xbe72831d	-0.23682828
164	0xbdeed23a	-0.11661191
165	0x3bfa744b	0.0076432577
166	0x3dd0f455	0.10202853
167	0x3eb72a4e	0.35774463
168	0x3b3ad270	0.0028506778
169	0x3f1f7ae7	0.6229691
170	0x3e440e45	0.19146068
171	0xbf380c3e	-0.7189368
172	0x3eb191ab	0.34681448
173	0x3e861603	0.2618867
174	0x3dda80f0	0.10669124
175	0xbee5c5e2	-0.44877535
176	0x3ae1d187	0.0017228582
177	0x3f3e87ff	0.74426264
178	0x3e1e9235	0.15485461
179	0xbdba6f22	-0.09103228
180	0x3d91959a	0.07108612
181	0xbdafd50c	-0.08585557
182	0xbe2e410d	-0.17017002
183	0x3e8307a2	0.2559176
184	0x3e5fcbbf	0.21855067
185	0x3e0e003b	0.13867275
186	0xbdbd57a7	-0.09245234
187	0x3da13b53	0.07872643
188	0x3d434bb4	0.047679618
189	0x3e622b6e	0.2208688
190	0xbf0a0d68	-0.53926706
191	0xbe3e1975	-0.18564399
192	0xb92a1ba0	-0.00016222754
193	0x3df226df	0.1182382
194	0xbdf73df8	-0.120723665
195	0x3d80b062	0.06283642
196	0xbde8cbd9	-0.11367006
197	0xbcd8dcfd	-0.026472563
198	0xbf572705	-0.84043914
199	0xbccd5935	-0.025066951
200	0xbd74ea43	-0.059793722
201	0xbfbf028b	-1.4922651
202	0x3de1d5e2	0.11027123
203	0x3fa8e9df	1.3196372
204	0xc0215f91	-2.521458
205	0xbf67aaeb	-0.90495175
206	0x3e861d20	0.26194096
207	0xbff2643c	-1.8936839
208	0xbcdd91a5	-0.027046988
209	0xbf38e01d	-0.7221697
210	0xbf370f8e	-0.7150811
211	0x3ea5ea03	0.324051
212	0xbdeb1b49	-0.114798136
213	0x3ec4b8c9	0.3842223
214	0xbdaa8a1f	-0.08327126
215	0xbe3a0011	-0.18164088
216	0xbe00ee02	-0.12590793
217	0x3e37d52f	0.17952417
218	0x3ecc46c4	0.3989774
219	0xbdf486c3	-0.11939766
220	0x3e2771d5	0.16352017
221	0x3f0dbc6f	0.5536565
222	0xbdff2c72	-0.12459649
223	0xbf000ece	-0.5002259
224	0x3e253c92	0.16136387
225	0x3ecde0f2	0.40210682
226	0xbdb99568	-0.090617
227	0xbffd4210	-1.9785786
228	0x3e56dc6c	0.20982522
229	0xbe0a480e	-0.13504049
230	0xbe2d7217	-0.16938053
231	0x3db19e0c	0.08672723
232	0x3ec53f22	0.3852473
233	0x3dcf49fc	0.10121533
234	0x3f7a16ff	0.9769134
235	0xbde6218c	-0.11236867
236	0x3f4d8557	0.80281585
237	0x3dd9a19e	0.10626529
238	0xbf0a27ed	-0.5396717
239	0xbf0bb348	-0.54570436
240	0x40927d53	4.5777984
241	0xbc0e9b56	-0.008704027
242	0x3f8b5d7f	1.0887908
243	0x3e197ad5	0.14988263
244	0x3ea8a5a4	0.32938874
245	0xbdb2cddf	-0.08730673
246	0x3eeadbfe	0.45870966
247	0x3ec0733f	0.37587926
248	0xbee3e41b	-0.44509968
249	0x3e274814	0.1633609
250	0xbf1a4bba	-0.602718
251	0xbf4b9a69	-0.79532486
252	0x3e327337	0.17426763
253	0xbf1c7ace	-0.61124885
254	0xc0867003	-4.2011733
255	0xbf9a83ad	-1.2071434

l2/W f4 [15, 20]
0	0xbf4016e0	-0.75034904
1	0x3fba72be	1.4566267
2	0xc0b66265	-5.699511
3	0x4019af40	2.4013214
4	0xc0249e93	-2.5721786
5	0xbf93a733	-1.15354
6	0x3e4210cb	0.18951719
7	0xbf51ac35	-0.8190339
8	0x3f83ed3b	1.0306772
9	0x3df4b031	0.11947668
10	0xbfcb497b	-1.58818
11	0xc047f041	-3.124039
12	0xc06bf61e	-3.6868968
13	0xbf95deb3	-1.1708587
14	0xc008ec90	-2.1394386
15	0x40895cfa	4.2925997
16	0x3efcacac	0.49350488
17	0xbfdb68e6	-1.7141387
18	0xbfe837c2	-1.8142016
19	0x3f492adc	0.78581023
20	0xbf8fff23	-1.1249737
21	0x3e9fa9f4	0.3118435
22	0xc0987f65	-4.765551
23	0x401f0f5a	2.485312
24	0xc01cfd67	-2.4529665
25	0xbfa4dadb	-1.2879289
26	0xbf85bfd6	-1.0449169
27	0xbe6a7533	-0.2289627
28	0x3ed3f390	0.4139676
29	0xbf17b85d	-0.5926569
30	0xc00f7935	-2.241773
31	0xc004e5a0	-2.0765152
32	0xc025c83a	-2.5903459
33	0xbfa862ba	-1.3155129
34	0xc0028f8a	-2.040011
35	0x408c3878	4.381893
36	0x3f0e7a0d	0.55654985
37	0xc008aa2a	-2.135386
38	0xc04bdf72	-3.185513
39	0x3f9adfc8	1.2099543
40	0xbf902f9e	-1.1264532
41	0xbd6d8b5d	-0.057994235
42	0xc084c4c7	-4.1490207
43	0x4020cda5	2.5125515
44	0xc01e10c6	-2.4697738
45	0xbfac80f6	-1.3476856
46	0xbf69b13f	-0.9128608
47	0xbe09493b	-0.13406841
48	0xbcbae977	-0.022816403
49	0xbe89afac	-0.2689184
50	0xc016afd2	-2.3544812
51	0xbfbacb81	-1.4593354
52	0xbffd1b73	-1.9774002
53	0xbfada452	-1.3565772
54	0xc001765b	-2.0228488
55	0x408b8738	4.360256
56	0x3f255ac1	0.64591604
57	0xc007edf6	-2.123899
58	0xc063b1b5	-3.5577214
59	0x3fbd40c7	1.4785393
60	0xbf907391	-1.1285268
61	0xbf252e98	-0.6452422
62	0xc0651847	-3.5796068
63	0x401edf9a	2.4823976
64	0xc01b2041	-2.4238436
65	0xbfb6b758	-1.4274702
66	0xbf36aab5	-0.7135423
67	0x3e55b6b9	0.20870484
68	0xbf05624e	-0.52103126
69	0x3eb710db	0.35755047
70	0xc030dc82	-2.7634587
71	0xbf17404a	-0.5908247
72	0xbfcbc8d6	-1.5920665
73	0xbfd7f495	-1.6871516
74	0xbffa16d6	-1.9538219
75	0x408a0839	4.3135037
76	0x3f5bbd7f	0.85836023
77	0xbffbce41	-1.9672319
78	0xc076b83f	-3.8549955
79	0x3fe4f786	1.7888038
80	0xbf8ac8c5	-1.084252
81	0xbf1c5a5c	-0.6107538
82	0xc0114453	-2.2697952
83	0x401acce0	2.4187546
84	0xbffecfa5	-1.9907118
85	0xbfc34c4d	-1.525766
86	0x3fa71b06	1.3055122
87	0x3e19aa69	0.15006413
88	0xbfd44bca	-1.6585629
89	0x401c57ba	2.4428544
90	0xc04511dc	-3.079215
91	0x3f15a8cc	0.5846069
92	0xbf8ff47e	-1.1246488
93	0xbfd8b571	-1.6930372
94	0xbff20c01	-1.8909913
95	0x4083d1b4	4.1193485
96	0x3f244bba	0.6417805
97	0xbfe0ea21	-1.757145
98	0xc08615ee	-4.190177
99	0x3fbb84b9	1.4649879
100	0xbf6d3957	-0.9266562
101	0x3fd77029	1.6831104
102	0xc0a231be	-5.068572
103	0x400aa50b	2.1663234
104	0x3f8de768	1.1086245
105	0xbf4a35f7	-0.78988594
106	0xbefe9374	-0.49721873
107	0xc00e7236	-2.225721
108	0x3e065121	0.13116886
109	0xbf4f33e7	-0.8093857
110	0xbeae1da2	-0.34006983
111	0xc03da40e	-2.963138
112	0xc080a3b5	-4.019984
113	0xbef299ef	-0.47383067
114	0xc006ec29	-2.108164
115	0x40934c2d	4.603049
116	0xbec63ab5	-0.38716665
117	0x3fc57d33	1.5428833
118	0xbfcd350f	-1.6031817
119	0x3f867c25	1.0506636
120	0xbfa97673	-1.3239273
121	0x3e226f62	0.15862802
122	0xc06ba28d	-3.6817963
123	0x4011ebdc	2.2800207
124	0x3f7187f7	0.9434809
125	0xbf87205f	-1.0556754
126	0xc0086c64	-2.1316156
127	0xbf686ca7	-0.9079079
128	0xbf761cdd	-0.9613779
129	0xbf8df32a	-1.1089833
130	0xbe91a73c	-0.28447902
131	0xc0332f14	-2.7997484
132	0xc01dbb65	-2.4645627
133	0xbf8a9d96	-1.0829341
134	0xc005b242	-2.089005
135	0x4098164e	4.7527227
136	0xbd8e880a	-0.06959541
137	0x3f935eef	1.1513346
138	0xc038e924	-2.8892298
139	0x3fbe641c	1.4874301
140	0xbfc3dc3d	-1.5301586
141	0xbebfd4e8	-0.37467122
142	0xc0498ceb	-3.149226
143	0x4011b8b7	2.276899
144	0x3f7f036b	0.9961459
145	0xbf909bab	-1.1297506
146	0xc001c824	-2.0278406
147	0xbea228e0	-0.3167181
148	0xbfb5fb2e	-1.4217279
149	0xbf60b769	-0.8777986
150	0xbe718fb2	-0.23589972
151	0xc01c0566	-2.4378295
152	0xbff038ce	-1.8767335
153	0xbf8b87a4	-1.0900769
154	0xc0073239	-2.1124403
155	0x4091c352	4.555093
156	0x3e38d39f	0.18049477
157	0x3f9d5128	1.2290392
158	0xc0643f3c	-3.5663595
159	0x3fea0bf4	1.8284898
160	0xbfc84c97	-1.5648373
161	0xbf267183	-0.65016955
162	0xc01afc41	-2.4216464
163	0x40146270	2.3185081
164	0x3f93545f	1.1510123
165	0xbf9a9adc	-1.2078509
166	0xbfc178ae	-1.5114954
167	0x3dec6649	0.11542947
168	0xc000a4ba	-2.010054
169	0x3c90dc6e	0.017683234
170	0xbea36f75	-0.31920972
171	0xbfcf6ae1	-1.6204492
172	0xbfa1b5b5	-1.2633578
173	0xbf9412dc	-1.1568255
174	0xc003b708	-2.0580463
175	0x40914fb1	4.540978
176	0x3efb506c	0.49084795
177	0x3fafb329	1.372655
178	0xc0847364	-4.139086
179	0x3fe9916e	1.8247507
180	0xbfc69fee	-1.5517557
181	0xbf49b9ef	-0.7879934
182	0xbf4e985f	-0.8070125
183	0x401181cc	2.2735472
184	0x3fa45e22	1.2841227
185	0xbfb1a3a5	-1.3878065
186	0x3f396413	0.72418326
187	0x3ef2307d	0.4730262
188	0xc04b57b7	-3.1772287
189	0x400287d9	2.0395415
190	0xbf6c139a	-0.9221741
191	0x3e3d07fa	0.18460074
192	0xbefbf7b5	-0.49212423
193	0xbfbc5de9	-1.4716159
194	0xc0024712	-2.0355878
195	0x40915abb	4.5423255
196	0x3f597ec2	0.8495904
197	0x3fce6d4b	1.6127104
198	0xc099689f	-4.794021
199	0x3ff758fe	1.9324033
200	0xbf89c25c	-1.0762439
201	0x401b0895	2.4223988
202	0xc0917d90	-4.5465775
203	0x3fee74e1	1.8629419
204	0x3faddaf3	1.3582443
205	0xbec80035	-0.39062658
206	0x3e9f868c	0.3115734
207	0xc067ee2d	-3.623912
208	0x3f9f60ef	1.2451457
209	0xbf7771eb	-0.966582
210	0xbf80764d	-1.0036103
211	0xbfbad9c6	-1.4597709
212	0xc0881649	-4.2527204
213	0x40111a0d	2.267215
214	0xc01c0f6c	-2.4384413
215	0x4097d727	4.7450137
216	0x3f159100	0.5842438
217	0xbf0176c8	-0.5057187
218	0xc0037e7a	-2.0545945
219	0x3f5a3a98	0.85245657
220	0xbfc7ae50	-1.5600071
221	0x3dc9ca41	0.0985303
222	0xc03fc4c9	-2.9963858
223	0x3ff679bb	1.9255899
224	0x3fa51d8c	1.2899642
225	0xbf2da08f	-0.6782312
226	0xc01b9d1b	-2.431464
227	0xc012d088	-2.2939777
228	0x3f8fd675	1.1237322
229	0xbf84fbe8	-1.0389376
230	0xbf3db45b	-0.74103326
231	0xbf8e54f7	-1.1119679
232	0xc03107af	-2.766094
233	0x400ef441	2.233658
234	0xc016e3cb	-2.3576534
235	0x4099ed75	4.8102365
236	0x3fd30333	1.6485351
237	0xbf7a27e7	-0.97717136
238	0xc01df617	-2.4681451
239	0x3fc36ef9	1.5268241
240	0xc0068bcf	-2.1022832
241	0xbef95312	-0.4869619
242	0xc00a8022	-2.1640706
243	0x3ff5ffed	1.9218727
244	0x3f9da522	1.231602
245	0xbf4d2daa	-0.801478
246	0xc02ad21b	-2.6690738
247	0xbf9a5efd	-1.2060238
248	0x3f91317b	1.1343225
249	0xbf8aa7ba	-1.0832436
250	0xbece53f3	-0.40298423
251	0xbf5b2cca	-0.8561522
252	0xbfe69b48	-1.8016138
253	0x400a6359	2.1623137
254	0xc017a6fe	-2.3695674
255	0x40964326	4.695697
