sample-agents/jam-dqn-lmd5/target_model.npz (npz, 38903 bytes, 8 tensors)

conv/b f4 [3]
00000000: 1a43 cdbc 0cf9 1cbc 5bd2 ddbd
-0.02505641 -0.009580862 -0.10831138

conv/W f4 [3, 1, 1, 6]
00000000: c8a8 0ebf a500 3dbf f68f cd3f 15f0 03c0
00000010: d4b0 37bf ad2e fabe 6248 063f 710d 16bf
00000020: 022d 29bf fd37 2ebf f5c5 2fbf 6c3e 32bf
00000030: 9ef3 5dbe f85e 133f 9022 90be 8181 9b3d
00000040: ebb8 a7bc 2422 acbd
-0.5572629 -0.7382911 1.6059558 -2.0615284 -0.71754193 -0.48863736 0.524542 -0.5861426
-0.660843 -0.6805418 -0.68661433 -0.696265 -0.21674964 0.57566786 -0.2815137 0.0759306
-0.020473918 -0.08404949

l0/W f4 [50, 171]
00000000: 2ae5 163e 05c1 dfbd 154d aabd adfe a13a
00000010: 372a 8d3d 09a4 573e 1077 8f3d 1101 a83d
00000020: be7c cd3d a7a0 903d 4b2d cb3d d443 f5bd
00000030: 14a1 063d 0cf5 093e 9c1c 223e 107b d03d
00000040: 9e76 2c3e fab5 e63d 4b56 ea3d f3d6 bb3e
00000050: 3f34 ac3e 1b7e b33e 3b12 5f3d daf5 51bd
00000060: 499d 55bd 2d7f 9cbe b1f7 b6be 3ecf 95bd
00000070: 0917 56bd c51a b03d b408 263e e411 c6bd
00000080: a40a e13b 03e4 76bd 0a04 23be a4f3 7a3d
00000090: 90dd e3bd c5cd cd3c b2ec 753e 4c05 acbd
000000a0: 0d66 b03e 5df0 f8bb 0b79 afbc 2f55 eebd
000000b0: e212 80bc 7a72 1fbe 04e6 01be 1c1b 62bd
000000c0: 537f e03d b88d 783d 980c d1bd e419 23bd
000000d0: 798d 4a3d 95d7 d33d ca7b 6b3e 1e7d 853e
000000e0: bece c53e a03c 483e deb7 16bb 7c09 883e
000000f0: 5d29 853e 9a6c 863d e1fb 3fbd 2618 323e
00000100: 7aa0 a0bd e747 8dbd 2509 0bbd 9149 0fbc
00000110: 9bc1 ae3e 6c58 a43a cdbf 133f 81bc 883e
00000120: 9c85 053e 923e 473d 833b 573d 0998 e1bd
00000130: bd65 0a3d 43f1 743d 24e5 2f3d cf5b bc3d
00000140: ea02 efbd f8f1 fab7 d8f3 a8bd c9a9 42be
00000150: 10a2 d0bd 0d77 8dbe b2be ca3d 04b1 4e3d
00000160: 6c63 763e 02fc dd3c 7430 90bd 072f e43b
00000170: b985 e53c 0052 13be 8abd 20bd 3825 18bd
00000180: 9fd2 803b 42a8 93bd 8b5e bdbc 49ef 14bd
00000190: 002e 1c3e 8471 ccbc 55f1 f03d 5796 293e
000001a0: 049b d7bc 8cf5 5dbc 7b5a 933d 60aa 02be
000001b0: 08ee ca3c 6fd8 88be 3d8b 91bb 8cfb 0dbe
000001c0: 0d50 babd f9c3 c4be ba6e ddbd 364b c9be
000001d0: 9949 913e d8f3 173e 15e4 ffbb 6ff5 2d3d
000001e0: 7204 43bd 8f4c 2d3d fe4f 8abd 4801 12bd
000001f0: 9d30 30be 9c15 cc3b 42b6 23be d36b fa3d
00000200: e494 213c a8a1 39bd 4b18 783d 84ac 203e
00000210: 0092 e9bd 2ba7 97bd e8d2 89bd db75 513d
00000220: 3f51 f5bd 42a3 5a3c c413 29be 7d8d 1cc0
00000230: 5f53 c1c0 b51b c9bd 69ab 50c0 9c3c 5fbd
00000240: 87e3 3fbd 9266 83bc 4dfe eabe 2d97 d1bc
00000250: 08b2 423c a324 0cbc 552b 48be 014f 91bc
00000260: 786f 2b3c cd67 ddbb 9216 ff3d 2d0e bc3c
00000270: 962e c13b 96b7 713c 2fdf 98bd 0c66 003c
00000280: b37b 24bd 3076 ee3b 5472 a3bc 4703 353a
00000290: df27 d13c 237e 543c 47f4 283e 0591 4f3e
000002a0: 78e1 b1be 8495 21bf da23 cabf 5e13 97be
000002b0: 1e36 dfbd d74c 3bbe acd3 df3d 48cf 28bd
000002c0: 16d5 663e 84c0 3ebe 61dd a1be f27b 13be
000002d0: e36f afbe 4502 6dbd 97a5 873e bb2f 543c
000002e0: 2fac d03d e32f 193e 4471 443d e0ce 933e
000002f0: cd16 6b3e 77c7 4b3e eae9 a23d 26be 20bd
00000300: 86eb e73b 544e cd3c 98ac 583d dc67 733d
00000310: fe50 493e d7f9 283e 8f8d 483d 43bc 0f3d
00000320: f977 e23d 52ed 58be 3dea bcbe 7df0 29be
00000330: 8786 0abf cfcb 88be 2605 10bf a3b2 c6be
00000340: be9d 92be 8e20 90be 9388 8cbe c7df 5ebe
00000350: e87f edbe c734 19bf 119b 09bf a282 00bf
00000360: 472f 72bd b77b 42be fdf6 44bd 0b7e f83d
00000370: 224c 033e 7163 ff3c 8b93 b9bd a82e 5f3e
00000380: 5ed0 fdbd ddd0 ea3d 1a43 85bd 3d08 68bc
00000390: bace 5e3d 35c9 2a3e f0c1 03b9 6038 123d
000003a0: 759e 82be 96b7 5abe c058 cebe 4703 b4be
000003b0: ec5c 9ebe 419a 10be 0b67 b2be 8610 bfbe
000003c0: c128 12bf 3cfb 23bf 81c1 a2be 1cbf 203c
000003d0: d8bd cc3c cf51 803e f044 423e ddb3 0f3c
000003e0: 0209 913c 2368 19be 9541 32be c21e 04be
000003f0: 5c12 8fbe f2b4 98bd ab8a d0bd 3776 1cbd
0.14735857 -0.109254874 -0.083154835 0.0012359224 0.068928175 0.21058668 0.07005131 0.082033284
0.10033558 0.07061892 0.09920748 -0.11975828 0.03286846 0.13472384 0.15831226 0.10179722
0.16842124 0.11265178 0.1144224 0.3668743 0.3363361 0.35057148 0.054460745 -0.051259853
-0.052151952 -0.30565777 -0.3573585 -0.07314919 -0.05226806 0.08598856 0.16214257 -0.09671381
0.0068677235 -0.060276043 -0.1591951 0.06126751 -0.11126244 0.025122533 0.24016073 -0.08399448
0.3445286 -0.007597013 -0.021420022 -0.11637341 -0.015634004 -0.15571013 -0.126854 -0.055201635
0.10961785 0.06068203 -0.1020748 -0.039819613 0.049451325 0.103438534 0.2299644 0.2607202
0.38634294 0.19554377 -0.0022997777 0.26569736 0.2600812 0.06563683 -0.04687107 0.17392024
-0.078431085 -0.0689848 -0.033944268 -0.008745567 0.34132084 0.0012538559 0.5771454 0.26706317
0.13039249 0.048643656 0.05254699 -0.110153265 0.03378843 0.059800398 0.042943135 0.091971986
-0.11670478 -2.9914998e-05 -0.082496345 -0.1901008 -0.10187161 -0.2762989 0.098996535 0.050461784
0.24061364 0.027097706 -0.07040492 0.006963614 0.028017865 -0.1438675 -0.03924326 -0.03714487
0.003931358 -0.07209827 -0.02311637 -0.036361013 0.15251923 -0.024956472 0.117647804 0.16561256
-0.026319034 -0.0135473125 0.07194992 -0.12760305 0.024771705 -0.26727626 -0.0044416473 -0.13865489
-0.090973 -0.38430765 -0.10812135 -0.39315194 0.28376463 0.14839113 -0.007809172 0.04247039
-0.04761166 0.04230934 -0.067535385 -0.035645753 -0.17206044 0.006228162 -0.15987495 0.12227597
0.009862158 -0.045320183 0.060570043 0.1569081 -0.114048004 -0.07404932 -0.0672968 0.051137786
-0.11978387 0.013344588 -0.16511446 -2.4461358 -6.041427 -0.09819738 -3.260462 -0.05450116
-0.046847846 -0.01604012 -0.4589714 -0.025584782 0.011883266 -0.008553657 -0.1954778 -0.017737867
0.010463588 -0.006756759 0.12455477 0.022955978 0.005895446 0.014753243 -0.07464444 0.00783683
-0.04015703 0.0072772726 -0.019951977 0.00069050904 0.025531707 0.012969526 0.16499434 0.20270164
-0.34742332 -0.6311877 -1.5792191 -0.29506963 -0.10898994 -0.18291031 0.10929045 -0.041213304
0.22542223 -0.18628126 -0.3161421 -0.1440275 -0.3426505 -0.057863493 0.26493523 0.012950833
0.101890914 0.14959674 0.04795958 0.2886877 0.22957917 0.19900309 0.07954772 -0.03924384
0.007077637 0.025061764 0.052898973 0.05942522 0.19659802 0.16501556 0.048963126 0.03509165
0.11058039 -0.2118428 -0.3689746 -0.16595645 -0.5411152 -0.26717994 -0.56257856 -0.38808164
-0.28635973 -0.28149837 -0.27447948 -0.21765052 -0.46386647 -0.59846157 -0.5375224 -0.5019933
-0.05912712 -0.18992506 -0.04808711 0.12133416 0.12822011 0.031175347 -0.09061345 0.21795142
-0.123932585 0.11465619 -0.06506939 -0.01416212 0.05439637 0.16678317 -0.00012565381 0.035698295
-0.25511518 -0.21359095 -0.40302086 -0.3515875 -0.3093027 -0.14121343 -0.3484424 -0.37317294
-0.57093436 -0.6405523 -0.31788257 0.009811189 0.024992868 0.25062415 0.1897161 0.00877091
0.01770449 -0.14981131 -0.1740783 -0.12902358 -0.27943695 -0.074563876 -0.10182699 -0.038198676

l2/b f4 [15]
00000000: 3f5b 8cbf a4f3 aabf 3b52 ccbf d195 f4bf
00000010: 39f9 14c0 9a3d 04c0 91a3 32c0 f4b4 3ec0
00000020: 3169 57c0 9576 86c0 b433 62c0 3027 80c0
00000030: 588d 83c0 054a a0c0 11da cbc0
-1.0965346 -1.3355603 -1.5962595 -1.910822 -2.3277113 -2.0662599 -2.7912333 -2.9797945
-3.3657954 -4.2019753 -3.5344057 -4.0047836 -4.111004 -5.0090356 -6.3703694

l0/b f4 [50]
00000000: 46d4 af3d cbf0 4dc0 6682 1340 bb2c 013e
00000010: c5cd b3bc fb2e 22bf a9f9 c93f d939 26c0
00000020: a89e a1bf 9855 37bc eede b7bd 9d0b 27be
00000030: 7c9c 27c0 649e 00c0 161c d4bf e0ba adbf
00000040: cd0f bcbc e661 2f40 634b 53be a3a2 8740
00000050: c40f 0240 334f 93c0 8b11 1940 c57e c0bf
00000060: 481f a0bf 3b0a 09c0 5da9 2b40 bbeb a3bf
00000070: d330 abbd 8779 e6bf 9ae8 ae3f 273d aebf
00000080: 1e84 d93e 5b0a 903f 576a 3540 9af4 a13e
00000090: d5d7 e63e 8972 963e d024 bd3f a811 093e
000000a0: fda4 803f 50b6 e7bf 043b b03f f7a2 ea3f
000000b0: 6576 9a40 4c54 e63f f2f5 e13f a3f5 0c40
000000c0: 4707 de3e 0bfc 20be
0.0858541 -3.2178218 2.304834 0.1261472 -0.021948704 -0.63352937 1.5779315 -2.5972807
-1.2626543 -0.011189841 -0.08978067 -0.16313024 -2.618926 -2.0096674 -1.6571071 -1.3572655
-0.022956753 2.7403502 -0.20634227 4.238603 2.0322123 -4.603418 2.3916957 -1.5038687
-1.2509546 -2.1412494 2.682212 -1.2806314 -0.08358922 -1.8005837 1.3664734 -1.3612412
0.4248361 1.125316 2.8346155 0.3163193 0.45086542 0.29384258 1.4776859 0.13385642
1.005035 -1.8102512 1.376801 1.8330983 4.8269525 1.7994475 1.7653182 2.2024925
0.43364927 -0.15721147

l1/b f4 [20]
00000000: 8069 0540 5623 c13e 1de2 b33f efd6 f7be
00000010: f8d2 f33e 6b06 8c3f 7806 5fbf 4e79 873f
00000020: 80d6 dc3f 932f 363f 0f2e 2d40 c505 0140
00000030: 7c68 88bf 6569 d0bd 49ca d63f 6a91 7e3e
00000040: 743e b0bf 3c71 e9bd eb44 6ec0 b4ed 9bbe
2.0845642 0.37722272 1.4053379 -0.4840617 0.47621894 1.0939459 -0.87119246 1.0583894
1.725296 0.7116634 2.7059362 2.0159771 -1.0656886 -0.101763524 1.6780483 0.24860159
-1.3769059 -0.11398551 -3.7229564 -0.3045479

l1/W f4 [20, 50]
00000000: 6fca f03e 489c e53f 1de9 9c3c 09c2 8ebd
00000010: f4bc a2bf 8bb9 b2be 5d21 00bf 99aa 8bbf
00000020: d15c e2bb d25a 19bf fb1c 96bf 482a 5f3e
00000030: 1f8f a63c 3164 ad3e aef4 1fbd cdb4 15bf
00000040: 4d2f 943e 1a40 17bf 3447 013f 9fa8 0cbf
00000050: 3eda bbbe f7db bb3e f01e 44bf b21d fa3e
00000060: 3f72 14be ed5e 453f 497b 193e 5c4f fabf
00000070: 3b79 f5bd 826e ddbd 1378 1cbf 04f9 33be
00000080: 590b cdbf d927 91bf 252b b93e cd2a 1c3f
00000090: 8205 6f3e 76d5 aabf 0066 8f3e daeb 6d3e
000000a0: dd10 b53f fec8 8c3d f2f8 203f fed3 083f
000000b0: cca4 69bf b3a8 ebbc 0135 e53d bb5f b43f
000000c0: 7942 afbe 2602 8abf f8ff 0cbe d877 3cbe
000000d0: bbe5 09c0 ff28 f63e 3835 1e3f 23fd 8e3f
000000e0: 2e55 e43d dbd9 dcbe 9165 353f 7421 873d
000000f0: ea4c 8abe 83bc f3bf 8410 91bf cac8 b0bc
00000100: 7ae5 323f 0679 1d3e e1dd fabf c3a0 4b3e
00000110: 3ea1 05bc ed11 a0be 76e8 abbf ccb5 06bf
00000120: 4e72 4abe cfc8 fbbd 2429 cdbc a9c9 1b3d
00000130: 2c5c f43f 11b5 083f 529b d0bf d988 ff3f
00000140: 11c3 773e 1d9c dc3f 07b9 0f40 1d88 3fbd
00000150: cc63 d9be 83d5 55be f2e0 ffbd 49c5 c53e
00000160: 4517 d93e b2a1 473d 9e8a 853e d960 1a40
00000170: d099 1c3e 8a1a 1cc0 bd5c 62be b8f2 89bf
00000180: fe71 bbbc 78bc 283e afd8 4d40 7e79 0b3d
00000190: 6989 8ebd 8797 d03e 1263 a43d bc88 e23e
000001a0: 35a3 223e b39e e93d eae0 643d 8f6a f0bf
000001b0: 3915 313d 8889 f7bb 2a8b 883d 2559 dabe
000001c0: ef66 6a3f 82aa 6fbd 7176 8c3d a356 fb3d
000001d0: 6510 163d 2ae8 a6bd 7828 163d 77c7 b43d
000001e0: 1b24 6bbd e0ce 913e 1140 fa3c 8846 913d
000001f0: 6579 f33c e601 a83d 2646 dcbc 9265 0fc0
00000200: b57e f8bc 1d2a ff3c a7dd a7bd cc32 65bc
00000210: 98b0 103e 79a9 153d 4e5c 763d d967 603d
00000220: 4e28 523b 9b08 91bc c72e c63d 1569 8a3d
00000230: 74c6 83bf 4ca6 b23d ff91 d9bd a040 a13d
00000240: e046 2a3d e94f 0e3d 4587 c1bd deb6 eb3b
00000250: 5fa1 bcbd 1eca 19bc 4696 ccbe f660 51bf
00000260: 1154 d33d 2f57 0d3e 9dbf 493e e43e 3abf
00000270: 3725 d43e ce39 0a40 c531 eabc 8378 b03d
00000280: 4c6b 5f3e 1620 e0bd 8fe3 2dbf ef7c 72be
00000290: afae eebd e22e fc3b 54f0 d03d ed23 b73e
000002a0: 5ff6 3e3b 2574 1f3f af03 443e 6607 38bf
000002b0: 0d97 b13e 7cff 853e c560 da3d f8ba e5be
000002c0: 043d da3a 6889 3e3f d78f 1e3e 60de b9bd
000002d0: 6964 913d aeab afbd c045 2ebe 6b02 833e
000002e0: abb2 5f3e be2c 0e3e c363 bdbd a582 a13d
000002f0: 0a10 433d 7cfd 613e 020a 0abf 9e05 3ebe
00000300: eade 1bb9 f41a f23d 2dc5 f7bd 9faf 803d
00000310: 15a4 e8bd 8975 d9bc c62a 57bf cde9 ccbc
00000320: cce8 74bd 7f02 bfbf a1d6 e13d ebe9 a83f
00000330: 925f 21c0 02ab 67bf 011d 863e 3064 f2bf
00000340: ad8e ddbc 02e0 38bf 840f 37bf 2dea a53e
00000350: 8e1a ebbd cdb8 c43e 4a89 aabd 6900 3abe
00000360: a3ed 00be 3ed5 373e f346 cc3e 8187 f4bd
00000370: 7771 273e 86bc 0d3f 0e2c ffbd e50e 00bf
00000380: e63c 253e 21e1 cd3e 9b95 b9bd 0442 fdbf
00000390: 1ddc 563e af47 0abe 6e72 2dbe 509d b13d
000003a0: f43e c53e ba4a cf3d e716 7a3f 4922 e6bd
000003b0: 6f85 4d3f 3ca2 d93d 0528 0abf 5fb3 0bbf
000003c0: 567d 9240 61a1 0ebc 795d 8b3f 777a 193e
000003d0: 75a5 a83e 21cd b2bd 2ddc ea3e 6f73 c03e
000003e0: 4ae4 e3be b147 273e eb4f 1abf 35bb 4bbf
000003f0: 2d8e 323e e19b 1cbf f56b 86c0 1f73 9abf
0.47029445 1.7938318 0.019154126 -0.06970603 -1.2713914 -0.34907183 -0.5005091 -1.0911437
-0.0069080372 -0.59904206 -1.1727594 0.21793473 0.020331917 0.33865502 -0.039051704 -0.58479005
0.28942338 -0.59082186 0.5049927 -0.54944795 -0.36689943 0.36691257 -0.76609707 0.4885078
-0.14496706 0.7709797 0.14988436 -1.9555469 -0.119860135 -0.10812093 -0.6112072 -0.1757546
-1.6019088 -1.1340286 0.3616573 0.6100281 0.23341945 -1.3346393 0.28007507 0.23234501
1.4145771 0.06874274 0.6287986 0.53448474 -0.91267085 -0.028766965 0.1119175 1.4091715
-0.34230402 -1.0781906 -0.1376952 -0.18405092 -2.1546466 0.48078153 0.61799955 1.1171001
0.11149059 -0.4313496 0.70858103 0.065981776 -0.27011806 -1.9041904 -1.1333165 -0.021580119
0.69881403 0.15378198 -1.9598962 0.19885544 -0.008156119 -0.31263676 -1.3430316 -0.5262115
-0.19770166 -0.122941606 -0.025044031 0.038034115 1.9090629 0.53401285 -1.62974 1.9963638
0.24195506 1.7235142 2.2456682 -0.046760667 -0.4245895 -0.2088223 -0.12494077 0.3862708
0.42400566 0.04873819 0.2608232 2.412161 0.1529305 -2.4391198 -0.2210569 -1.0777197
-0.022881504 0.16478145 3.2163503 0.03405141 -0.06959803 0.40740606 0.08026709 0.44244945
0.15882571 0.114072226 0.055878557 -1.8782519 0.04323313 -0.007554237 0.066671684 -0.42646137
0.91563314 -0.05851222 0.068585284 0.12272384 0.03663673 -0.081497505 0.036659688 0.088271074
-0.05740748 0.28478146 0.030548127 0.07093531 0.029720971 0.08203487 -0.026888918 -2.2405744
-0.030333856 0.03114801 -0.08196574 -0.013989162 0.14129865 0.036538575 0.060146622 0.054786537
0.003206748 -0.017704299 0.09676891 0.06758324 -1.0294938 0.08723125 -0.1062355 0.07873654
0.041571498 0.034744177 -0.09449629 0.0071934303 -0.092104666 -0.009386567 -0.399584 -0.81788576
0.10318769 0.13802789 0.19702001 -0.72752213 0.41434643 2.159778 -0.028588185 0.08616736
0.21818274 -0.1094362 -0.6792535 -0.23680471 -0.11654412 0.0076960186 0.10202089 0.35769597
0.0029138548 0.622866 0.1914203 -0.7188629 0.34685555 0.26171482 0.106629886 -0.44869208
0.0016650264 0.74428415 0.15484558 -0.09075618 0.0709923 -0.08577667 -0.17018795 0.25587782
0.218455 0.13884255 -0.09247544 0.078862466 0.047622718 0.22069353 -0.5392152 -0.1855683
-0.00014864994 0.11821547 -0.12098155 0.06283497 -0.11359421 -0.026545303 -0.8404964 -0.025013829
-0.059792325 -1.4922637 0.11027265 1.3196386 -2.5214581 -0.9049531 0.26194003 -1.8936825
-0.027045572 -0.7221681 -0.7150805 0.32405224 -0.11479674 0.38422242 -0.08326967 -0.18164219
-0.12590651 0.17952439 0.3989788 -0.11939908 0.16351877 0.5536579 -0.12459575 -0.5002273
0.16136512 0.40210822 -0.09061738 -1.9785771 0.20982404 -0.13503908 -0.16938183 0.08672583
0.38524592 0.10121675 0.97691196 -0.11237008 0.8028173 0.10626647 -0.53967315 -0.54570574
4.5778 -0.008705468 1.08879 0.14988123 0.32938734 -0.087305315 0.45871106 0.3758807
-0.44510108 0.16335942 -0.60278195 -0.7958253 0.17437048 -0.6117535 -4.2006783 -1.2066382

l2/W f4 [15, 20]
00000000: 3e16 40bf 0a74 ba3f 2b62 b6c0 03af 1940
00000010: 199f 24c0 85a6 93bf 2008 423e f1ab 51bf
00000020: 04ec 833f c2c2 f43d 054b cbbf 13f1 47c0
00000030: a8f6 6bc0 a7dd 95bf 76ec 08c0 245d 8940
00000040: 94b0 fc3e da67 dbbf d638 e8bf 212d 493f
00000050: 1ffb 8fbf 5b9a 9f3e 3380 98c0 a00d 1f40
00000060: 50fb 1cc0 c9da a4bf d8bc 85bf d553 6abe
00000070: 6904 d43e dcbd 17bf 1f77 0fc0 89e3 04c0
00000080: 1ac6 25c0 e366 a8bf 798f 02c0 6838 8c40
00000090: a771 0e3f 3fac 08c0 10de 4bc0 69dd 9a3f
000000a0: 5c30 90bf 9480 6dbd 54c4 84c0 e4cd 2040
000000b0: 0312 1ec0 787f acbf 85b4 69bf 7f50 09be
000000c0: d016 bbbc e0a8 89be d0b0 16c0 dacd babf
000000d0: ce1c fdbf d9a1 adbf 3575 01c0 5587 8b40
000000e0: 215c 253f baec 07c0 bcb2 63c0 1741 bd3f
000000f0: 2e73 90bf 712f 25bf 6f18 65c0 23df 1e40
00000100: 1120 1bc0 43b7 b6bf a9a9 36bf c6b9 553e
00000110: 8b61 05bf 3f0f b73e 51dc 30c0 873f 17bf
00000120: 5ec8 cbbf f6f4 d7bf 9215 fabf 2208 8a40
00000130: bcbc 5b3f a2ce fbbf 0db8 76c0 05f7 e43f
00000140: a2c5 8abf 785f 1cbf f245 11c0 fcca 1a40
00000150: f6cb febf 8b49 c3bf a11c a73f 06c9 193e
00000160: 1648 d4bf fa55 1c40 0210 45c0 44b0 153f
00000170: 2ef2 8fbf 1fb9 d8bf 430c f2bf dbd0 8340
00000180: 4f44 243f d0ed e0bf 1f15 86c0 d383 bb3f
00000190: 2031 6dbf 1e6c d73f a832 a2c0 d1a2 0a40
000001a0: 9feb 8d3f 8d3c 4abf 3a84 febe 1770 0ec0
000001b0: 4172 063e ee3b 4fbf cb0c aebe f1a1 3dc0
000001c0: 9fa2 80c0 ccaa f2be 13ed 06c0 ca4b 9340
000001d0: 664b c6be fc78 c53f 4931 cdbf 8278 863f
000001e0: e076 a9bf df74 223e 5da2 6bc0 d2eb 1140
000001f0: fd86 713f 5521 87bf a76c 08c0 7c6d 68bf
00000200: 131e 76bf d2f2 8dbf 34a9 91be 502f 33c0
00000210: a3bb 1dc0 199d 8abf beb2 05c0 6f16 9840
00000220: e37c 8ebd 6c5f 933f 62e9 38c0 b064 be3f
00000230: 1fdb c3bf 81d9 bfbe 498d 49c0 0ab8 1140
00000240: a105 7f3f d499 90bf 94c7 01c0 7724 a2be
00000250: 13fa b5bf b8b9 60bf d986 71be d804 1cc0
00000260: ae37 f0bf bf88 8bbf aa31 07c0 f7c2 9140
00000270: c7ca 383e 0d50 9d3f ae3e 64c0 b30a ea3f
00000280: bc47 c8bf d579 26bf 4bfe 1ac0 2860 1440
00000290: 3859 933f 0199 9abf 5576 c1bf f8b3 ec3d
000002a0: 4da2 00c0 b9b9 903c 0b5c a3be 0566 cfbf
000002b0: 1bb1 a1bf b417 94bf 00b7 03c0 6c4e 9140
000002c0: 073d fb3e 50ae af3f e972 84c0 e791 e93f
000002d0: b19f c6bf a4bb 49bf 209a 4ebf 2881 1140
000002e0: 9b5e a43f 8ca4 b1bf f165 393f e830 f23e
000002f0: 7d57 4bc0 9487 0240 b012 6cbf 820a 3d3e
00000300: 32f3 fbbe 625e bcbf 5846 02c0 a75a 9140
00000310: d57d 593f d26c ce3f 8068 99c0 3058 f73f
00000320: 6abe 89bf 2906 1b40 807e 91c0 f271 ee3f
00000330: 22df ad3f 22f8 c7be 0f94 9f3e 28ec 67c0
00000340: e564 9f3f 6775 77bf 4672 80bf a7d5 babf
00000350: c515 88c0 f517 1140 4910 1cc0 0fd6 9740
00000360: 0f89 153f 267f 01bf 527d 03c0 f139 5a3f
00000370: 46a9 c7bf 2782 c93d 1bc7 3fc0 0f75 f63f
00000380: 8f22 a53f eea1 2dbf b59a 1bc0 0cce 12c0
00000390: 7adb 8f3f 5b00 85bf 53aa 3dbf f64f 8ebf
000003a0: 3205 31c0 c5f1 0e40 f6e3 16c0 65ec 9940
000003b0: 37fe d23f ed31 7abf a8f4 1dc0 1b6c c33f
000003c0: 3c8a 06c0 0360 f9be 7a81 0ac0 0dfc f53f
000003d0: 4aa8 9d3f 1b2d 4dbf 80d0 2ac0 d65b 9abf
000003e0: a434 913f 36ab 8abf 4347 cebe 7a26 5bbf
000003f0: 2098 e6bf c561 0a40 d4a5 17c0 6242 9640
-0.7503394 1.4566662 -5.6994834 2.4013069 -2.5722106 -1.1535193 0.18948412 -0.81902987
1.0306401 0.119512096 -1.5882269 -3.124089 -3.6869297 -1.1708268 -2.1394324 4.2926197
0.49353468 -1.7141068 -1.8142345 0.78584486 -1.1248511 0.3117245 -4.7656493 2.4852066
-2.452839 -1.2879268 -1.0448256 -0.22883542 0.41409615 -0.5927408 -2.2416456 -2.0763876
-2.5902162 -1.3156399 -2.0400069 4.3818855 0.5564217 -2.135513 -3.1854286 1.2098819
-1.1264758 -0.05798395 -4.148966 2.5125666 -2.4698493 -1.34764 -0.91291076 -0.13409613
-0.022838026 -0.26886654 -2.3545418 -1.4594071 -1.9774415 -1.3565017 -2.0227787 4.36027
0.645937 -2.1238236 -3.557784 1.4785489 -1.128515 -0.64525515 -3.5796163 2.4823692
-2.4238322 -1.4274677 -0.7135263 0.20871648 -0.52101964 0.3575382 -2.763447 -0.5908131
-1.5920522 -1.6871631 -1.9537833 4.313493 0.8583486 -1.9672434 -3.8549836 1.7887884
-1.0841563 -0.61083174 -2.2698941 2.4186392 -1.9905994 -1.5256819 1.3055612 0.1501809
-1.6584499 2.4427476 -3.079102 0.58472085 -1.1245782 -1.6931494 -1.8909992 4.119245
0.6416673 -1.7572575 -4.1900783 1.4649605 -0.92653084 1.682987 -5.0686836 2.1661875
1.1087531 -0.78998643 -0.49710256 -2.2255914 0.13129522 -0.8095082 -0.33994135 -2.963009
-4.019851 -0.47395933 -2.1082199 4.6030016 -0.387294 1.5427547 -1.6030666 1.0505526
-1.3239403 0.15864895 -3.6817849 2.2800183 0.943466 -1.0557047 -2.1316316 -0.9079206
-0.9613964 -1.1089728 -0.28449404 -2.7997627 -2.4645774 -1.0829192 -2.0890346 4.7527385
-0.06957414 1.1513495 -2.8892446 1.4874477 -1.5301245 -0.3747063 -3.1492484 2.2768579
0.99617964 -1.1296945 -2.0278063 -0.31668445 -1.4216942 -0.87783384 -0.23586597 -2.4377956
-1.8766992 -1.0901107 -2.1124063 4.5550494 0.18046103 1.2290055 -3.5663257 1.8284515
-1.5646892 -0.6502965 -2.4217708 2.318369 1.1511602 -1.2077943 -1.5114237 0.11557764
-2.009906 0.017666684 -0.3190616 -1.6203009 -1.2632173 -1.1569734 -2.0580444 4.540823
0.49069998 1.3725071 -4.139027 1.8247651 -1.5517484 -0.7880194 -0.80703926 2.273508
1.2841371 -1.3878341 0.72421175 0.47302938 -3.1772149 2.039525 -0.92216015 0.1846104
-0.4920898 -1.4716303 -2.0355434 4.542316 0.8495763 1.6126959 -4.7940063 1.9323788
-1.0761235 2.422251 -4.546692 1.8628523 1.358372 -0.39056498 0.31167647 -3.6237888
1.2452666 -0.96663517 -1.0034873 -1.4596452 -4.2526574 2.2670872 -2.438494 4.74488
0.5841226 -0.5058464 -2.054524 0.8524466 -1.5598533 0.09839278 -2.9965274 1.9254473
1.2901171 -0.6782521 -2.4313176 -2.293826 1.1238854 -1.0390733 -0.7408802 -1.1118152
-2.765942 2.2335064 -2.3576636 4.8101068 1.648383 -0.9773243 -2.4680576 1.5267366
-2.1021872 -0.48706064 -2.1641526 1.9217545 1.2316983 -0.8014695 -2.6689758 -1.2059276
1.134419 -1.08335 -0.40288743 -0.85605586 -1.8015175 2.1622174 -2.3694963 4.6956034
